text_cnn/param/net_param/la01_actor_net.model (torch, 65367 bytes, 6 tensors)

feature1.0.weight f4 [6, 3, 5, 5]
0	0x3e7f1ebf	0.24914072
1	0x3cf3f8c0	0.0297817
2	0xbd49ff3b	-0.049315672
3	0x3da28e77	0.07937329
4	0xbdf0fce2	-0.117669836
5	0xbe3830fe	-0.17987439
6	0x3dcfaa4a	0.10139902
7	0x3d70a095	0.058746893
8	0x3d3bc4c0	0.045841932
9	0x3ce86341	0.02836764
10	0x3dc23fbb	0.09484812
11	0xbdd69a95	-0.10478703
12	0xbda58ea9	-0.08083851
13	0x3de2c905	0.11073498
14	0xbd1b7fa9	-0.037963543
15	0x3df69dab	0.120417915
16	0x3e74e35f	0.2391486
17	0x3cbf9d51	0.023390444
18	0x3d22d703	0.039755832
19	0xbd644735	-0.05573197
20	0xbd12118b	-0.03566126
21	0x3d2d2243	0.042269003
22	0xbe0c2e74	-0.13689595
23	0x3d0546af	0.032538112
24	0xbd1bb850	-0.03801757
25	0x3cbfe135	0.023422817
26	0xbdac7967	-0.08421593
27	0xbe24adc9	-0.16081919
28	0xbe3d9168	-0.185125
29	0xbd84080d	-0.06446848
30	0xbea727b3	-0.32647476
31	0xbce04bec	-0.027379952
32	0x3db1fc8c	0.086907476
33	0xbe4d8a14	-0.20072204
34	0x3cc8a2a7	0.024491621
35	0xbe845af9	-0.25850657
36	0xbe43b738	-0.19112861
37	0x3d25a569	0.04044095
38	0xbe8fb146	-0.28064936
39	0xbdbe66dc	-0.092969626
40	0xbd4e0510	-0.050297797
41	0xbe68a859	-0.2272047
42	0x3db3ff53	0.087889336
43	0xbc70d9fa	-0.014700407
44	0xbd573ff2	-0.052551217
45	0x3c77faa1	0.015135438
46	0x3d8eceb6	0.06973021
47	0xbd695b18	-0.05697164
48	0x3c966afa	0.018361557
49	0xbdafd351	-0.08585227
50	0xbe020f3f	-0.12701128
51	0x3cc42b8b	0.023946544
52	0xbd9b933f	-0.07596444
53	0x3d9eb3dd	0.0774915
54	0x3d8bccbb	0.068261586
55	0xbe799df8	-0.24376667
56	0xbd4cd829	-0.050010834
57	0x3d65b2b8	0.056078643
58	0x3e2ecf2c	0.17071217
59	0x3dd1cdac	0.10244307
60	0xbd3302ab	-0.043703716
61	0xbd02bc3c	-0.031917796
62	0x3dd33eea	0.10314734
63	0x3d0e13e0	0.034686923
64	0x3cd765ed	0.02629372
65	0xbd84efab	-0.064910255
66	0x3d8c13b6	0.06839697
67	0x3c4d5d23	0.012534413
68	0x3d8d820e	0.069095716
69	0x3dde56ac	0.10856375
70	0x3a60f6c5	0.00085816934
71	0xbd7e8bbb	-0.062144976
72	0x3cf13500	0.029444218
73	0x3ddba48c	0.10724744
74	0x3d0f2843	0.034950506
75	0xbd40c35f	-0.04706132
76	0xbdf01a66	-0.11723785
77	0xba8b8cca	-0.0010646817
78	0x3d3e2703	0.046423923
79	0x3e26afe4	0.16278034
80	0xbe4b684b	-0.19864003
81	0xbe0e710e	-0.13910314
82	0x3c5106ec	0.012757998
83	0x3cbe75fc	0.023249619
84	0xbc3cea04	-0.011530403
85	0x3d5a2a67	0.053263094
86	0x3d5a792b	0.05333821
87	0x3d01d80f	0.03170019
88	0xbc331699	-0.010930681
89	0xbe4b28de	-0.19839808
90	0x3d8393bd	0.06424663
91	0xbdc3cf29	-0.09560997
92	0xbe000ef4	-0.12505704
93	0xbdf760f3	-0.120790385
94	0x3e0894fc	0.13338083
95	0xbe557fdc	-0.20849556
96	0x3d632137	0.055451598
97	0x3c2cae5c	0.010539617
98	0xbe12133e	-0.14265153
99	0xbd896aaf	-0.067098014
100	0x3e008fcc	0.12554854
101	0xbe32998d	-0.17441387
102	0xbdb3a099	-0.08770866
103	0xbdb1a773	-0.086745165
104	0x3cd5f73b	0.026118865
105	0x3c880bb4	0.016607143
106	0xbe6c25a9	-0.23061241
107	0xbe7b4954	-0.24539691
108	0xbd5eaa5c	-0.054361686
109	0x3dc157b4	0.09440556
110	0x3e0f3b71	0.13987519
111	0x3dd36611	0.10322202
112	0x3e30a37b	0.17249863
113	0xbdd7fff7	-0.10546868
114	0xbc90f693	-0.0176957
115	0xbea1184f	-0.31463858
116	0x3dc45a2e	0.09587513
117	0xbba160af	-0.0049248557
118	0x3daee03a	0.085388616
119	0x3de0176b	0.109419666
120	0xbcaf44fa	-0.021395195
121	0x3d616070	0.05502361
122	0x3e28bd72	0.16478518
123	0x3cb8e412	0.02256969
124	0x3c9c69df	0.019093452
125	0xbd8d7bd2	-0.069083825
126	0xbe1187da	-0.1421198
127	0xbe0ede2d	-0.13951941
128	0xbd000dbe	-0.031263106
129	0x3dc95ece	0.09832536
130	0x3c249937	0.010046295
131	0xbd97b1c7	-0.07406955
132	0x3d6873e9	0.056751166
133	0xbdb6f86d	-0.08934102
134	0x3e09e34a	0.1346561
135	0x3d4e0cef	0.050305303
136	0x3c88fafc	0.016721241
137	0x3e84ca2d	0.25935498
138	0x3d8c93be	0.06864117
139	0xbd32992f	-0.04360312
140	0xbc32ba40	-0.010908663
141	0xbcf8a440	-0.030351758
142	0x3c677655	0.014127334
143	0xbdd98a2e	-0.10622059
144	0x3cd3ae9d	0.025840098
145	0xbdc07e26	-0.09399061
146	0xbe09b569	-0.13448109
147	0x3db675ac	0.08909163
148	0x3df1073d	0.11768959
149	0xbdb9a7d7	-0.09065216
150	0x3e205338	0.15656745
151	0x3cfc1c28	0.030775145
152	0x3e23aa3e	0.15982911
153	0x3c4b9614	0.012425918
154	0x3d892d91	0.06698144
155	0xbd07119f	-0.03297579
156	0xbdb9163e	-0.090374455
157	0x3e55c2b0	0.20875049
158	0xbdd56680	-0.10419941
159	0xbd7a1861	-0.061058406
160	0x3e0dd917	0.13852344
161	0x3d4bd0f9	0.04975984
162	0x3ddcd1ec	0.10782227
163	0xbc94f134	-0.01818142
164	0xbc3a27f0	-0.011362061
165	0x3e5ba01a	0.21447793
166	0x3e34258e	0.17592451
167	0x3c757da0	0.014983565
168	0xbc92c664	-0.017916866
169	0xbb1cfb45	-0.002395348
170	0xbe22688b	-0.15860192
171	0x3d334a79	0.043772195
172	0x3e04aeb6	0.12957272
173	0xbdef2f83	-0.11678984
174	0x3de1c18b	0.110232435
175	0xbc598a88	-0.013277657
176	0xbe601087	-0.21881305
177	0xbd87cd56	-0.066309616
178	0xbd07a877	-0.033119645
179	0xbcaa7d25	-0.020811627
180	0x3b16cff2	0.0023012129
181	0xbee9452c	-0.45560586
182	0x3e124c42	0.14286903
183	0xbe467e53	-0.19384126
184	0xbda89a35	-0.08232538
185	0xbe12255a	-0.14272061
186	0xbca2ea8a	-0.019887228
187	0xbc8500ac	-0.016235672
188	0xbe6ecc48	-0.23320115
189	0x3c01d680	0.007924676
190	0xbd190b12	-0.037364073
191	0xbcb35c69	-0.02189465
192	0xbd09b247	-0.033617284
193	0xbd7cecd5	-0.061749298
194	0xbe02048c	-0.12697047
195	0xbdc348bf	-0.095353596
196	0x3d6d0466	0.057865523
197	0x3dd75b9f	0.10515522
198	0xbd47e253	-0.048799824
199	0x3cb3ae14	0.021933593
200	0x3cf03d63	0.029326146
201	0xbd5a1b5a	-0.05324874
202	0x3d03c8fd	0.0321741
203	0x3d06f853	0.032951664
204	0xbdf543fa	-0.11975856
205	0xbd617e62	-0.05505217
206	0x3ad6a9c1	0.0016377495
207	0x3d4ba4c6	0.049717687
208	0xbe01f50d	-0.12691136
209	0xbcc3bdf2	-0.023894284
210	0xbd3b16de	-0.045676105
211	0x3d3d01db	0.046144348
212	0xbddcd9ba	-0.107837155
213	0x3d99169d	0.07475016
214	0x3debbfe8	0.115112126
215	0xbdc551ae	-0.0963472
216	0xbddf62b4	-0.10907498
217	0x3adae192	0.0016699305
218	0xbc847e6a	-0.01617356
219	0xbd7b6ef3	-0.061385106
220	0xbde5798a	-0.11204822
221	0xbd637c41	-0.05553842
222	0xbcbebd5a	-0.02328365
223	0xbe40c40e	-0.18824789
224	0xbce51395	-0.027963439
225	0xbcd02203	-0.025406843
226	0x3d6ec8a2	0.058296807
227	0xbdcddfde	-0.10052465
228	0x3dad6552	0.08466591
229	0x3e81a816	0.25323552
230	0x3e813795	0.25237718
231	0xbe8f459a	-0.2798279
232	0x3e8f5ddf	0.28001305
233	0x3de3cf66	0.111235425
234	0x3d8ab83d	0.06773422
235	0xbcbd9a96	-0.023145001
236	0x3d916a86	0.07100396
237	0x3dc5a6a1	0.096509226
238	0x3e634eda	0.22198048
239	0x3b1c44bb	0.0023844677
240	0xbe522620	-0.20522356
241	0xbe31b62d	-0.17354651
242	0xbe026f70	-0.12737823
243	0x3cc33371	0.02382824
244	0x3d7bd51c	0.061482534
245	0x3cb6902f	0.022285549
246	0xbe56f962	-0.2099357
247	0x3ed22a66	0.41047972
248	0x3dc1278c	0.09431371
249	0x3e0beede	0.1366534
250	0x3df23e1a	0.11828251
251	0x3dc1de6b	0.09466251
252	0x3dfda338	0.12384647
253	0xbbfa6c75	-0.0076423236
254	0x3d8866c4	0.06660226
255	0x3e50ba57	0.20383583

feature1.0.bias f4 [6]
0	0x3ec87149	0.3914893
1	0x3c236498	0.009972714
2	0x3ee6a715	0.45049348
3	0xbb4208b6	-0.0029607243
4	0xbc4cff52	-0.012512045
5	0xbe66532f	-0.2249267

fc2.weight f4 [50, 300]
0	0x3e391a62	0.1807647
1	0x3bc748b5	0.0060816654
2	0xbc07ffb7	-0.008300713
3	0x3daa8406	0.08325963
4	0xbd921a5f	-0.07133936
5	0xbc96bb2d	-0.0183998
6	0x3e31e4e0	0.17372465
7	0xbc6cbbe3	-0.014449093
8	0x3c90a9c6	0.01765908
9	0x3c89f770	0.01684162
10	0x3d9c9364	0.076453
11	0x3c1832c7	0.00928945
12	0x3cfefe98	0.03112726
13	0x3d7c1e9e	0.061552636
14	0xbd574ac2	-0.05256153
15	0x3d4562c9	0.048189912
16	0x3db92b2e	0.09041439
17	0xbc0d89bf	-0.008638798
18	0x3d69f622	0.057119496
19	0x3cdc2ffd	0.026878351
20	0x3ddab875	0.10679714
21	0x3d0116f9	0.03151605
22	0xbe043490	-0.12910676
23	0x3e410b20	0.188519
24	0x3de11566	0.109904096
25	0x3d3cea93	0.046122145
26	0xbd5bc020	-0.05365002
27	0x3dcb5e01	0.09930039
28	0xbd7f3c0e	-0.062313132
29	0xbd9ccea9	-0.07656605
30	0x3c29cd3b	0.010363872
31	0xbca0e43e	-0.019640084
32	0x3d9b3890	0.07579148
33	0x3d3a60c0	0.045502424
34	0x3ccb184c	0.02479186
35	0x3cf095cf	0.02936831
36	0xbcc5774b	-0.024104735
37	0xbc8f8bfc	-0.017522804
38	0x3e141975	0.14462836
39	0x3c3a9af4	0.011389483
40	0x3d6a3813	0.057182383
41	0xbb985353	-0.004648605
42	0x3d9dd71d	0.07707045
43	0xbd802120	-0.06256318
44	0xbd67fbf3	-0.056636762
45	0x3c46b59b	0.012128259
46	0xbbe0215a	-0.0068399133
47	0x3e043256	0.12909827
48	0xbd9b37ef	-0.07579028
49	0x3d3a085a	0.04541812
50	0x3d1d09f0	0.038339555
51	0x3d1289fd	0.035776127
52	0xbb131db1	-0.0022448117
53	0xbd33a20b	-0.043855708
54	0xbdb94d82	-0.090479866
55	0xbda06ecb	-0.07833632
56	0xbddc5971	-0.10759247
57	0xbc64583e	-0.013937054
58	0x3cd19851	0.025585325
59	0xbd86e865	-0.065872945
60	0xbdd07d0a	-0.10180099
61	0x3dc09c4e	0.09404813
62	0xbd0ce418	-0.034397215
63	0xbc51dd37	-0.012809089
64	0xbda467ce	-0.08027612
65	0x3d98a12c	0.07452616
66	0x3d3eb9ac	0.04656379
67	0x3d92c283	0.071660064
68	0x3c776b40	0.015101254
69	0xbb36ff2a	-0.0027923086
70	0xbb853874	-0.0040655676
71	0xbcba3d48	-0.0227343
72	0xbc1a2ade	-0.009409634
73	0x3d8c309c	0.06845209
74	0xbe106492	-0.14100865
75	0x3a6bad9d	0.0008990409
76	0xbc917c5b	-0.017759493
77	0x3da227fc	0.07917783
78	0xbd5ff5f6	-0.054677926
79	0xbd4ff0f0	-0.050766885
80	0x3d5da15f	0.054108974
81	0xbdfb6640	-0.12275362
82	0x3db0e9d2	0.08638348
83	0x3e06bfb6	0.1315907
84	0x3db424a5	0.08796052
85	0x3d856a09	0.06514365
86	0xbce55d13	-0.027998483
87	0x3cad367a	0.02114414
88	0xba994bfd	-0.001169562
89	0xbc59e4af	-0.013299151
90	0x3c10624b	0.008812497
91	0xbe0f7fa6	-0.14013538
92	0xbdecd6f4	-0.115644366
93	0xbbc01712	-0.005862125
94	0xbd92831c	-0.071539134
95	0xbc9862c6	-0.018601786
96	0x3d3bcd74	0.045850232
97	0x3cf4cb3e	0.02988207
98	0xbd64d3cf	-0.05586606
99	0x3dcd7a3d	0.10033081
100	0xbd28fc53	-0.04125626
101	0x3d99c016	0.075073406
102	0xbd06928a	-0.032854594
103	0xbda3abc5	-0.07991747
104	0x3dabccc7	0.083886676
105	0x3e08ff0d	0.13378544
106	0x3d776cd8	0.060406536
107	0xbd1a7e1d	-0.037717927
108	0x3e1a5f44	0.15075403
109	0x3e13e8ea	0.14444318
110	0x3d100bb3	0.035167407
111	0xbd65d646	-0.05611255
112	0x3c2b4516	0.010453483
113	0x3d4a434a	0.049380578
114	0xbd8b8221	-0.068119295
115	0x3ab65ceb	0.001391319
116	0x3dc238c8	0.094834864
117	0x3d90bdd9	0.070674606
118	0x3d00fdba	0.031491973
119	0x3d4398b8	0.047753066
120	0x3db4caed	0.088277675
121	0x3cbfffa8	0.023437336
122	0x3c589ac5	0.013220494
123	0x3e03660d	0.12831898
124	0x3d759568	0.059956938
125	0xbd0b34c6	-0.033985876
126	0x3d54f1a1	0.051988248
127	0xbb80937b	-0.003923831
128	0x3d4c1dbc	0.049833044
129	0xbc097206	-0.008389002
130	0x3d3a3900	0.045464516
131	0x3d590769	0.052985583
132	0xbaa6eb68	-0.0012734951
133	0x3d905a66	0.07048492
134	0x3ddb9a7d	0.10722826
135	0x3db0e5e3	0.086375974
136	0xbdb57afa	-0.088613465
137	0x3d92c8b2	0.07167186
138	0x3d472678	0.04862067
139	0xbc7e4400	-0.015519142
140	0x3dd45ced	0.10369287
141	0xbd12f560	-0.03587854
142	0x3de6bb59	0.112662025
143	0x3d631bd3	0.055446457
144	0x3dec4d91	0.11538232
145	0x3df8a143	0.12140133
146	0xbe132dc6	-0.1437293
147	0x3b5b1bc4	0.0033433298
148	0x3d76751c	0.060170278
149	0x3e12d04f	0.14337276
150	0x3dac5ea4	0.08416489
151	0x3d37ad3a	0.044842936
152	0xbe01f804	-0.12692267
153	0x3d36de41	0.04464555
154	0xbd41a2a7	-0.047274258
155	0xbd05ab08	-0.03263381
156	0x3cafc7ed	0.021457637
157	0x3c8d418b	0.017243167
158	0x3c2e62ef	0.010643705
159	0xbd8dcf9f	-0.06924366
160	0x3b5b39fa	0.0033451305
161	0xbcc508ec	-0.024052106
162	0x3b92caae	0.0044797277
163	0xbdcacdf8	-0.09902567
164	0xbe12b29b	-0.14325945
165	0x3d29b642	0.04143358
166	0x3e1ba5c1	0.15199949
167	0xbd717fdd	-0.05895983
168	0x3d6d5ece	0.05795174
169	0x3c9c72ac	0.019097649
170	0x3d3ab07f	0.045578476
171	0xbcd86729	-0.026416378
172	0x3dcc60f8	0.09979433
173	0x3c20e443	0.009820047
174	0x3bb942e1	0.0056537245
175	0xbcd216b4	-0.025645591
176	0x3da35d71	0.07976807
177	0xbd8aeb54	-0.067831665
178	0xbd03558c	-0.032064006
179	0xbb807815	-0.003920565
180	0xbd9012e2	-0.070348516
181	0xbdc504fd	-0.09620092
182	0xbddbaca7	-0.1072629
183	0xbd924f27	-0.07144003
184	0x3c4cf1cb	0.01250882
185	0x3d608087	0.054810073
186	0x3ddcafe1	0.10775734
187	0x3dd0986e	0.10185324
188	0xbd217509	-0.039418254
189	0x3bea37c8	0.007147763
190	0x3d26326c	0.04057543
191	0xbdcdfa38	-0.10057491
192	0xbd2305c2	-0.039800413
193	0xbd9dc287	-0.07703119
194	0x3d37ef3f	0.044905897
195	0x3d098030	0.033569515
196	0xbe4ba613	-0.19887571
197	0xbc81aca4	-0.015829392
198	0xbe6d9323	-0.2320066
199	0x3b80f5b4	0.00393554
200	0x3d49923c	0.049211726
201	0xbde84cf8	-0.113428056
202	0x3d62b6fa	0.05535028
203	0x3d9b1b96	0.07573621
204	0xbd815869	-0.06315691
205	0x3da27465	0.07932357
206	0x3dcc65e2	0.0998037
207	0xbd27876c	-0.040900633
208	0x3dfd7443	0.12375691
209	0xbc70d208	-0.014698513
210	0xbd1bc84a	-0.038032807
211	0xbd6512ca	-0.05592612
212	0xbdd1eec2	-0.102506176
213	0x3dcf7b58	0.10130948
214	0xbdbe3f0f	-0.09289371
215	0x3d1ecd37	0.038769927
216	0x3c0ca77b	0.008584852
217	0xbcd4c923	-0.025974816
218	0xbd3dfe2b	-0.04638497
219	0xbd1288c6	-0.03577497
220	0xbdaf6274	-0.085637
221	0xbc0435af	-0.00806944
222	0x3c2e1eb9	0.010627442
223	0x3d39ba4c	0.045343682
224	0x3c4a5425	0.012349163
225	0xba301b3e	-0.00067179266
226	0x3dca792e	0.098863944
227	0x3ce7c0fb	0.028290262
228	0xbcc30d76	-0.02381013
229	0x3c8968c5	0.01677359
230	0xbe44ad2b	-0.19206683
231	0x3d25c19e	0.04046785
232	0x3cad32a4	0.021142311
233	0xbc789ae1	-0.015173645
234	0x3dda21fc	0.10651013
235	0xbdcc6ff2	-0.099822894
236	0xbe30653c	-0.17226118
237	0xbd48a64f	-0.04898673
238	0x3d8854ec	0.066568226
239	0x3e2df5f4	0.16988355
240	0xbcbe2359	-0.023210214
241	0xbc6f1d96	-0.014594456
242	0xbe1a21c9	-0.1505195
243	0xbe198f9c	-0.14996189
244	0x3d4212ab	0.047381084
245	0x3cdb5310	0.026773006
246	0xbc3d631d	-0.011559275
247	0x3d6d1fac	0.057891533
248	0xbc9d0371	-0.01916668
249	0x3d0a377b	0.033744317
250	0xbdd1fb50	-0.10253012
251	0x3d04c75e	0.032416694
252	0x3dca1438	0.09867138
253	0xbcfb3e9e	-0.030669507
254	0xbda6c014	-0.08142105
255	0xbda20ad6	-0.07912223

fc2.bias f4 [50]
0	0x3d846cd1	0.064660676
1	0x3e9ff15d	0.31238833
2	0xbd256a44	-0.040384546
3	0xbc9bcde7	-0.01901908
4	0xbcf0a253	-0.029374277
5	0x3e3538c7	0.1769744
6	0xbccd79bc	-0.025082462
7	0x3d860b98	0.0654518
8	0xbce7fa1e	-0.028317507
9	0xbd36eae3	-0.0446576
10	0x3df5f079	0.12008757
11	0x3e5471f7	0.20746599
12	0x3de45e4c	0.11150798
13	0x3dde14d9	0.1084382
14	0x3e640028	0.22265685
15	0xbd864de1	-0.06557823
16	0x3e397c6e	0.18113872
17	0x3e36b6b0	0.17843127
18	0x3dbb2a5d	0.091389395
19	0xbd927066	-0.071503446
20	0xbd96ad5c	-0.073572844
21	0xbc2cf9b1	-0.010557578
22	0xbd50d7c3	-0.050987016
23	0x3e2bc704	0.16775137
24	0xbd0d78d8	-0.034539074
25	0x3d7c213b	0.06155513
26	0x3e438b32	0.19096068
27	0xbd2cfcc7	-0.042233255
28	0xbe0c358f	-0.13692306
29	0x3e51980c	0.20468158
30	0xbdcd251b	-0.10016843
31	0x3d40a736	0.047034465
32	0x3c9dd74d	0.019267702
33	0xbda7b4bc	-0.08188769
34	0xbda4edc2	-0.08053161
35	0x3e77c9d3	0.24198084
36	0xbd60baf5	-0.054865796
37	0x3db7e30c	0.08978853
38	0x3d9b981e	0.075973734
39	0xbdcba46c	-0.0994347
40	0xbdac4dfc	-0.08413312
41	0xbc34a37a	-0.011025304
42	0xbbf12c1f	-0.007359996
43	0x3ca28ff6	0.019844037
44	0x3d1a6595	0.037694532
45	0xbd00a7b7	-0.031409945
46	0xbc9587e6	-0.018253278
47	0x3c8b6a81	0.017018558
48	0xbddce194	-0.10785213
49	0x3e2c6857	0.16836677

action_head.weight f4 [6, 50]
0	0xbda247b6	-0.07923834
1	0xbe79170b	-0.24325196
2	0xbbb5bbd6	-0.0055460734
3	0xbd3cfaad	-0.0461375
4	0x3e499028	0.19683897
5	0xbe9b671c	-0.30352104
6	0x3d5d5d5d	0.054044116
7	0xbcf3e32d	-0.029771412
8	0x3d900c33	0.07033577
9	0x3deeddf0	0.11663425
10	0xbe070574	-0.13185674
11	0xbdf954f1	-0.121744044
12	0xbe03ee6b	-0.12883918
13	0xbe1ca26f	-0.15296338
14	0xbe9db655	-0.3080317
15	0xbd81b9ca	-0.063342646
16	0xbe84233c	-0.25808132
17	0x3dac541a	0.084144786
18	0x3e78b478	0.24287593
19	0x3d03e4ae	0.032200508
20	0x3e56652b	0.2093703
21	0x3d7177c5	0.05895211
22	0x3c475b73	0.012167799
23	0x3e259e3e	0.16173646
24	0xbcbf767c	-0.023371927
25	0x3e133415	0.14375336
26	0x3db72127	0.0894187
27	0x3d0d9c29	0.034572754
28	0x3c837779	0.01604818
29	0xbe5444ec	-0.20729417
30	0xbd895125	-0.0670493
31	0x3dc556e5	0.096357144
32	0x3df43d13	0.119257115
33	0xbd0a0a6f	-0.033701357
34	0x3e58c8c9	0.21170343
35	0xbdbabe85	-0.0911837
36	0x3b936a6e	0.0044987714
37	0xbdc38e36	-0.09548609
38	0xbe01e7fb	-0.1268615
39	0x3cf93d77	0.030424817
40	0x3db2ed06	0.08736615
41	0x3e05498f	0.13016342
42	0xbdf9f5ed	-0.1220511
43	0x3e1e8dfb	0.15483849
44	0xbdab506e	-0.0836495
45	0x3d3864f1	0.04501814
46	0xbd105e55	-0.035246212
47	0x3debc8e7	0.115129285
48	0xbdc05dbd	-0.09392879
49	0xbe39e026	-0.18151912
50	0x3e1e021a	0.15430489
51	0x3eae5690	0.34050417
52	0x3d259eae	0.040434532
53	0xbdc1fe65	-0.0947235
54	0xbe188ca4	-0.148974
55	0x3dc3eab3	0.0956625
56	0xbe37e54a	-0.1795856
57	0x3d9d292a	0.07673867
58	0xbdc1dca8	-0.09465915
59	0x3db0d1f8	0.08633798
60	0x3e03eac9	0.12882532
61	0x3e86dc08	0.26339746
62	0x3db5ed14	0.0888311
63	0xbca5ad57	-0.020224256
64	0x3e17a9cd	0.14810868
65	0xbd527d4e	-0.05138903
66	0x3e7eafc4	0.24871737
67	0x3dd008f4	0.10157958
68	0x3d6636a7	0.056204464
69	0xbddcad7a	-0.107752755
70	0xbb7195c1	-0.0036862942
71	0xbe982b13	-0.29720363
72	0xbdeb8b10	-0.115011334
73	0x3deed817	0.116623096
74	0xbe0c8a0c	-0.13724536
75	0x3d358900	0.044320107
76	0x3def7e37	0.116939954
77	0xbe156aa5	-0.14591463
78	0x3de08ca8	0.10964328
79	0x3e46a1c7	0.1939765
80	0x3d75df79	0.060027573
81	0x3d216eda	0.039412357
82	0xbe359472	-0.17732409
83	0x3e4237a5	0.18966539
84	0x3e6a6662	0.22890618
85	0x3e08a28a	0.13343254
86	0x3d59e95d	0.05320107
87	0xbd8555d3	-0.0651051
88	0x3e1475ee	0.14498112
89	0xbc3d80df	-0.01156637
90	0xbca301cc	-0.019898318
91	0xbd0b3098	-0.03398189
92	0x3d4526b9	0.048132632
93	0xbe8071a0	-0.2508669
94	0xbe0f9ee7	-0.1402546
95	0x3d8d731b	0.0690672
96	0xbd7af265	-0.06126632
97	0x3d43f775	0.047843415
98	0x3c0722fa	0.008248085
99	0x3d4e1887	0.05031636
100	0x3db5da16	0.08879487
101	0x3bfeeb47	0.007779512
102	0xbda95c28	-0.082695305
103	0x3db3db9c	0.087821215
104	0x3a0f424c	0.0005464896
105	0xbd6c0122	-0.057618268
106	0x3d64eba4	0.055888787
107	0x3e1e3186	0.15448579
108	0xbd634b2c	-0.05549161
109	0xbcb2ad76	-0.021811228
110	0xbdaf79ad	-0.0856813
111	0xbe4a088d	-0.19729824
112	0x3d775e79	0.06039283
113	0xbd9c2eea	-0.07626136
114	0xbd6284d8	-0.05530247
115	0xbd965ec8	-0.07342297
116	0xbdadfd07	-0.08495527
117	0xbe6087f1	-0.21926858
118	0xbab25e6d	-0.0013608463
119	0xbda53b99	-0.08068008
120	0x3d154de3	0.03645123
121	0x3e148f5a	0.1450781
122	0xbd796a3b	-0.060892325
123	0xbd9b471d	-0.07581923
124	0xbc83865a	-0.016055275
125	0xbe1a30e9	-0.1505772
126	0xbe96b961	-0.29438308
127	0x3dc15307	0.09439664
128	0x3c5a8a24	0.013338599
129	0xbdcc2dae	-0.0996965
130	0xbd99302d	-0.07479892
131	0x3df7164a	0.12064798
132	0xbe165d58	-0.14684045
133	0x3e293e48	0.16527665
134	0x3d241707	0.040061023
135	0xbd7d4cd5	-0.06184085
136	0x3dc12f8d	0.09432898
137	0xbdc65249	-0.096836634
138	0xbe12b4d0	-0.14326787
139	0x3ceacbc4	0.028661616
140	0xbddaa496	-0.106759235
141	0xbe2d8e00	-0.169487
142	0xbd34e6b3	-0.044165324
143	0xbdff75f7	-0.12473672
144	0xbd759637	-0.05995771
145	0xbcb9c04f	-0.022674708
146	0xbe2fa3f3	-0.17152385
147	0xbe92f914	-0.28705657
148	0xbe0dff25	-0.13866861
149	0xbe650230	-0.22364116
150	0xbe0aa24b	-0.13538472
151	0xbdbf892c	-0.09352335
152	0x3daa15c0	0.0830493
153	0x3d8de52b	0.06928476
154	0xbe6a5e1c	-0.22887462
155	0xbe6b43b8	-0.22975051
156	0x3e2b3c30	0.16722178
157	0xbdacee6d	-0.084439136
158	0x3d6a6942	0.057229288
159	0xbd830466	-0.06397323
160	0x3d817d34	0.06322709
161	0x3d232abb	0.039835673
162	0x3c805bae	0.015668716
163	0xbdbbd9b5	-0.09172384
164	0xbdbf2238	-0.093326986
165	0x3e012b5a	0.12614194
166	0xbe82ff50	-0.25585413
167	0x3dad2c59	0.08455724
168	0xbe1dbdce	-0.15404436
169	0x3b90985e	0.004412695
170	0xbd06573b	-0.032798033
171	0xbc45a7a9	-0.012063899
172	0x3c91e01a	0.017807055
173	0xbd8a32c5	-0.06747965
174	0xbc0eb545	-0.00871021
175	0x3e04fbec	0.12986726
176	0xbe51c6d5	-0.20486005
177	0x3d8fbaae	0.07018028
178	0xbd7ac235	-0.061220367
179	0x3def68d1	0.11689914
180	0xbe039e16	-0.12853274
181	0xbdfb6134	-0.122743994
182	0x3e1c9f80	0.1529522
183	0xbd6bbfc2	-0.05755592
184	0xbb4478e8	-0.0029979292
185	0xbdf46711	-0.11933721
186	0x3e12de1a	0.14342538
187	0x3d953014	0.07284561
188	0xbdbd036c	-0.09229168
189	0xbc9d1d3d	-0.019178981
190	0xbe052ba3	-0.13004927
191	0x3e0a48e5	0.1350437
192	0x3d4c1069	0.049820337
193	0xbd8374bc	-0.0641875
194	0xbd172b57	-0.036906566
195	0x3d7d7e23	0.06188787
196	0xbd867da2	-0.06566931
197	0x3e0feb69	0.14054646
198	0x3e13626d	0.14393015
199	0x3c340258	0.010986887
200	0xbdd83494	-0.105569035
201	0x3dd8b980	0.10582256
202	0xbdb1f48d	-0.086892225
203	0xbc690194	-0.014221568
204	0xbc9ac5a1	-0.018893065
205	0x3dee7441	0.116432674
206	0xbdb30336	-0.08740847
207	0x3da3d94d	0.08000431
208	0x3d881771	0.06645096
209	0xbd1bd418	-0.038044065
210	0xbe4e6410	-0.20155358
211	0x3dd6784c	0.104721636
212	0xbd866e75	-0.06564037
213	0x3df6dea7	0.12054186
214	0x3e0831f1	0.13300301
215	0xbddc7cde	-0.10766004
216	0x3d964fef	0.07339465
217	0x3d9653c4	0.07340196
218	0x3dfea269	0.12433321
219	0x3e43d6f3	0.19124965
220	0xbe0a8826	-0.13528499
221	0x3d937a77	0.07201093
222	0x3d9d5eda	0.07684107
223	0x3e18838f	0.14893936
224	0x3e0e3eba	0.13891116
225	0x3cd941d8	0.026520655
226	0x3df36ee4	0.11886385
227	0x3e15a9af	0.1461551
228	0xbce9d417	-0.028543515
229	0xbe057f8e	-0.1303694
230	0x3be1ab8d	0.0068869055
231	0x3d9aabcb	0.07552298
232	0xbba8639c	-0.0051388275
233	0x3ded5f37	0.115904264
234	0xbd9fad43	-0.07796719
235	0x3e3d9c78	0.1851672
236	0xbd8a82c8	-0.06763226
237	0x3de8238b	0.11334904
238	0x3d879a51	0.066212304
239	0xbdd0e8d8	-0.102006614
240	0xbe4681eb	-0.19385497
241	0xbda6337e	-0.0811529
242	0xbd541076	-0.05177351
243	0x3e293791	0.16525103
244	0xbd0800d2	-0.033203907
245	0x3e097fc7	0.1342765
246	0x3dcc53d8	0.099769294
247	0x3bfbea77	0.0076878625
248	0xbdacfe5c	-0.08446953
249	0x3df3cd1e	0.119043574
250	0x3d574269	0.052553568
251	0xbe6d9712	-0.2320216
252	0x3e048ed8	0.12945116
253	0xbd94b65e	-0.07261346
254	0xbdb659b2	-0.08903827
255	0x3df5951a	0.119913295

action_head.bias f4 [6]
0	0xbd181139	-0.0371258
1	0x3e1dbe90	0.15404725
2	0xbe17e1bb	-0.14832203
3	0x3bd8cc7b	0.006616173
4	0x3e5aec4a	0.213792
5	0xbe2fad5f	-0.1715598
