text_cnn/param/net_param/la01_critic_net.model (torch, 64407 bytes, 5 tensors)

feature1.0.weight f4 [6, 3, 5, 5]
-0.059219968 0.48232254 0.23534074 -0.046520222 0.2497047 -0.2211507 -0.463118 0.17625642
0.30257317 0.073730364 -0.19015065 0.02634714 0.15642285 -0.6249393 -0.36669636 -0.010123723
-0.16792613 -0.07427942 0.031545896 0.019756004 0.10675167 0.66494566 0.44232684 0.1733611
0.25097224 -0.46631277 -0.1519186 -0.055030473 -0.070181765 -0.076857336 -0.33416703 0.018208593
-0.127986 -0.06801043 -0.03784533 -0.059699602 -0.15840709 0.019171016 -0.12125789 -0.17494085
-0.07693071 -1.0387855 -0.0060320687 -0.16035865 -0.06748288 -0.2250405 -0.16828698 0.04591598
-0.121966295 -0.07642329 0.3670347 0.2662587 0.18156202 -0.09109178 -0.14678851 0.69908005
0.1372389 -0.18274057 0.19192366 0.0689306 0.2659296 -0.27252188 -0.001070385 -0.82097566
-0.44914362 0.1764697 0.5705634 -0.32371658 -0.24626227 -0.003950414 -0.34457964 0.18402147
0.01587746 -0.19178969 0.537155 0.26000503 0.29829916 0.3637153 0.06929649 0.31903931
-0.1632355 -0.5098732 -0.029301245 -0.6868615 -0.79872113 0.31073034 0.16206913 -0.026756354
-0.1110104 -0.21406035 -0.20117417 -0.3226606 -0.055209998 -0.21053393 0.103200614 -0.4120265
0.44615564 -0.2929154 -0.09244504 -0.03579559 -0.06781643 -0.008565142 -0.053192403 -0.042515595
-0.0771145 0.077878706 -0.81283194 -0.076991916 -0.0060999077 -0.22789067 -0.010152842 -0.12173993
-0.009421806 -0.036014553 -0.039246686 -0.06088602 -0.08630037 -0.18221273 -0.35508227 -0.09759936
-0.08722129 -0.03186595 -0.1670274 0.010010195 -0.13418841 0.010226868 -0.034421008 -0.01559793
0.055873066 0.43865308 0.17774567 -0.47602648 -0.391982 0.051638022 -1.2466649 0.16374755
0.13615048 0.37619534 -0.009263804 0.085787 0.020536168 -0.38521957 -0.16819027 -0.042874582
0.20978348 -0.2699513 -0.4392699 0.038547404 -0.40732858 -0.1999784 -0.35423812 0.051319547
0.15008235 -0.08687474 0.30174187 -0.5886969 0.23629817 0.12273675 -0.12856913 -0.31334516
0.0031902597 0.12186387 0.1667831 0.12589999 -0.077765845 0.35409546 0.31706887 0.4464119
0.20522548 0.0016904242 0.14770347 0.47831357 0.14612213 -0.039002102 -0.5541022 -0.06018684
-0.17170493 0.010794336 -0.048141353 -0.077797495 -0.1615034 -0.1011336 -0.034618568 -0.021138754
0.11671839 -0.042175658 -0.14305413 -0.0019784183 -0.009129727 -0.08447661 -0.51794094 -0.114981726
-0.077615865 0.046002135 -0.2647171 0.020857833 -0.06018793 -0.15750141 0.0040003913 -0.22207054
-0.36999303 -0.031636197 0.29148382 -0.14882433 -0.08326516 -0.23512396 -0.31402007 -0.04743058
0.10760184 -0.4720676 -0.28626552 -0.3717185 0.0035448621 -0.01842353 -0.19787319 -0.072888546
-0.064328715 0.37497157 0.28430706 -0.3551695 -0.08529999 -0.58774245 -0.11458017 0.31607455
-0.5943587 0.08319561 -0.125877 0.1703225 0.03820904 -0.027680298 -0.16817312 0.06410863
-0.060442016 0.030450415 -0.42324606 -0.057994906 -0.053392194 0.06113654 0.20409486 -0.47095698
0.22828399 -0.0028517905 -0.46410733 -0.018510506 -0.28233206 -0.1685031 0.2810461 0.3368816
0.017046144 -1.0970484 -0.34546614 0.07029647 -0.44009224 0.032448847 -0.02224383 -0.041950177
00000000: a390 72bd fbf2 f63e 2afd 703e fd8b 3ebd
00000010: 97b2 7f3e 5475 62be cd1d edbe 907c 343e
00000020: dfea 9a3e f2ff 963d dab6 42be f5d5 d73c
00000030: 502d 203e 06fc 1fbf a0bf bbbe f9dd 25bc
00000040: d4f4 2bbe cf1f 98bd 4536 013d 58d7 a13c
00000050: 9fa0 da3d e139 2a3f aa78 e23e 9285 313e
00000060: 6f7f 803e 8cc0 eebe 8d90 1bbe a267 61bd
00000070: 75bb 8fbd 6167 9dbd f117 abbe 302a 953c
00000080: c30e 03be 0d49 8bbd b403 1bbd 9287 74bd
00000090: 7835 22be 890c 9d3c 0e56 f8bd b223 33be
000000a0: d98d 9dbd ecf6 84bf a9a8 c5bb 0f35 24be
000000b0: 7734 8abd 0471 66be 6c53 2cbe 6512 3c3d
000000c0: 77c9 f9bd d083 9cbd f9eb bb3e 0f53 883e
000000d0: 65eb 393e 548e babd ba4f 16be e9f6 323f
000000e0: 5b88 0c3e 5820 3bbe a387 443e 7d2b 8d3d
000000f0: ed27 883e fd87 8bbe 294c 8cba 762b 52bf
00000100: 27f6 e5be 79b4 343e 7110 123f 2ebe a5be
00000110: 2d2c 7cbe 7972 81bb be6c b0be 2070 3c3e
00000120: 7211 823c 8464 44be fd82 093f 611f 853e
00000130: abba 983e e438 ba3e 51eb 8d3d 1f59 a33e
00000140: 3527 27be 0d87 02bf 2a09 f0bc 28d6 2fbf
00000150: fd78 4cbf 0c18 9f3e 73f5 253e 2430 dbbc
00000160: 6c59 e3bd a332 5bbe 9a00 4ebe c533 a5be
00000170: e123 62bd 3596 57be d85a d33d 23f5 d2be
00000180: 836e e43e 02f9 95be d353 bdbd 669e 12bd
00000190: 57e3 8abd cf54 0cbc 47e0 59bd d524 2ebd
000001a0: 35ee 9dbd df7e 9f3d c115 50bf f0ad 9dbd
000001b0: bce1 c7bb 2c5c 69be 1b58 26bc c952 f9bd
000001c0: eb5d 1abc ff83 13bd 22c1 20bd 9f63 79bd
000001d0: 40be b0bd f995 3abe 58cd b5be 2ce2 c7bd
000001e0: 13a1 b2bd df85 02bd 3b09 2bbe cd01 243c
000001f0: b068 09be 988e 273c 0bfd 0cbd 768e 7fbc
00000200: 28db 643d 2397 e03e f602 363e beb9 f3be
00000210: ddb1 c8be 6482 533d b792 9fbf 70ad 273e
00000220: 086b 0b3e ad9c c03e 36c7 17bc 18b1 af3d
00000230: 773b a83c 803b c5be 123a 2cbe 429d 2fbd
00000240: 7bd1 563e 0f37 8abe fce7 e0be e2e3 1d3d
00000250: 5f8d d0be 23c7 4cbe b35e b5be 7234 523d
00000260: 30af 193e 62eb b1bd e97d 9a3e d7b4 16bf
00000270: 26f8 713e 685d fb3d a0a7 03be c76e a0be
00000280: ad13 513b c493 f93d 30c9 2a3e edeb 003e
00000290: b343 9fbd 004c b53e da56 a23e 1a90 e43e
000002a0: a126 523e 3991 dd3a 943f 173e 84e5 f43e
000002b0: 0aa1 153e abc0 1fbd a4d9 0dbf 7a86 76bd
000002c0: 6bd3 2fbe bada 303c de2f 45bd 4b54 9fbd
000002d0: 2661 25be 221f cfbd 33cc 0dbd 2e2b adbc
000002e0: 0d0a ef3d 62c0 2cbd c87c 12be 5aa8 01bb
000002f0: da94 15bc 1302 adbd c797 04bf 8a7b ebbd
00000300: 11f5 9ebd bc6c 3c3d 0089 87be 0cde aa3c
00000310: 9e87 76bd 0d48 21be b715 833b 7666 63be
00000320: ba6f bdbe f594 01bd 5e3d 953e 6865 18be
00000330: ed86 aabd 56c4 70be 3dc7 a0be 9146 42bd
00000340: 5a5e dc3d d8b2 f1be 6591 92be e351 bebe
00000350: eb50 683b f1ec 96bc 459f 4abe 9746 95bd
00000360: c6be 83bd 46fc bf3e b290 913e c7d8 b5be
00000370: c3b1 aebd 4a76 16bf 02a9 eabd 86d4 a13e
00000380: e427 18bf 7662 aa3d e6e5 00be 0569 2e3e
00000390: 1581 1c3d cbc1 e2bc 9335 2cbe 634b 833d
000003a0: 0c92 77bd 2673 f93c b5b3 d8be 118c 6dbd
000003b0: c6b1 5abd 4f6a 7a3d 3efe 503e 4621 f1be
000003c0: 47c3 693e 1be5 3abb 7a9f edbe 58a3 97bc
000003d0: d48d 90be 148c 2cbe 46e5 8f3e bf7b ac3e
000003e0: 5ba4 8b3c 156c 8cbf f0e0 b0be 98f7 8f3d
000003f0: c553 e1be 15e9 043d b138 b6bc f3d3 2bbd

feature1.0.bias f4 [6]
0.14998439 0.40970638 0.40626028 -0.10581616 0.09226443 0.26611343
00000000: 8295 193e 09c5 d13e 5901 d03e 25b6 d8bd
00000010: 22f5 bc3d 0540 883e

fc2.weight f4 [50, 300]
0.21810584 -0.10148984 -0.22381286 0.10800902 -0.052880313 -0.2426845 -0.13743408 0.036692046
0.108492374 -0.047002874 0.38849992 -0.0056306063 -0.34436372 0.16656043 0.24830413 -0.502137
-0.58320117 -0.12307221 -0.05273325 -0.26443538 -0.15044813 0.049117696 -0.10719368 -0.023730835
-0.04851051 -0.27530128 0.11904672 0.1927374 0.3259326 0.11448239 0.43461195 -0.33787715
-0.15345927 0.04481025 -0.1547187 -0.31939748 -0.1575134 0.070534565 0.038258694 0.035351403
-0.09903589 0.13562845 0.009072614 0.31537306 0.23137318 0.0076500317 0.12671702 -0.31384677
-0.0854044 -0.053972624 -0.094855316 -0.0668957 -0.21612908 -0.23527016 0.2485502 0.18923461
-0.22030653 0.10097826 -0.00404226 0.011723932 0.16568485 0.043581143 0.16883124 -6.467081e-05
0.027939526 0.3575938 0.019383706 -0.13771148 -0.053176276 -0.39027953 -0.27230552 -0.051083867
0.10868679 -0.22657424 -0.23137286 0.025465725 0.14070389 0.09053501 0.2288982 -0.08622763
-0.05936996 -0.28451815 -0.12774317 -0.11139126 -0.15188576 0.09288836 -0.01127662 -0.10734438
0.014144773 -0.30555046 0.26098737 0.29969907 -0.041604433 -0.1819789 -0.5022728 0.053704135
0.72929513 0.0060533932 0.05611338 0.159538 -0.21253698 0.03900123 -0.14014676 -0.060354553
0.0780697 -0.12879112 -0.08722019 0.102495655 -0.2324065 -0.12984696 -0.06914526 -0.04918773
0.13964207 -0.029765952 -0.044696197 -0.691141 0.017503573 -0.0893198 0.38566202 -0.2650901
0.045312256 0.10965684 -0.09370239 -0.08538006 0.17041616 0.03326427 -0.00394716 0.14874206
0.16823447 0.13673005 -0.033816405 -0.06741302 -0.3312396 -0.31730807 0.11280463 -0.39125973
0.028341357 0.00608574 -0.39756647 -0.288118 -0.07986077 0.027020602 -0.07176284 -0.09817854
-0.09669764 -0.53649914 0.2797739 -0.11078453 -0.11979888 -0.13094771 -0.16419925 -0.3883577
0.19148202 -0.076504566 0.034088127 0.07446241 -0.24842022 0.29921013 -0.19088268 -0.050510425
-0.2930353 -0.10636933 0.19692443 -0.23278743 0.15122223 -0.12808926 -0.0721249 -0.04272321
0.008745464 0.04780177 -0.29114148 -0.6141204 0.13962182 -0.07649816 -0.16627477 -0.032586053
-0.052183334 0.13421191 0.024499271 -0.38972616 -0.21327552 0.567789 0.12843163 -0.18819837
-0.24969432 -0.067326315 -0.052175235 -0.07975399 -0.26327035 -0.18827848 -0.028895825 -0.25867966
-0.35811314 0.15740061 -0.225647 0.015180286 1.2918983 0.34394833 -0.06876086 -0.84965026
0.115237385 0.1670127 0.013206679 -0.3549465 -0.017540867 0.094736725 -0.15135692 -0.10909051
0.15557161 0.38104716 -0.35089174 0.027766103 -0.22784157 0.038318586 0.0211589 -0.17012307
-0.26567125 0.038213816 0.22144887 -0.0033795112 0.0076594385 -0.11073303 0.15255709 -0.27510235
0.04417183 -0.16242112 -0.26310828 0.029537393 0.31982464 -0.19145638 -0.11900514 0.4070685
-0.25347272 -0.4651502 -0.11078249 -0.12539713 -0.5034346 0.0083653275 0.032321185 -0.15946561
-0.27146703 -0.14522001 0.073004596 -0.13583711 -0.18886133 -0.19767454 -0.05586436 -0.17104702
-0.05472824 0.18414599 -0.4802679 -0.14787585 0.085568026 -0.17262812 -0.078276604 -0.25941634
00000000: 2357 5f3e e8d9 cfbd 332f 65be d533 dd3d
00000010: 0799 58bd 4982 78be 85bb 0cbe 664a 163d
00000020: 4031 de3d 1686 40bd 76e9 c63e f380 b8bb
00000030: 7150 b0be d18e 2a3e 7043 7e3e 0d8c 00bf
00000040: ac4c 15bf 480d fcbd d2fe 57bd 1364 87be
00000050: 130f 1abe a32f 493d 5c88 dbbd 2b67 c2bc
00000060: f5b2 46bd 4af4 8cbe c4ce f33d f45c 453e
00000070: a3e0 a63e be75 ea3d 7585 de3e 3cfe acbe
00000080: 6d24 1dbe f48a 373d 946e 1ebe 1188 a3be
00000090: 314b 21be 6d74 903d 26b5 1c3d a2cc 103d
000000a0: 54d3 cabd 2fe2 0a3e 4da5 143c 9478 a13e
000000b0: 17ed 6c3e 1ead fa3b 1bc2 013e 86b0 a0be
000000c0: 81e8 aebd 6612 5dbd 8143 c2bd 9d00 89bd
000000d0: f150 5dbe a9ea 70be f283 7e3e b8c6 413e
000000e0: 0998 61be b1cd ce3d ef74 84bb bc15 403c
000000f0: 4aa9 293e 2482 323d 19e2 2c3e e09f 87b8
00000100: 6fe1 e43c 8916 b73e 94ca 9e3c 3d04 0dbe
00000110: 5ecf 59bd b8d2 c7be a16b 8bbe 513d 51bd
00000120: 2e97 de3d 1403 68be 02ed 6cbe 7f9d d03c
00000130: ae14 103e 6b6a b93d 4a64 6a3e 1d98 b0bd
00000140: ea2d 73bd 5dac 91be 1bcf 02be 1a21 e4bd
00000150: f187 1bbe 413c be3d 93c1 38bc 5fd7 dbbd
00000160: 7abf 673c 1c71 9cbe 23a0 853e 2872 993e
00000170: 6969 2abd ad58 3abe f394 00bf def8 5b3d
00000180: 16b3 3a3f 8b5b c63b 25d7 653d ee5d 233e
00000190: 4ba3 59be c1bf 1f3d a282 0fbe 5636 77bd
000001a0: 02e3 9f3d d2e1 03be 80a0 b2bd 3ee9 d13d
000001b0: f8fb 6dbe 9af6 04be 089c 8dbd 1379 49bd
000001c0: 55fe 0e3e bad7 f3bc 5c13 37bd 9eee 30bf
000001d0: a763 8f3c 4ded b6bd 7e75 c53e e4b9 87be
000001e0: 5899 393d c493 e03d 0ae7 bfbd bedb aebd
000001f0: 9381 2e3e 1d40 083d 2e57 81bb d74f 183e
00000200: a845 2c3e f602 0c3e 1283 0abd d60f 8abd
00000210: 3d98 a9be 3476 a2be 1d06 e73d 3253 c8be
00000220: 222c e83c e36a c73b d58d cbbe 3484 93be
00000230: 0b8e a3bd 4f5a dd3c 65f8 92bd d511 c9bd
00000240: 6a09 c6bd 0258 09bf 863e 8f3e 00e3 e2bd
00000250: 1d59 f5bd 2817 06be d923 28be d2d6 c6be
00000260: dd13 443e 6dae 9cbd fe9f 0b3d bf7f 983d
00000270: df61 7ebe 1232 993e c076 43be 05e4 4ebd
00000280: b908 96be 2ad8 d9bd 8fa6 493e d45f 6ebe
00000290: 00da 1a3e d529 03be 38b6 93bd 88fe 2ebd
000002a0: 2249 0f3c cacb 433d 7f10 95be ff36 1dbf
000002b0: 06f9 0e3e 11ab 9cbd ef43 2abe f478 05bd
000002c0: 31be 55bd d96e 093e b2b2 c83c 308a c7be
000002d0: e664 5abe 9f5a 113f 9583 033e 13b7 40be
000002e0: deaf 7fbe 61e2 89bd b3b5 55bd 0f56 a3bd
000002f0: 5fcb 86be 13cc 40be f0b6 ecbc a971 84be
00000300: 9b5a b7be a02d 213e 0210 67be bcb6 783c
00000310: ec5c a53f ff19 b03e 7ed2 8cbd ae82 59bf
00000320: 9401 ec3d 6105 2b3e d460 583c 8cbb b5be
00000330: ddb1 8fbc 5405 c23d 4ffd 1abe d86a dfbd
00000340: 2a4e 1f3e 9d18 c33e 15a8 b3be bd75 e33c
00000350: 4d4f 69be f3f3 1c3d 6e55 ad3c be34 2ebe
00000360: 1006 88be 1786 1c3d 7ec3 623e ca7a 5dbb
00000370: 07fc fa3b 00c8 e2bd ed37 1c3e 37da 8cbe
00000380: 85ed 343d b951 26be 21b6 86be 67f8 f13c
00000390: 0ec0 a33e 240d 44be f8b8 f3bd 486b d03e
000003a0: 2dc7 81be 2b28 eebe eee1 e2bd 1b68 00be
000003b0: 17e1 00bf ba0e 093c 3863 043d f44a 23be
000003c0: bafd 8abe 8eb4 14be 6f83 953d e218 0bbe
000003d0: dd64 41be 326b 4abe 07d2 64bd f326 2fbe
000003e0: b82a 60bd c490 3c3e ade5 f5be c46c 17be
000003f0: 4a3e af3d 6dc5 30be 7c4f a0bd 38d2 84be

fc2.bias f4 [50]
0.12259232 0.3928383 0.011437927 0.026241217 0.0039174366 0.79313546 0.013661732 0.029753601
-0.015540211 -0.07220699 -0.007962549 0.23149359 0.02358286 0.19805342 -0.033703987 0.24066201
0.7931406 -0.040959675 -0.02049811 -0.5241963 0.1867675 0.2025062 -0.058892492 0.4913254
0.5132104 0.72576386 0.8020009 -0.045401663 -0.04641947 0.12554656 -0.029236205 0.022647751
-0.06282527 0.35359624 0.3682675 -0.059393067 -0.044802446 0.3656664 0.1946267 0.14482708
0.29373318 -0.027597059 0.3190457 0.20666236 0.83170176 -0.017939396 0.32267967 -0.07511155
0.027714914 0.8559102
00000000: af11 fb3d 1a22 c93e 2566 3b3c d2f7 d63c
00000010: d75d 803b ed0a 4b3f 75d5 5f3c d3bd f33c
00000020: 5f9c 7ebc 42e1 93bd 5a75 02bc a80c 6d3e
00000030: d830 c13c 84ce 4a3e 310d 0abd 1a70 763e
00000040: 430b 4b3f 55c5 27bd a7eb a7bc bb31 06bf
00000050: fb3f 3f3e c95d 4f3e 4139 71bd 018f fb3e
00000060: c261 033f a9cb 393f ee4f 4d3f 18f7 39bd
00000070: 5822 3ebd 478f 003e c480 efbc c787 b93c
00000080: 89aa 80bd 910a b53e 8f8d bc3e 2546 73bd
00000090: c582 37bd a038 bb3e 394c 473e 8d4d 143e
000000a0: 3264 963e 3a13 e2bc f559 a33e 4c9f 533e
000000b0: 68ea 543f a4f5 92bc 4536 a53e 16d4 99bd
000000c0: 630a e33c ee1c 5b3f

state_value.weight f4 [1, 50]
-0.10367348 -0.36038774 0.10307769 0.09015476 0.038044922 -0.07131024 -0.008932472 0.060996708
0.075918846 0.006727675 -0.018366178 -0.19477618 0.098114304 -0.20738992 0.11032731 -0.13951999
-0.051643483 0.077114895 0.009774156 0.09807638 -0.37587184 -0.13552618 0.04516228 -0.26234192
0.016974252 -0.030212175 -0.057110846 0.080801666 0.06680073 -0.15877713 0.0878637 0.08380731
0.081925474 -0.25548694 -0.1599559 0.003500238 0.05895578 -0.1869569 -0.13899247 -0.102742724
-0.07571989 0.102074474 -0.11262932 -0.28923106 -0.07417358 0.018756306 -0.302826 0.11307784
-0.0035152026 -0.07050691
00000000: c352 d4bd be84 b8be 651a d33d 0fa3 b83d
00000010: fed4 1b3d 1a0b 92bd 8159 12bc afd7 793d
00000020: 577b 9b3d d473 dc3b ab74 96bc 6873 47be
00000030: 27f0 c83d 065e 54be 49f3 e13d 54de 0ebe
00000040: 1e88 53bd 6aee 9d3d c823 203c 45dc c83d
00000050: 4672 c0be 60c7 0abe 15fc 383d ae51 86be
00000060: 960d 8b3c 867f f7bc 10ed 69bd 587b a53d
00000070: d2ce 883d 7996 22be e2f1 b33d 2ba3 ab3d
00000080: 8bc8 a73d 2fcf 82be 7bcb 23be 4064 653b
00000090: 9e7b 713d a171 3fbe 0b54 0ebe c76a d2bd
000000a0: 0813 9bbd 6c0c d13d 33aa e6bd 1816 94be
000000b0: 51e8 97bd d3a6 993c 020c 9bbe 5b95 e73d
000000c0: 505f 66bb ed65 90bd
