text_cnn/param/net_param/la06_critic_net.model (torch, 139543 bytes, 5 tensors)

feature1.0.weight f4 [6, 3, 5, 5]
00000000: ebdc 01bf a9c8 b53d 5b39 853d bfae 7ebd
00000010: f625 493f f684 75bd 36bb 0f3e 1681 483d
00000020: 85d7 6dbe d993 5bbf 1283 05be 70a3 79be
00000030: 996d c2bc 46dc 593e 4522 8d3e 5d68 b7be
00000040: 9095 bfbd e91a 1b3e 2744 2dbe bb12 cc3d
00000050: fa94 84be 23f3 8abe a2fa 8f3e f495 4bbf
00000060: 5d16 603e bd1f 2abe d3c3 44bd b8a0 d83b
00000070: 9fab ecbd 4edc d6bc 871a a9bd c31a d5bc
00000080: a449 39be 58fc 783b 48ef 14be 6d7b 3cbd
00000090: 6aef 9abc 233e b2bc feaf 91bb 4641 76bc
000000a0: 2026 1dbd 99a0 34be 5aa3 63b9 9059 f5ba
000000b0: acd9 03bf 5181 52bd 342b 11bd 8176 00bd
000000c0: 1805 1f3c 7491 21bc 57db 853d 5e89 8b3a
000000d0: 2d06 863e 7a13 623e 5092 c8be 3233 22be
000000e0: 5e26 b1bd 0d46 153c 8aa8 063e e499 b5bf
000000f0: f6f6 8bbe cbf2 ff3e bff9 733e efbb c6bd
00000100: 53c4 103f 0d9e 9bbe 27b6 6d3d 7b35 af3f
00000110: ef08 c4be 12c3 5a3e b50d 72be 9c87 d63e
00000120: 5cd9 ef3f dfd0 d5be fe0a cebd 35d3 99be
00000130: 6390 293e c3db 14be 1f6f 0fbe 0369 273e
00000140: 957f 12be 9b9c e83e 7a26 0d3d ade7 363e
00000150: 3e49 24be add5 37be ddf8 853e 63f9 27be
00000160: 0061 03bf f768 c0bd 352e 55be 3c80 98bd
00000170: 0926 cebe ba24 9cbe 284b 3ebe 6c90 983d
00000180: 3151 b83e 0f02 c43c dd75 733e e361 d63c
00000190: f4c6 9dbd 849b 60bd 5bdc 0bbd e97d 17be
000001a0: 60a3 5dbc 9c02 9dbd 5ef0 47be 41c3 dbbd
000001b0: 7df6 1cbd 0325 3abd a093 debe 5d70 dbbc
000001c0: 9527 59bd bfd0 7bbd 4c3b 78bd 5ded a8bd
000001d0: 9eb7 0bbd dedf d1bd c798 8fbd d33d 10be
000001e0: 2c7f a3bd f578 2fbf 675f c9bd 6ad1 b3bd
000001f0: c85a c6bd da24 f23a d1f4 bd3e 88ee 7d3f
00000200: 0157 463f 6738 b33e 8e84 833d 047a 00be
00000210: dfbc a4bf e32d bc3e ddbe 9f3e 810b 95be
00000220: 02d4 4abc a309 e4bc 52b7 67bf 6b0e debe
00000230: 63c5 ab3e 2ec0 243e 61c9 943f e4cc e33e
00000240: a1ad a03e 1f4b ec3e dea1 6a3e 7377 e4be
00000250: 62d1 3b3f 9c27 2fbd 77b5 08bf f3b6 dabc
00000260: dcd4 8d3e 4d9d ecbd 36da 523e c034 643e
00000270: 3d30 483d 176e b83d eaa4 053e 3620 8abe
00000280: 45d0 3ebe 4ecb 6abc 5a4a 093e 34df 00bd
00000290: 8b82 783e a196 933e 174f 28bd 0ad9 c93d
000002a0: f7f7 e93d 68a6 a1be 88fe 8f3d 9e04 0fbf
000002b0: 90bd 493e 9fff cabe 9866 7c3d 90d9 fabc
000002c0: 8e5b 22be b8de 1cbe 6df7 11be 74a3 87bd
000002d0: 78a9 9ebb aeb4 0dbd 2d9e 78bd 2520 2abd
000002e0: 807d 86bb e17b 04be cff1 0abd bfde f9bc
000002f0: 4e70 cebd 3d79 f2bc 894b 3cbd a41f 89bd
00000300: 2180 89bd 2d11 f8bc 3b02 203c d822 1cbe
00000310: 6469 5bbd 0323 01be 46f8 edbe ef8a 0cbd
00000320: 548b 84bf 6784 c5be 644b 35bf f079 01bf
00000330: 63de acbe 4f5c 97be 18cb 84be cda8 1fbe
00000340: 6d28 39bd f66f 1bbe cc10 cabe 9b81 e33e
00000350: 2b89 0d3e 15fd 53be b5eb d73d 6a63 6b3d
00000360: 1397 27bf cc28 903e f2c0 233e c72e b2be
00000370: f6bc 66bf db98 76be 94ce a63e 6730 87be
00000380: 95e7 86bd e49e 073e 6e41 893e 787c d73d
00000390: fb86 553d 6e57 3e3e 2908 fbbc ccb5 5b3e
000003a0: 86d3 f03e 52e2 703e 43dc 22be 4015 563e
000003b0: 8ca9 903e 645a 963e 34f2 4e3e f968 183e
000003c0: addf 893d 507a 5c3e 60d9 373d 41f4 643e
000003d0: c371 df3d f2f1 0dbe c0d6 a83e a940 b73e
000003e0: 1ef7 5dbd 823b bbbe 0101 6bbd 06ea 85b9
000003f0: a222 2dbb 2648 883c 0835 1ebc 9548 113c
-0.5072772 0.088761635 0.0650508 -0.06217837 0.7857355 -0.059941255 0.14036259 0.04895123
-0.23226745 -0.8577247 -0.1303828 -0.24378753 -0.0237339 0.21275434 0.27565208 -0.3582181
-0.09354699 0.15146984 -0.1692053 0.0996451 -0.2589491 -0.27138624 0.28120905 -0.79525685
0.21883531 -0.1661367 -0.048038315 0.006610956 -0.115561716 -0.026228096 -0.08257013 -0.026013738
-0.18094498 0.0037992205 -0.14544404 -0.046016145 -0.01891299 -0.021758145 -0.0044460287 -0.015030211
-0.038366437 -0.17639388 -0.0002170926 -0.0018718708 -0.51504016 -0.051392857 -0.035441592 -0.031363014
0.009705804 -0.009861339 0.065359764 0.0010645797 0.26176587 0.22077742 -0.39174128 -0.15839842
-0.08649896 0.00911094 0.1315023 -1.4187589 -0.27336854 0.49989924 0.2382574 -0.09703814
0.56549567 -0.3039402 0.058035042 1.3688196 -0.38288066 0.21363476 -0.23638041 0.41900337
1.8738208 -0.41760918 -0.1006069 -0.3004395 0.16558985 -0.14536957 -0.14007233 0.16348653
-0.14306481 0.4543198 0.034460522 0.17861815 -0.16043565 -0.17952605 0.2616643 -0.16403727
-0.51319885 -0.093950205 -0.20818408 -0.07446334 -0.40263394 -0.3049677 -0.18583357 0.07449421
0.35999444 0.023926763 0.2377543 0.026169723 -0.07703963 -0.05483581 -0.034145694 -0.14794125
-0.013527721 -0.07666513 -0.19525287 -0.10730601 -0.038321007 -0.045445453 -0.43472004 -0.026786977
-0.053016264 -0.061478373 -0.060603425 -0.082483985 -0.034110658 -0.102477774 -0.07011562 -0.14086084
-0.079832405 -0.6854394 -0.0983265 -0.08780177 -0.09685284 0.0018474117 0.37100843 0.99192095
0.7747651 0.3500397 0.06421767 -0.12546545 -1.2870139 0.3675376 0.31200305 -0.2911034
-0.012379648 -0.027836626 -0.905141 -0.43370375 0.33549032 0.16088936 1.1623956 0.44492257
0.31382468 0.46151063 0.2291331 -0.44622383 0.7336637 -0.042762384 -0.53401893 -0.026698565
0.2770146 -0.1155344 0.20591053 0.22285748 0.04887413 0.09005373 0.13051191 -0.269777
-0.18634136 -0.014330698 0.13407269 -0.031462863 0.24268548 0.28825858 -0.04109105 0.0985585
0.11424249 -0.3157227 0.0703097 -0.5586642 0.19701219 -0.39648148 0.06162128 -0.03062132
-0.15855238 -0.15319335 -0.14254542 -0.06622973 -0.0048419796 -0.034596138 -0.060697723 -0.04153456
-0.0041043162 -0.12937881 -0.033922013 -0.030501721 -0.10080014 -0.029598827 -0.045970473 -0.06695488
-0.06713892 -0.030281628 0.009766157 -0.15247667 -0.053567305 -0.12611012 -0.4647848 -0.034312185
-1.035502 -0.38577577 -0.7081816 -0.50576687 -0.33763418 -0.29562613 -0.25936198 -0.15591736
-0.04520457 -0.15179428 -0.3946594 0.4443482 0.13821857 -0.20702012 0.105430044 0.057467856
-0.65464896 0.28156126 0.15991572 -0.34801313 -0.9013208 -0.24081747 0.32579482 -0.26404116
-0.065871395 0.13244206 0.2680773 0.105217874 0.05213068 0.1858804 -0.03064354 0.21456069
0.4703638 0.23523834 -0.15904336 0.20906544 0.28254354 0.29365838 0.2020958 0.14883794
0.06732116 0.21531034 0.04488504 0.223588 0.1091037 -0.13861826 0.3297634 0.3579152
-0.054190747 -0.36568838 -0.057374004 -0.00025542098 -0.0026418348 0.016635966 -0.009656198 0.008867403

feature1.0.bias f4 [6]
00000000: 8333 f4be a208 c4be 0983 9d3e 0461 e93e
00000010: 308f 973e 2d45 0ebe
-0.4769555 -0.38287836 0.30764034 0.4558183 0.2960143 -0.13893576

fc2.weight f4 [75, 450]
00000000: 33c7 a13f 7cf0 e23c db15 92be 5d3b 8bbd
00000010: ebbf 93bd 8c5d c23c dea9 173e 5a4f 04bd
00000020: 3c28 fbbd e1f4 a5bc d37c e8be d616 043d
00000030: e37f 593e 725a 123e c86f 55be 1498 a8be
00000040: 4d57 16be f8ae 1cbd 38d9 4f3e 1ba0 82be
00000050: 13d8 6a3d bd6c 5c3e 9dbf 243e c78c 13be
00000060: 8648 353e f301 1a3d 93ff 1d3e 890f 4f3e
00000070: 12e7 f5bd d1bc 0d3e d2c6 023f a42b 323e
00000080: 7bc3 e53d 79a3 0bbe d912 1fbe dd86 5a3d
00000090: f3df 183d 13d4 9dbc f367 b13d 5b40 053e
000000a0: 4d32 be3d 205c 30bd 28bb 5abe b5f9 c63d
000000b0: ddce 50bc 3e39 da3d 89ae 933b 5988 c2bd
000000c0: ca91 193d 0923 4cbd 0510 813d bd9e 2e3d
000000d0: 84c6 0f3e f1ab b2bc 1755 c3be e95d 503e
000000e0: 2e23 edbc b2fc 113c 409e 0fbe d836 85be
000000f0: 9893 1fbe 47af aabd 2755 5abd 1eae 22be
00000100: 9119 afbd 267c b03d d585 86bd b886 233e
00000110: bef8 e5bd 952d 12be 3385 363d 012e b4bd
00000120: a611 3fbe c0f6 363c a320 a2bd 07dc 4a3e
00000130: 2848 ca3e 5a97 293e df61 19bd f49b cdbc
00000140: 7048 edbd 9c1d 163d a369 5cbe 0a9c ec3d
00000150: 27d4 a23d 9a48 d3be a122 88be 4614 083e
00000160: bddf 5bbe cadb dc3d 4ecc b13e 1eff 853e
00000170: 6d91 bf3d 3bde d8bd c2a6 0dbf f690 8b3e
00000180: e06c 08be c854 963c ec6d 693e f128 053d
00000190: da74 0ebf 8347 5ebe 183f 18be f895 40be
000001a0: a744 a0ba 7d1b 563e c0a7 5d3e eb35 47bc
000001b0: cf13 48be 55f8 20be c1e9 3dbe 84dc b3bd
000001c0: 97a7 e73c 880b 17bc c964 863d 9589 5bbe
000001d0: 64c8 29be 6253 80bd a701 26bd 61c5 d5bd
000001e0: 9922 853e a8c6 ac38 e558 f6bd f906 263e
000001f0: 7dd8 2a3d 1b0b e73d 9c2c 823d 6115 583e
00000200: ca26 63be a71e 01be 08ae a13e 77d0 71bd
00000210: 31a9 323d 794b 9cbd 0195 9a3d 0a81 e1bd
00000220: b645 08be d612 adbd 75e5 43bd 35ff a6bd
00000230: 1218 f63c 7087 0b3e dfe8 80bd 767e 5ebe
00000240: 4b85 f13d aadc 5f3e b9ca d2bb 1c03 143e
00000250: fdfc 5ebd 3c16 23bd 0017 3d3e 816e 4bbe
00000260: f633 ffbd d96b ac3c 4df1 533d 32d2 443e
00000270: f5c0 043e 6690 40bb abe4 dd3c 9130 cabd
00000280: 6e68 793c a903 473e 1c24 2bbe 693b ed3c
00000290: 5bb9 053e 8d5f cdbd 5281 84be bc98 c7bd
000002a0: 467e e53d 0092 debc a724 513d 9bdb 843e
000002b0: 6a63 abbc adcb 16bd cccc 5a3e 6020 6d3e
000002c0: 1880 d4bd d4d0 9abd 2635 be3b 0e2c 23be
000002d0: 8c30 993d 51d5 84bd f3fa f1ba f369 863d
000002e0: 8912 163e cbc9 cc3d 815c a53d 50f5 b6bd
000002f0: 8708 203e a9a4 8e3d ce8e 7fb9 da47 113d
00000300: cd8e 9a3c 8fb1 2fbb c3cb 993e 44f3 fa3d
00000310: ca6a 9ebb 7791 0dbd a802 8e3d 42ab 483c
00000320: 15af 2ebe 2ec0 39be a163 143e a3a4 003e
00000330: 6f05 013e e515 8d3e 3ee7 a9bd 21ae cabd
00000340: 4b02 7bba 0e62 873b f3a7 913d 95a5 f2bd
00000350: 6dbf 853d 4ffc 883d fb70 693e 1897 d4bd
00000360: dee5 d53d 477f 6fbc 7af0 933c 7774 4cbd
00000370: 2cec 0c3e 52fe 9e3d 2920 953d 92c4 6d3e
00000380: 1e63 c63d 925d 603e 0f1a 0a3e 7c65 c73c
00000390: c480 263e 59b8 d53c f819 2f3e e824 4b3d
000003a0: 6ba9 bf3d cca1 1bbd 9564 1c3c da96 153e
000003b0: 11f0 843d 8453 ab3d d65f 273e 5b45 e8bc
000003c0: d180 2e3e 7d12 ea3d 1288 1b3d bc0c a83d
000003d0: 2783 25be 792e ef3d d5bf e23d 8567 85bd
000003e0: 5328 d13c f674 063e 2b88 7f3d 5cce 643d
000003f0: 9f8a 0d3d d7b1 353b 8499 0abe a09b b53d
1.2638916 0.027702563 -0.285323 -0.06798432 -0.0721434 0.023726247 0.14810893 -0.032302238
-0.122635335 -0.020258369 -0.45407733 0.03224834 0.21240191 0.14292315 -0.20843422 -0.32928526
-0.1468174 -0.0382528 0.20297706 -0.25512776 0.05733497 0.21525855 0.1608872 -0.14409171
0.17703447 0.037599515 0.15429525 0.2022077 -0.12006964 0.13841559 0.51084626 0.1739946
0.112189256 -0.13636579 -0.15534534 0.053351272 0.03732295 -0.019266164 0.08662405 0.13012831
0.09286938 -0.043056607 -0.21360457 0.097155966 -0.012744633 0.10655449 0.00450689 -0.094986625
0.03749255 -0.0498381 0.063018836 0.042631853 0.14040571 -0.021810504 -0.38150856 0.20348324
-0.028947439 0.008910345 -0.14025211 -0.26018405 -0.15583646 -0.08334213 -0.053303864 -0.15886733
-0.08549798 0.086174294 -0.06568495 0.1596936 -0.112290844 -0.142752 0.044560622 -0.08797837
-0.18659076 0.011167228 -0.07916381 0.19810496 0.39508176 0.16561642 -0.037446853 -0.025098778
-0.11586082 0.03664933 -0.21524672 0.115531996 0.07950621 -0.41266328 -0.2658892 0.13288984
-0.21472068 0.10784109 0.34726185 0.261712 0.0935391 -0.10589262 -0.5533258 0.27259034
-0.13322783 0.018350974 0.22795838 0.032509748 -0.5564705 -0.21706967 -0.14867818 -0.18807209
-0.0012227491 0.20908923 0.21646023 -0.012158851 -0.19538806 -0.15719731 -0.18546201 -0.087822944
0.028278155 -0.009219058 0.06562192 -0.21439202 -0.16580349 -0.06265904 -0.04052892 -0.10438038
0.26002958 8.238602e-05 -0.12028674 0.16213597 0.041710366 0.11281415 0.06356165 0.21101905
-0.22182766 -0.12609349 0.31578088 -0.0590367 0.043618385 -0.07631583 0.075479515 -0.110109404
-0.13307843 -0.08450858 -0.04782625 -0.08154146 0.030040774 0.13625884 -0.06294417 -0.21727929
0.11793002 0.2186152 -0.006432858 0.14454311 -0.054440487 -0.039816126 0.18465805 -0.19866373
-0.12461083 0.02104752 0.051743794 0.19220808 0.12964232 -0.0029382943 0.027086576 -0.098725446
0.015222652 0.1943499 -0.16712993 0.028958993 0.13058989 -0.100279905 -0.25879914 -0.09745929
0.11205725 -0.027169228 0.051060345 0.25948796 -0.020921428 -0.036815334 0.21367186 0.23156881
-0.103759944 -0.07559362 0.0058046756 -0.15934774 0.07479963 -0.064859994 -0.001846163 0.06563177
0.14655508 0.099994265 0.08074284 -0.089335084 0.15628253 0.06965 -0.00024371894 0.035468914
0.01886692 -0.0026808714 0.3003827 0.122534305 -0.0048345076 -0.034562554 0.069341004 0.012247862
-0.17058976 -0.18139717 0.1449113 0.12562804 0.12599729 0.27555767 -0.08296059 -0.09896494
-0.0009575232 0.004131562 0.07112112 -0.118479885 0.06530652 0.06688749 0.22797005 -0.10380381
0.10444234 -0.014617748 0.018059004 -0.049915757 0.13761967 0.077633515 0.07281525 0.23219517
0.09686874 0.21910694 0.13486503 0.024340384 0.16260058 0.02608888 0.1709975 0.049595743
0.09358486 -0.0379961 0.009545465 0.14608327 0.064911015 0.08365539 0.16345152 -0.028353384
0.17041327 0.114293076 0.037971564 0.08205554 -0.16163312 0.11678786 0.11071745 -0.065138854
0.025531923 0.13130555 0.06238572 0.055860862 0.034556028 0.002772441 -0.13535124 0.08867574

fc2.bias f4 [75]
00000000: 31ac 353f fdb9 dcbc ad7b c03e d30b 573e
00000010: 5432 38bd 3e85 8f3e b623 293e a38d de3e
00000020: b6e3 db3e d900 333f edc4 2dbc 7790 51bd
00000030: 6f6e cd3b faec 3e3f 4e0c 42bd cabb 1c3f
00000040: 673d 4f3e 8b22 213f 593b 2d3f b67c 0b3c
00000050: 19bb 78bd 0555 bbbc 7b07 153c 4d24 0abd
00000060: adf7 7bbd f4ae 353f 6cae 07bc b8e7 31bd
00000070: 8c88 453f 3dde 013e 019f de3e b5ca 4b3e
00000080: 021f 35bd c0af 943e 8871 4f3d 1b63 853c
00000090: 885c 633c aa78 4fbd 6525 ba3e c863 2f3f
000000a0: 25ec 49bc 0772 553e e81c 213e 674c d03b
000000b0: e3dc ed3e c11a 18bd bcd7 80bd 9dd2 fcbb
000000c0: fd10 0d3f 8cb2 303e 9329 6e3e 1955 7a3e
000000d0: 151a d73e b3a6 3a3f f586 bf3b 7336 393e
000000e0: 8167 293b 41d2 14bd 85f1 5abc ad48 333f
000000f0: de74 65bd f0fc 2b3e 5621 7fbd c7f7 b33d
00000100: d2cf f63d 5035 fc3e 74cd d6bb daf4 f03d
00000110: d89f 1e3e 58af ee3e 3238 93bc 004b 2e3e
00000120: d86c 3b3d ed1b 133f 8d01 c4bc
0.7096587 -0.026944155 0.37594357 0.21000604 -0.04496987 0.28031343 0.16517529 0.43467435
0.42947167 0.6992317 -0.010606033 -0.051163163 0.006269268 0.7458035 -0.047375016 0.61224043
0.20238267 0.62943333 0.6766868 0.00851362 -0.060725305 -0.022867689 0.009096022 -0.033726025
-0.0615155 0.7097008 -0.0082813315 -0.043433875 0.7716148 0.12682433 0.43480685 0.19901545
-0.044219024 0.29040337 0.05064538 0.016282609 0.013877042 -0.050652184 0.36356655 0.6851163
-0.012324368 0.20844279 0.15733683 0.006356764 0.46457586 -0.03713489 -0.06291148 -0.0077155367
0.5510405 0.1725561 0.23258047 0.24446525 0.42012087 0.7291061 0.0058449456 0.18087177
0.0025849047 -0.036333326 -0.013363247 0.7003277 -0.056019656 0.16795707 -0.06228765 0.08787494
0.12051357 0.49259424 -0.0065552536 0.11765452 0.15490663 0.46618152 -0.017971132 0.17020798
0.0457581 0.57464486 -0.02392652

state_value.weight f4 [1, 75]
00000000: 6b5e 70bd ea26 4b3d d950 f8bd 2d44 4abe
00000010: ed3d 963d aa83 f0bd 77a5 31be 5ee1 cfbd
00000020: d18b 483c b6eb b1bd e9d0 923d 4bac 80bc
00000030: 1c72 6e3d a15b 93bd 2098 44bb 5a94 15bd
00000040: 8998 aebd 4a16 91bd e497 79be 1fce a03d
00000050: a928 e43c 28dc 2f3d b194 4a3b 76fe ccbb
00000060: cdf6 6e3d 4482 cebd 3bcd 453d 1645 823d
00000070: 3f57 95bd 7ac3 e9bd 1dbc 12bd b76e 88bc
00000080: c55d 523d 68f6 b5be 6ccd 803d 98f1 7f3d
00000090: 93e5 8ebc 5aad 883d 3edc dcbd 5bc1 64bd
000000a0: 1a58 b43c 5f2d 4abe eb67 19be 3e27 373d
000000b0: 9356 27be 1723 ba3d 2170 69bb b7e8 cb3c
000000c0: 5863 92bd 600f f7bd 5540 c0bd 2a1c fcbd
000000d0: d2b6 7dbd b48e 3cbd 0dd9 983d 585f 28be
000000e0: deb8 c93c c1aa 4d3d 5b1a 11be 0d15 54bd
000000f0: 6663 d9ba 420e 8ebd dd38 333d a3a9 37bd
00000100: 58b9 7c3d 537f 39be 7969 673b 6240 d0bd
00000110: b393 a03d f05c c1bd 42d1 a73d 6b00 15be
00000120: b987 b8bd 301d 88bc 4d0c 55bb
-0.058683794 0.04959766 -0.121247955 -0.1975257 0.0733603 -0.11743863 -0.17348276 -0.10150407
0.012240366 -0.086875364 0.07168753 -0.015707156 0.058214292 -0.07195211 -0.00299979 -0.036518432
-0.085251875 -0.070843294 -0.24374348 0.078518145 0.02785142 0.042934567 0.003091138 -0.00625592
0.058340836 -0.1008344 0.048291426 0.06360833 -0.072920315 -0.11414237 -0.03582393 -0.016654355
0.051358957 -0.35539556 0.06289181 0.06248626 -0.017443454 0.06673689 -0.10784195 -0.05584846
0.022014666 -0.1974387 -0.14981048 0.04471516 -0.16341619 0.09088724 -0.0035619813 0.02489124
-0.071478546 -0.120634794 -0.0938727 -0.12310059 -0.06194193 -0.04603453 0.07463274 -0.16442621
0.024624284 0.05021167 -0.1417021 -0.051777888 -0.0016585409 -0.06936313 0.0437554 -0.044839513
0.061700195 -0.18114977 0.003531067 -0.1016853 0.078406714 -0.094415545 0.0819421 -0.1455094
-0.09010262 -0.01661548 -0.0032508553
