text_cnn/param/net_param/la06_actor_net.model (torch, 141079 bytes, 6 tensors)

feature1.0.weight f4 [6, 3, 5, 5]
-0.16505407 0.1545385 0.13282314 -0.21511279 -0.0005707658 0.004281721 0.042136006 -0.059046835
0.08188903 0.15482527 -0.009089582 -0.08453435 -0.11492727 0.08254921 -0.0018190534 0.0037856745
0.045921057 -0.16486686 -0.13415481 0.16718093 0.027983451 -0.09344482 -0.08157797 -0.14131926
-0.05336222 0.07322175 -0.17977625 0.06262663 -0.020939548 0.05704397 -0.059847496 -0.12266009
0.0074969046 -0.22624621 -0.18427077 -0.06712217 0.030990152 -0.2561495 0.025069296 0.13196523
-0.13581325 -0.24625705 0.040124856 0.104557335 0.067463234 -0.07069977 -0.19877769 -0.009600508
0.11571349 0.104373485 0.027031196 0.097002536 0.05917852 0.03849647 0.0038349412 0.037444096
0.16493039 0.019162072 0.24389927 0.015930017 -0.13134511 0.043911472 -0.107213005 -0.009855639
0.018251061 -0.049693655 0.14891805 0.06409869 -0.0766763 0.14436671 0.07190545 -0.051822808
0.110001355 -0.024403423 -0.2272575 0.19151574 0.13872027 -0.01137482 0.13864778 -0.11347571
0.26760793 0.13465185 -0.002790046 -0.062528685 -0.03392173 0.010693008 -0.052920137 0.17393629
0.16287373 -0.046751447 0.04879616 0.0806143 0.17063305 0.031215664 -0.15091851 0.10145475
0.02279839 0.14564212 0.01848938 -0.03760046 0.009365345 -0.2845974 -0.11303559 -0.016047087
-0.017482603 -0.040234026 -0.026734529 -0.18657547 -0.20527744 0.008311407 -0.20057471 -0.07001453
-0.42649496 -0.0058112503 -0.1186896 -0.07832352 -0.010932519 0.036094263 -0.083536245 -0.05355991
-0.033854578 0.066987574 -0.12915118 -0.11406707 -0.18049966 0.099791564 0.2216109 0.16963592
0.13123684 0.06841199 0.23168126 0.22081235 0.1427481 0.053121485 0.159505 0.06317798
0.112799644 0.19434586 0.18414852 -0.053623818 0.21635948 0.07727501 0.16740794 -0.057210412
0.027120667 0.120512776 0.20615374 0.023472412 0.08876774 -0.14226833 -0.044693958 -0.07114212
-0.05077156 -0.04740201 0.045519583 0.009669809 0.14809349 0.025440922 -0.05166639 -0.23850837
-0.06544882 0.046159424 0.010705048 0.012130997 -0.002697084 -0.015745869 -0.14598925 -0.11022062
-0.08403744 0.10746915 -0.036986742 0.19751498 -0.11210869 0.14146227 -0.12512897 0.04041018
-0.17115848 -0.39715183 -0.05127184 0.2173953 -0.15017073 -0.09186791 0.14693125 0.033240236
-0.3053089 0.03522641 0.19054021 0.080259554 -0.007540719 -0.042769052 -0.20411465 -0.035252
-0.2020543 -0.38085514 0.07712163 0.07312368 -0.3437967 -0.041110236 0.069272906 0.09126011
-0.11096383 -0.080906354 0.029015906 -0.011279114 0.06156236 -0.13250588 0.029323248 -0.17465442
-0.04205735 0.014565606 0.12188321 -0.05560449 0.04161719 0.14494789 0.00022611441 -0.026033573
-0.002064133 -0.03206478 -0.03626767 0.032768905 0.12873359 -0.015550662 0.05334419 0.18260306
-0.13108541 -0.2506491 -0.07071944 -0.044031005 -0.011439079 -0.00483411 -0.17846785 -0.11615634
-0.026834847 -0.060362805 -0.103577115 -0.16755062 -0.22022542 0.09829714 0.05929287 0.027671218
-0.04560184 -0.047605973 -0.21984442 -0.08243675 0.020454459 -0.028873773 -0.30308628 -0.07876538
-0.1769143 -0.10192069 -0.12554976 0.011631481 0.11976372 -0.002400398 0.06350188 -0.04194405
00000000: ef03 29be 573f 1e3e ca02 083e 8746 5cbe
00000010: 729f 15ba ae4d 8c3b ce96 2c3d 18db 71bd
00000020: 70b5 a73d 848a 1e3e 78ec 14bc 5820 adbd
00000030: fd5e ebbd 8f0f a93d 4e6d eeba 1419 783b
00000040: b817 3c3d dcd2 28be e15f 09be 7a31 2b3e
00000050: 8d3d e53c ff5f bfbd 5a12 a7bd ffb5 10be
00000060: 5892 5abd 49f5 953d 4417 38be 6442 803d
00000070: 6a89 abbc f0a6 693d a622 75bd 3735 fbbd
00000080: 98a8 f53b 16ad 67be 7ab1 3cbe 5977 89bd
00000090: 0fdf fd3c 0726 83be 205e cd3c e521 073e
000000a0: a112 0bbe cf2a 7cbe f659 243d 2822 d63d
000000b0: 2a2a 8a3d 0acb 90bd 618c 4bbe 734b 1dbc
000000c0: 32fb ec3d c4c1 d53d 8770 dd3c 44a9 c63d
000000d0: 2d65 723d 79ae 1d3d a353 7b3b fb5e 193d
000000e0: 83e3 283e c7f9 9c3c bbc0 793e ab7f 823c
000000f0: 557f 06be 84dc 333d 7e92 dbbd 8c79 21bc
00000100: 4083 953c 938b 4bbd f97d 183e 2d46 833d
00000110: 7708 9dbd ded4 133e 2a43 933d 2744 54bd
00000120: 6448 e13d b0e9 c7bc 31b6 68be b41c 443e
00000130: b00c 0e3e 745d 3abc aff9 0d3e f465 e8bd
00000140: e803 893e 2de2 093e 34d9 36bb 0a0f 80bd
00000150: 83f1 0abd ba31 2f3c c9c2 58bd 5b1c 323e
00000160: 5fc8 263e 727e 3fbd 7bde 473d 1c19 a53d
00000170: 6eba 2e3e feb7 ff3c 628a 1abe 82c7 cf3d
00000180: b0c3 ba3c 3523 153e 0a77 973c f102 1abd
00000190: 1b71 193c c0b6 91be 347f e7bd 2e75 83bc
000001a0: ad37 8fbc 6fcc 24bd 5f02 dbbc a40d 3fbe
000001b0: 4034 52be 912c 083c 7563 4dbe c763 8fbd
000001c0: 8c5d dabe 4d6c bebb 8813 f3bd 1568 a0bd
000001d0: 4f1e 33bc 94d7 133d 0d15 abbd a361 5bbd
000001e0: 19ab 0abd c830 893d 3540 04be ff9b e9bd
000001f0: e7d4 38be 855f cc3d f8ed 623e 0ab5 2d3e
00000200: f362 063e 961b 8c3d da3d 6d3e a21c 623e
00000210: 8f2c 123e ea95 593d 4755 233e 7563 813d
00000220: 8003 e73d 9a02 473e 6e91 3c3e a6a4 5bbd
00000230: 578d 5d3e 5c42 9e3d fd6c 2b3e 7755 6abd
00000240: 292c de3c 67cf f63d f719 533e 3749 c03c
00000250: dccb b53d caae 11be 0311 37bd f6b2 91bd
00000260: d7f5 4fbd 9c28 42bd be72 3a3d 1e6e 1e3c
00000270: d2a5 173e 7b69 d03c 23a0 53bd 8a3b 74be
00000280: 080a 86bd aa11 3d3d 3a64 2f3c 17c1 463c
00000290: 90c1 30bb 7bfd 80bc 357e 15be 59bb e1bd
000002a0: d21b acbd c918 dc3d 697f 17bd 5e41 4a3e
000002b0: 3e99 e5bd 7cdb 103e cf21 00be 2585 253d
000002c0: 2b44 2fbe 7c57 cbbe 6c02 52bd e09c 5e3e
000002d0: 5bc6 19be 3e25 bcbd 2575 163e ea26 083d
000002e0: 7351 9cbe 9149 103d f91c 433e 1f5f a43d
000002f0: 2318 f7bb 9a2e 2fbd 6e03 51be 6764 10bd
00000300: 53e7 4ebe 72ff c2be f2f1 9d3d dec1 953d
00000310: 1f06 b0be 3563 28bd f4de 8d3d 95e6 ba3d
00000320: 0141 e3bd 3bb2 a5bd c4b2 ed3c 08cc 38bc
00000330: d028 7c3d 9faf 07be 4f37 f03c 9cd8 32be
00000340: 5444 2cbd 94a4 6e3c e89d f93d 89c1 63bd
00000350: c976 2a3d 386d 143e 2019 6d39 5c44 d5bc
00000360: 6846 07bb 5c56 03bd 698d 14bd b038 063d
00000370: bdd2 033e 34c8 7ebc 707f 5a3d 4cfc 3a3e
00000380: 413b 06be 1455 80be 5bd5 90bd db59 34bd
00000390: fa6a 3bbc 7467 9ebb 47c0 36be 60e3 edbd
000003a0: c1d4 dbbc fd3e 77bd 3d20 d4bd 6492 2bbe
000003b0: c682 61be 0350 c93d 15dd 723d c0ae e23c
000003c0: ffc8 3abd 7bfe 42bd e51e 61be 99d4 a8bd
000003d0: 1c90 a73c b188 ecbc 202e 9bbe be4f a1bd
000003e0: 0629 35be cbbb d0bd 1e90 00be f891 3e3c
000003f0: ae46 f53d ff4f 1dbb 460d 823d 86cd 2bbd

feature1.0.bias f4 [6]
-0.105157584 0.18121569 -0.097057715 -0.1388821 -0.04550019 0.22616479
00000000: dc5c d7bd 9b90 393e 32c6 c6bd 1c37 0ebe
00000010: 685e 3abd be97 673e

fc2.weight f4 [75, 450]
0.0035316488 -0.035556305 -0.22620082 -0.11745271 0.14318997 -0.077229604 -0.07118961 -0.0392121
-0.097833045 -0.013482644 -0.047085404 -0.023817232 -0.06290363 -0.14190674 -0.0726662 -0.06744642
-0.050709423 -0.106530614 -0.11603983 -0.04901117 -0.02590643 -0.043038875 -0.0973735 -0.18800937
-0.16377926 -0.05178611 -0.0059495578 -0.10451271 -0.12825942 -0.009009711 0.15354481 -0.09912444
0.00062546274 -0.14125425 -0.008065256 -0.039521985 -0.06268979 0.036893334 0.14967562 -0.08897706
-0.078161165 -0.04614625 -0.13235116 0.037143108 0.121978715 -0.013152195 -0.10725583 0.15720564
-0.11134425 -0.080560185 -0.12729046 -0.04992816 0.011518923 0.04716731 -0.008051677 0.048030682
-0.052643392 0.042498678 0.07174404 0.17553 0.08423126 0.21783526 0.15222704 -0.06947065
0.014424848 0.069352604 -0.03251285 -0.15674374 0.09446472 0.15137431 0.08785423 -0.14567015
0.014890152 0.008689647 -0.18436994 0.058038685 0.013876546 -0.06112567 -0.039670646 0.0026955775
0.046166677 0.005546993 -0.001726085 0.009104777 -0.007802755 -0.054134868 0.04683318 0.057110567
0.020481328 -0.043698 0.02658955 -0.015618233 0.08663498 0.10101684 0.06277026 -0.039085276
-0.028593352 0.09723993 0.045465812 0.042975236 0.12492771 -0.019241681 0.046988986 0.12167469
0.054719526 0.097904675 -0.13376288 0.024438694 0.11401965 0.1297884 0.051439777 0.04637078
-0.10519877 0.02230292 0.0043909773 0.056296814 -0.042089924 -0.089546904 -0.084499784 0.034917127
0.054783642 -0.0067658257 0.00033962473 -0.1126456 -0.10466075 0.046693534 -0.022805426 -0.077109195
-0.26018924 0.020871345 -0.035611957 -0.007440441 0.16079672 0.026050929 -0.045300223 -0.0043687588
-0.0060652755 -0.018540744 0.062151395 0.03223702 -0.07476855 0.15509804 0.06270855 0.022806007
0.1473884 0.10558512 0.021697992 -0.07261063 0.111189164 -0.02083451 -0.23038028 -0.40648708
-0.067837276 -0.030438289 0.00088428176 0.038992077 -0.04610705 -0.0060674953 -0.01578239 -0.143708
0.019325702 0.007238378 -0.073286526 -0.09526476 -0.013177806 -0.03221902 -0.032603633 -0.009913986
-0.0427768 -0.046425622 -0.098739065 -0.056954607 -0.16466926 -0.021106718 -0.064840324 0.03285188
-0.0024419602 -0.050316356 0.022461154 -0.019866347 -0.119368955 -0.11152698 -0.06826804 -0.0007443037
-0.12358707 -0.0588329 0.13401009 -0.060974944 0.06328295 -0.06490139 0.17820978 -0.16640799
-0.0568067 0.0627917 0.110316664 -0.2571033 -0.11042929 0.0005778754 -0.03509458 -0.063845545
0.06365404 0.06482215 0.01898892 -0.042597696 0.10158513 0.026513614 -0.10502011 0.20946693
-0.22092916 0.08397305 0.02682853 0.000251099 -0.072803825 0.09556214 0.01051842 0.06680722
-0.0929572 -0.044905342 0.1637673 0.048000496 -0.24119462 0.07332612 0.1185349 0.04210646
-0.14696726 -0.21837 -0.17148316 -0.11832483 -0.039807007 -0.110896796 -0.006938635 0.019342333
-0.026178196 -0.12919791 -0.09308808 0.09950881 -0.15370288 0.040022958 0.0124700125 -0.11205884
-0.17439036 -0.016585693 -0.057082158 -0.055076584 -0.035503477 -0.042817134 -0.052025933 -0.07362995
-0.08126329 -0.039730426 0.113956295 -0.06031999 -0.0247385 -0.18335107 -0.024282958 -0.051167842
00000000: 3c73 673b 7da3 11bd 30a1 67be 0c8b f0bd
00000010: 64a0 123e 8e2a 9ebd dccb 91bd de9c 20bd
00000020: b15c c8bd 4fe6 5cbc a0dc 40bd 5b1c c3bc
00000030: 9ed3 80bd 0050 11be 04d2 94bd 5921 8abd
00000040: afb4 4fbd b92c dabd 4aa6 edbd f0bf 48bd
00000050: b939 d4bc 8849 30bd c26b c7bd 8785 40be
00000060: c0b5 27be ac1d 54bd 82f4 c2bb c20a d6bd
00000070: 7056 03be 789d 13bc da3a 1d3e c101 cbbd
00000080: 18f6 233a f4a4 10be 2324 04bc cee1 21bd
00000090: 8163 80bd 771d 173d 9144 193e 9b39 b6bd
000000a0: f612 a0bd da03 3dbd 1087 07be 5f23 183d
000000b0: facf f93d 4e7c 57bc f2a8 dbbd 84fa 203e
000000c0: 7408 e4bd bdfc a4bd 6e58 02be 7881 4cbd
000000d0: ddb9 3c3c 8232 413d 2eeb 03bc d2bb 443d
000000e0: 99a0 57bd 1813 2e3d 8aee 923d 23be 333e
000000f0: 7081 ac3d 3510 5f3e 68e1 1b3e a146 8ebd
00000100: 3356 6c3c bd08 8e3d 322c 05bd 6e81 20be
00000110: b876 c13d de01 1b3e ebec b33d 8e2a 15be
00000120: d3f5 733c 055f 0e3c 79cb 3cbe f9b9 6d3d
00000130: 745a 633c e95e 7abd b07d 22bd 49a8 303b
00000140: 4519 3d3d 8dc3 b53b cd3d e2ba 342c 153c
00000150: 41ae ffbb 86bc 5dbd 26d4 3f3d c5ec 693d
00000160: 75c8 a73c adfc 32bd 54d2 d93c 9ee3 7fbc
00000170: ae6d b13d ebe1 ce3d b28d 803d e217 20bd
00000180: 9b3c eabc ba25 c73d 5c3a 3a3d cd06 303d
00000190: 19da ff3d bba0 9dbc 8677 403d 9430 f93d
000001a0: 9521 603d 3f82 c83d 23f9 08be a833 c83c
000001b0: 2283 e93d 40e7 043e 84b2 523d 49ef 3d3d
000001c0: 7472 d7bd 9db4 b63c 30e2 8f3b 7d97 663d
000001d0: 7c66 2cbd 5e64 b7bd 390e adbd 4305 0f3d
000001e0: d064 603d dcb3 ddbb a90f b239 bdb2 e6bd
000001f0: 6058 d6bd b841 3f3d 72d2 babc 6deb 9dbd
00000200: 8637 85be 62fa aa3c d8dd 11bd f1ce f3bb
00000210: e5a7 243e c268 d53c ba8c 39bd ce27 8fbb
00000220: 38bf c6bb c2e2 97bc 7692 7e3d f70a 043d
00000230: 4120 99bd 05d2 1e3e 576d 803d aad3 ba3c
00000240: fcec 163e 033d d83d fdbf b13c e2b4 94bd
00000250: 25b7 e33d 22ad aabc cfe8 6bbe 131f d0be
00000260: 45ee 8abd b859 f9bc 25cf 673a 28b6 1f3d
00000270: bfda 3cbd d7d1 c6bb 124a 81bc 3128 13be
00000280: ef50 9e3c ea2f ed3b 3f17 96bd 2c1a c3bd
00000290: b9e7 57bc 17f8 03bd 638b 05bd 456e 22bc
000002a0: ba36 2fbd cb28 3ebd b537 cabd 3c49 69bd
000002b0: 0f9f 28be ffe7 acbc 01cb 84bd b18f 063d
000002c0: 4b09 20bb 8618 4ebd 7400 b83c c0be a2bc
000002d0: b677 f4bd 4268 e4bd 1dd0 8bbd 601d 43ba
000002e0: 381b fdbd c4fa 70bd f139 093e ddc0 79bd
000002f0: 7e9a 813d 05eb 84bd a07c 363e db66 2abe
00000300: 24ae 68bd ef98 803d b4ed e13d 0ba3 83be
00000310: c028 e2bd 907c 173a 56bf 0fbd 74c1 82bd
00000320: 0d5d 823d 7ac1 843d a78e 9b3c ec7a 2ebd
00000330: dd0b d03d 1433 d93c c914 d7bd 807e 563e
00000340: 413b 62be 10fa ab3d 81c7 db3c f0a5 8339
00000350: 2c1a 95bd 15b6 c33d 7355 2c3c 39d2 883d
00000360: 5860 bebd aaee 37bd 9db2 273e 2b9c 443d
00000370: b9fb 76be 012c 963d 6dc2 f23d d377 2c3d
00000380: 967e 16be 639c 5fbe 4899 2fbe 4a54 f2bd
00000390: ac0c 23bd dc1d e3bd 7d5d e3bb d073 9e3c
000003a0: a873 d6bc 754c 04be f7a4 bebd 46cb cb3d
000003b0: 4a64 1dbe 1def 233d 064f 4c3c 1b7f e5bd
000003c0: 6393 32be b8de 87bc fbce 69bd fc97 61bd
000003d0: 186c 11bd 0561 2fbd 2519 55bd 4dcb 96bd
000003e0: 5e6d a6bd 5fbc 22bd eb61 e93d 1812 77bd
000003f0: 65a8 cabc 62c0 3bbe 0eed c6bc 5f95 51bd

fc2.bias f4 [75]
0.13695675 0.1314009 0.014983933 -0.081782445 -0.038978163 0.015171098 -0.14090885 0.05491713
-0.0068899198 0.04285726 -0.023367964 -0.025229203 0.08801628 0.096887305 -0.04675083 -0.056865163
0.021116534 0.29647386 0.040822495 -0.12194334 0.060243513 -0.024486689 0.0011693109 0.30260572
-0.018540338 0.11457047 0.06644273 -0.13720754 -0.15187947 0.0011032596 -0.018710043 -0.01994119
-0.012349503 -0.04003502 -0.062371638 0.064418316 0.039316207 -0.0036149663 -0.049661126 0.12871599
-0.020407978 -0.07379698 -0.022507189 0.015280289 -0.12100418 0.05885109 0.037241183 0.004495394
0.009889521 -0.045395616 -0.0056330627 -0.033574957 0.039455313 -0.03673761 0.14932673 -0.055045523
0.015954308 0.047490112 0.15774441 0.21880594 -0.0026422285 0.017406635 -0.040489174 -0.06611276
0.08710897 0.1928841 -0.03231991 0.115768835 -0.06864584 -0.04919802 0.050494168 0.02069594
-0.080207445 -0.06187102 0.01888277
00000000: 643e 0c3e f58d 063e 2c7f 753c 8e7d a7bd
00000010: 91a7 1fbd 3290 783c 694a 10be c9f0 603d
00000020: d6c4 e1bb 188b 2f3d 2c6e bfbc 79ad cebc
00000030: e141 b43d da6c c63d cc7d 3fbd 72eb 68bd
00000040: 95fc ac3c 6ccb 973e 7d35 273d 6ebd f9bd
00000050: e7c1 763d 4f98 c8bc 9043 993a 23ef 9a3e
00000060: e8e1 97bc eca3 ea3d 2013 883d 2280 0cbe
00000070: 4b86 1bbe 409b 903a ce45 99bc b55b a3bc
00000080: 9255 4abc c3fb 23bd 6779 7fbd c0ed 833d
00000090: 080a 213d 12e9 6cbb 7769 4bbd 20ce 033e
000000a0: a22e a7bc df22 97bd ff60 b8bc 2d5a 7a3c
000000b0: 0ad1 f7bd d70d 713d 368a 183d 194e 933b
000000c0: a807 223c c1f0 39bd 8e95 b8bb e585 09bd
000000d0: e59b 213d 2d7a 16bd 1be9 183e 6a77 61bd
000000e0: 9cb2 823c fe84 423d c087 213e aa0e 603e
000000f0: 3d29 2dbb 5c98 8e3c fad7 25bd 2066 87bd
00000100: 3066 b23d 6983 453e e261 04bd 3618 ed3d
00000110: 3196 8cbd dd83 49bd f9d2 4e3d 888a a93c
00000120: cd43 a4bd 776c 7dbd 0ab0 9a3c

action_head.weight f4 [6, 75]
-0.039228223 0.07865928 -0.008466657 0.043628003 -0.0035080265 -0.16782781 0.1852783 -0.052468196
-0.23833504 0.0014044001 0.02348285 -0.1787383 0.05778379 -0.10977572 -0.014893624 -0.08158652
0.20890218 -0.032170843 0.024889944 -0.00946194 0.039686844 -0.020082071 -0.106517546 -0.02334941
0.0005665814 0.1418863 0.13130276 0.013565394 -0.044587 0.026790949 0.087217666 -0.07567431
0.0228205 -0.02444236 -0.11407807 0.06270475 0.018661166 -0.15409699 -0.18586668 -0.0756223
-0.13939089 0.06482869 0.02349503 -0.058528267 0.071414955 0.10930161 -0.031262916 0.16026293
0.062635995 -0.15036309 0.16218553 -0.11054801 -0.17141241 0.06144576 -0.15173122 -0.06350113
-0.13965254 0.03356349 -0.10156452 0.07093418 0.042440273 0.114646465 -0.16585495 -0.16684112
-0.029313501 -0.07106743 0.07370853 -0.100640096 0.086970516 -0.0991145 0.14762877 -0.13893268
0.102641426 -0.14453843 0.08033345 -0.2641179 -0.09149212 -0.03619578 0.04556091 0.10581652
-0.1369161 0.14878939 -0.1934615 -0.052692525 -0.09326898 -0.12479857 -0.036852606 0.14121825
0.10220951 0.02311606 -0.038705528 -0.16998376 0.12720983 0.08212023 -0.077827334 -0.03480158
-0.052812576 -0.07336905 0.15170011 0.07942535 -0.05352327 0.040972456 -0.11915047 -0.025584128
-0.042679936 -0.018089604 0.06627716 -0.1839087 0.055901535 -0.1431783 0.09175037 0.16800225
-0.08981237 0.059403893 0.110627085 -0.07046442 0.04209192 -0.015226225 -0.11781491 -0.027863186
0.034870036 0.127622 -0.11197871 0.14480321 0.00490733 0.17052099 -0.00012545419 0.089860715
-0.09219702 0.054746624 0.005745228 0.018279707 0.05116729 0.017723693 0.051525332 0.14996429
-0.033502765 0.058924224 0.012610497 -0.032922864 -0.019145409 -0.014561265 -0.0005481218 -0.16097058
-0.1058071 0.11242521 0.06912054 0.1211359 0.06809304 -0.2256454 0.024287447 -0.12120113
-0.11065423 -0.19413349 -0.12348015 0.034700472 -0.0317795 0.043685198 0.096471846 0.104199864
-0.116423436 0.108929045 0.08370767 -0.1292584 -0.08537107 -0.014713813 0.06283644 0.0006864436
-0.0033752837 -0.06183262 0.06901108 -0.04565511 -0.03896212 0.12473146 -0.0474551 -0.30395672
-0.17378455 0.0858154 0.11212875 0.12673144 0.11590904 0.04750003 -0.08277511 -0.13025792
-0.034895908 -0.11147705 -0.02737288 0.1798247 0.03222566 -0.12726197 0.06764782 0.0899005
-0.03878745 -0.029354233 -0.04126864 -0.0484783 -0.054015007 0.13663557 -0.01251176 -0.014689871
-0.012076016 0.025336081 -0.12472964 -0.083235174 0.04390511 0.13154376 0.059500214 -0.1476305
0.07018298 0.12799358 -0.17283863 0.11447582 0.04866521 0.08723081 -0.019870363 0.11001439
-0.011741596 0.0037337285 0.15643662 0.008980197 0.032842975 0.058465477 -0.08030934 0.076090485
-0.028011834 -0.18131113 0.0947495 0.069938906 -0.028189695 -0.048745908 0.11318838 0.055383176
0.094327115 0.016207853 0.1434708 -0.017972244 0.18407881 -0.052773997 -0.024984138 -0.0035952402
-0.07367496 0.076366276 -0.29019362 -0.13033664 0.14377588 -0.031108048 0.14588991 0.10637762
-0.093568906 0.24970175 -0.04426318 0.07398797 -0.0478495 -0.16810447 -0.10008107 0.012971353
00000000: c6ad 20bd 1e18 a13d bcb7 0abc 47b3 323d
00000010: ebe6 65bb 0edb 2bbe 98b9 3d3e e4e8 56bd
00000020: 1a0e 74be d913 b83a 1b5f c03c 2c07 37be
00000030: b2ae 6c3d 18d2 e0bd 6304 74bc d516 a7bd
00000040: 74ea 553e 93c5 03bd ffe5 cb3c 4106 1bbc
00000050: ac8e 223d 2883 a4bc df25 dabd 4347 bfbc
00000060: a286 143a a44a 113e 3b74 063e 6341 5e3c
00000070: dca0 36bd b178 db3c 2d9f b23d 22fb 9abd
00000080: 0ff2 ba3c 583b c8bc c3a1 e9bd 596b 803d
00000090: 4ddf 983c 9acb 1dbe d653 3ebe dddf 9abd
000000a0: 7cbc 0ebe e7c4 843d a678 c03c 56bb 6fbd
000000b0: 0142 923d 86d9 df3d 8b0d 00bd f71b 243e
000000c0: 4d47 803d c8f8 19be f713 263e ff66 e2bd
000000d0: bc86 2fbe 8dae 7b3d 6e5f 1bbe e10c 82bd
000000e0: 1301 0fbe df79 093d 0f01 d0bd f045 913d
000000f0: dad5 2d3d c4cb ea3d e1d5 29be 66d8 2abe
00000100: de22 f0bc cd8b 91bd 7ff4 963d 651c cebd
00000110: 991d b23d 8bfc cabd ff2b 173e 5e44 0ebe
00000120: ab35 d23d e201 14be dd85 a43d 763a 87be
00000130: 3860 bbbd 0742 14bd 149e 3a3d 55b6 d83d
00000140: bc33 0cbe 3f5c 183e c51a 46be 1ed4 57bd
00000150: cf03 bfbd 6596 ffbd c2f2 16bd 849b 103e
00000160: 3853 d13d e45d bd3c b089 1ebd 3910 2ebe
00000170: 4b43 023e a72e a83d f063 9fbd 1a8c 0ebd
00000180: 0052 58bd 8342 96bd 4657 1b3e c2a9 a23d
00000190: 373b 5bbd bcd2 273d 2905 f4bd ce95 d1bc
000001a0: 28d1 2ebd a630 94bc 52bc 873d 9052 3cbe
000001b0: 02f9 643d 559d 12be 9ee7 bb3d c808 2c3e
000001c0: 8cef b7bd 7f51 733d 7490 e23d a64f 90bd
000001d0: 9468 2c3d 6b77 79bc f248 f1bd 5641 e4bc
000001e0: e2d3 0e3d 57af 023e 1855 e5bd 4b47 143e
000001f0: abcd a03b 0e9d 2e3e 5a8c 03b9 e508 b83d
00000200: cbd1 bcbd ff3d 603d 7742 bc3b 53bf 953c
00000210: cb94 513d 4731 913c 3a0c 533d 3d90 193e
00000220: 323a 09bd 875a 713d 429c 4e3c 20da 06bd
00000230: d5d6 9cbc 5f92 6ebc d5af 0fba 79d5 24be
00000240: 65b1 d8bd 303f e63d 128f 8d3d 1916 f83d
00000250: 5d74 8b3d 960f 67be 78f6 c63c 4c38 f8bd
00000260: af9e e2bd eeca 46be 29e3 fcbd 1522 0e3d
00000270: 392b 02bd 40ef 323d 0893 c53d bd66 d53d
00000280: 696f eebd 3116 df3d ed6e ab3d 505c 04be
00000290: 07d7 aebd 3412 71bc 64b0 803d 73f2 333a
000002a0: dd33 5dbb 3444 7dbd ae55 8d3d da00 3bbd
000002b0: be96 1fbd 3573 ff3d 4760 42bd 37a0 9bbe
000002c0: 94f4 31be fcbf af3d c2a3 e53d e3c5 013e
000002d0: b861 ed3d 648f 423d ff85 a9bd 5562 05be
000002e0: 03ef 0ebd 144e e4bd 173d e0bc f723 383e
000002f0: 0eff 033d f650 02be f18a 8a3d c11d b83d
00000300: 97df 1ebd 4a78 f0bc 4e09 29bd 2f91 46bd
00000310: d73e 5dbd 32ea 0b3e 20fe 4cbc c9ad 70bc
00000320: 7bda 45bc 9d8d cf3c 4172 ffbd 3477 aabd
00000330: d8d5 333d 68b3 063e 7fb6 733d 732c 17be
00000340: 18bc 8f3d c010 033e 9cfc 30be 4c72 ea3d
00000350: 2c55 473d 11a6 b23d 2cc7 a2bc 394f e13d
00000360: d35f 40bc 92b1 743b ec30 203e ad21 133c
00000370: 5b86 063d 7f79 6f3d 3979 a4bd 54d5 9b3d
00000380: 1379 e5bc a0a9 39be 070c c23d 213c 8f3d
00000390: 13ee e6bc caa9 47bd 4fcf e73d 78d9 623d
000003a0: 932e c13d 55c6 843c 02ea 123e 873a 93bc
000003b0: 287f 3c3e 8c29 58bd 89ab ccbc 1f9e 6bbb
000003c0: e6e2 96bd ec65 9c3d 4294 94be f876 05be
000003d0: fc39 133e 4ed6 febc 2a64 153e 82dc d93d
000003e0: 0ea1 bfbd d1b1 7f3e 4f4d 35bd 0187 973d
000003f0: d6fd 43bd 9423 2cbe 4ef7 ccbd cc85 543c

action_head.bias f4 [6]
-0.010006381 0.10939341 0.07337027 0.0320275 0.00012561136 -0.038223896
00000000: cef1 23bc a709 e03d 2743 963d 452f 033d
00000010: 8bb6 0339 a990 1cbd
