text_cnn/param/net_param/la16_actor_net.model (torch, 246743 bytes, 6 tensors)

feature1.0.weight f4 [6, 3, 5, 5]
00000000: 33f8 7ebe b48d 873d 075b 723d 7c26 46be
00000010: a2a9 853d 58c1 f6bd d7f7 32be 7a59 30be
00000020: 5503 893d 50ff 01be 68ec a0be 2732 25be
00000030: 875c 48be 127b fcbd 7319 b8bd 3bae 8ebe
00000040: 9f2b 33be 8118 60be 6e03 5e3d 9f5f 50bd
00000050: 4ec9 e8bd 9c96 15be 9a74 a5be 33ae 09be
00000060: 741a 1bbe 88e6 9bbe f163 ccbe eadd ce3d
00000070: 8759 bdbd 8679 10be f192 a6be 3b95 98be
00000080: 6afa dbbd b950 af3d 725d 4cbe 16c4 7fbe
00000090: 361d 93bd 7db6 67be 0c54 7cbe 4060 d3bd
000000a0: 659c 0fbe 9a51 70be df4d 03bf 0407 893d
000000b0: caa3 5d3d 4096 0a3d fd61 163d 242a 47be
000000c0: 21b4 10be 567b 9dba e6d9 85bd 16d7 913d
000000d0: 435a c73d 5dd0 28be 461e 86bd 3fbc b13d
000000e0: 7f46 b53b 9887 9d3c 0dee 6e3d 3093 bd3c
000000f0: 598a 11bc 2805 90bd c976 96bd 395f c5bd
00000100: a83f 8c3c a6f8 c1bd 8275 95bd e21b c6bd
00000110: 504c 633d 19e5 c2bd d1e2 50bd f534 51bd
00000120: f7b9 25be 5d65 b6bc 8cbe 343a 8e40 123e
00000130: 8cab ec3c 911e 6a3e ce74 b03d 294d 66bd
00000140: 915f bfbd 00b5 b53d 190c dbbc 2146 2b3e
00000150: 5bf0 55bd 2a0e 1b3e 3230 63be 22a5 e4bc
00000160: 5b41 e33d ccae a03c 5691 44bd 33ec 6ebc
00000170: 3567 29be 32ef 7d3c dac2 a0bd 85d9 2c3d
00000180: 6fb9 99bc 986e 623d b55c c8bd 2020 4dbb
00000190: c175 7c3d b635 83bd 9ad8 e8bd b84f 39bd
000001a0: 2036 eebd a4ef cd3d 2e71 69be 2760 e63d
000001b0: c364 9abd 59ae e9bd 5f13 0cbe 0852 89be
000001c0: 078d e2be 64de 9dbc a04f bb3d 95ae 0bbd
000001d0: ebb8 f8be 1468 aebc 5677 a6be 3d69 2dbe
000001e0: 6716 aa3d 7aea 113d 1568 223d 5464 b9be
000001f0: 53e4 4abd a64a 213d 6e20 06bd 03d4 223e
00000200: 92f2 b03d 2315 5abc 765d f0bc d14d eabd
00000210: dd64 6d3d b288 0c3e ef74 183e ea5c 4d3d
00000220: a35b 33bd fc90 153d 2979 69bd a249 413e
00000230: d7fc 74bd 1b49 8bbc 58c9 a13d 4235 cbbc
00000240: 051f 993d 8b5b 8c3b f6f7 01bd 5902 5d3d
00000250: 94b1 f43d 406e 09bc 2bdc a5bd c72e d13d
00000260: 8cd0 d53d 1ea2 9d3d f089 ee3d b49a 23bd
00000270: 8450 e53d 1bd8 b73d 5ec0 b13d 2a6d 68bc
00000280: c883 96bd df93 cf3d c8ed 333c 4bc0 5abd
00000290: f26a 09be 8145 56be 73ea 52be 7dd3 b6bd
000002a0: 1a2e 95bd 5434 aa3c 91bf a5bd d79e 04be
000002b0: 95d7 9dbc e867 613d e297 aa3c 8a31 f4bd
000002c0: e935 97bd 82b5 f6bd da45 9939 7473 44bd
000002d0: ea0d ba3d 7bc2 d03d 66a7 163d 5059 3f3e
000002e0: eedd 00be a97c 4b3d c99e c4bd c0d3 88be
000002f0: d91d 4bbc 8a9a 99bd 57bc ea3c 04c0 0ebd
00000300: 2bd2 33be 833e 87be 01bf cbbd 84fd 38be
00000310: 1808 583d 73df 83be c2c2 b0be 955f b2bc
00000320: 53d3 353d 156d 723e 6642 823e b25a 553d
00000330: 838a 6d3e 13c7 fcbc f178 db3d 7753 09bd
00000340: d852 423e 2282 8abd 7c98 ae3d fdd8 533d
00000350: b2bc 023d c53d f43d 7e20 07be 8d41 05be
00000360: 1fd8 73be 71ad f1bb f763 53be ec5a 0cbd
00000370: e549 76bc 8c1e ff3c d554 08be 7a10 733a
00000380: 2b33 71bd 2eab 553d 9663 913e 08f6 073d
00000390: 4629 cf3d 1053 bebd 7614 d8bd 9b1b e93c
000003a0: 686c 0a3d 890d b73d c555 c1bd 069d fabd
000003b0: bad4 33bd d5d8 a23d bd81 0d3e eb1d 28bd
000003c0: 5684 f83c aa37 183e 9e80 783e caa7 0cbd
000003d0: 4d86 d03a 252e 56be 7fdd 60be 7f1e 87bd
000003e0: 0c02 c83c df9a 0abe 56d9 b63c 1c17 1d3d
000003f0: 9132 81be f837 cbbd 8f0d 73be 3a1f 9cbd
-0.24899368 0.066188246 0.05916884 -0.19350618 0.065264955 -0.12048596 -0.17477356 -0.17221633
0.06690089 -0.1269505 -0.31430364 -0.16132413 -0.19566546 -0.12328161 -0.08989229 -0.27867302
-0.17497109 -0.21884347 0.05420249 -0.05087244 -0.11366521 -0.14608234 -0.32315522 -0.13445358
-0.1514681 -0.3044932 -0.3992 0.101009205 -0.092455916 -0.14108858 -0.32533982 -0.29801354
-0.10741122 0.085603185 -0.19957522 -0.24977145 -0.07183306 -0.22628208 -0.24641436 -0.103210926
-0.14024504 -0.23468629 -0.51290697 0.06690791 0.05411128 0.033834696 0.036714543 -0.19449669
-0.14131214 -0.0012014906 -0.065357015 0.071211025 0.09734013 -0.16485734 -0.06548743 0.08678483
0.0055320854 0.019229695 0.05833249 0.023141474 -0.008883082 -0.070322335 -0.07346875 -0.09637303
0.017120197 -0.09471254 -0.072978035 -0.09673287 0.0554927 -0.09516353 -0.05099756 -0.051075894
-0.16184221 -0.02226513 0.0006894849 0.14282438 0.028890394 0.22863223 0.08616029 -0.05622593
-0.093444 0.08872414 -0.026739167 0.16725971 -0.052231174 0.15142122 -0.22186354 -0.027910773
0.1109645 0.0196146 -0.047990166 -0.0145826815 -0.16543277 0.015498923 -0.07849665 0.04219963
-0.01876518 0.05528125 -0.097833075 -0.0031299666 0.061635736 -0.06406729 -0.113694385 -0.04524204
-0.11631417 0.100554734 -0.22797081 0.11248808 -0.0753875 -0.11410207 -0.13679264 -0.26820397
-0.4424822 -0.019271083 0.09146047 -0.03410204 -0.4857858 -0.021289863 -0.3251292 -0.16934676
0.08305054 0.035624005 0.03965004 -0.36209357 -0.049534153 0.03937783 -0.03274577 0.15901189
0.086400166 -0.013310703 -0.02934144 -0.114406236 0.05795752 0.1372402 0.14888357 0.050137438
-0.043788563 0.03651522 -0.057000313 0.18875745 -0.05981144 -0.017002633 0.078997314 -0.024805669
0.0747662 0.0042833737 -0.031730615 0.053957317 0.11947933 -0.008388102 -0.08098634 0.10214
0.10440168 0.07696937 0.11647403 -0.03994246 0.11196998 0.08976766 0.08679269 -0.014186183
-0.07349354 0.10135626 0.010981984 -0.05340604 -0.13419703 -0.20924951 -0.20597248 -0.08927057
-0.07284184 0.020776905 -0.08093179 -0.12951218 -0.019267837 0.055030733 0.020824376 -0.11923511
-0.073833294 -0.120463386 0.00029234478 -0.047961667 0.09084685 0.10193344 0.036780737 0.18686414
-0.1258466 0.049679432 -0.09600598 -0.26724052 -0.012397253 -0.07500179 0.02865426 -0.03485109
-0.17560641 -0.2641488 -0.099485405 -0.18065459 0.052742094 -0.25756416 -0.34523588 -0.021774093
0.044390988 0.23674424 0.25441283 0.052088447 0.2319737 -0.030856645 0.10716427 -0.033526864
0.18976915 -0.06763102 0.08525178 0.051720608 0.031918235 0.11925844 -0.13195989 -0.13013287
-0.23812912 -0.007375412 -0.20643602 -0.034266397 -0.015032266 0.031142496 -0.13313611 0.00092721696
-0.05888669 0.052165203 0.2839629 0.033193618 0.10115294 -0.09293187 -0.105507776 0.028455546
0.03379479 0.089381285 -0.09440187 -0.12236981 -0.043904044 0.07951514 0.13819022 -0.041044157
0.03033654 0.14864984 0.24267814 -0.034339704 0.0015909165 -0.2091604 -0.21959494 -0.065976135
0.024415039 -0.13535641 0.02232043 0.038352117 -0.25233892 -0.099227846 -0.23735641 -0.076231435

feature1.0.bias f4 [6]
00000000: 9f24 983e e5d1 45bc 3f6d 34bd 6807 c9bb
00000010: e1d0 2fbb 5ea3 51be
0.2971544 -0.012073969 -0.044049498 -0.006134916 -0.0026827382 -0.20472476

fc2.weight f4 [100, 600]
00000000: ad10 7ebc 0d4d e73c 7035 9d3c eb2b 09be
00000010: a42d 2abe fa97 3b3d 903b 8c3d c17b d0ba
00000020: eb98 c9bc f0c1 65bd 4199 c9bd f1a4 fb3b
00000030: 806b 1a3e c816 8b3d c1a7 42bd 67c9 97bd
00000040: 9a9b bebd 343a 1dbd 5b51 7bbc fdef 14bd
00000050: 767b adbd 5bd2 0fbd bbcc 253c 92cd 483e
00000060: 869e a43d f6d4 36bd a464 bc3d 29a4 bdbc
00000070: b857 d4bb d041 283c 26b7 cc3b e2de 8abd
00000080: fdce d43d a3cc 52bc 3f68 63bc b33f 7ebd
00000090: fb66 45bd aa9e 0abe 7716 64bc 8c9c 6bbd
000000a0: 0945 d83d 0c4b efbc ed70 11be 09cd bcbd
000000b0: ae17 ba3d 4b3e 0dbd 9ec1 c2bd 1fb9 d8bd
000000c0: 719c 3fbd 1dee 33bd 4a3b de3d 7a5a 6fbd
000000d0: f78b bcbd 47b4 06bd 849c 01be 2acb 0abe
000000e0: 8bb2 b3bd bcb7 bebd 5d20 d9bb d926 7dbd
000000f0: 4452 6e3d 55b2 a8bc 71aa 0e3d e460 8c3d
00000100: 941c 003d eefa 27bc d962 fcbd 7a5e 0bbc
00000110: 26da 42bc f9e7 463c ca3b 82bd a8e7 193e
00000120: 6dbc 6b3d eeea a1bd 8387 a2bd 7a3d 4fbd
00000130: 9a41 f03c 4c31 f4bc 181a 9bbc 753e a5bd
00000140: 45a5 2dbe cc69 14bd 50be b73d 72d2 483d
00000150: 6e70 8a3c 9b60 f4bd fd35 c8bc 0c3d debc
00000160: 5cc5 8fbd 951a 48bc 617c 2e3c 61a8 79bd
00000170: c56c ee3d 5a70 e03d 58a0 673b d1de 1bbe
00000180: 6cb0 8f3d 9e72 433d 83e5 bfbd 07bb 18bd
00000190: 335b 04bd 604b ee3d 9bf5 2b3d 7d99 8ebd
000001a0: 621f 2bba 76a6 473d f544 d83d 4db1 f3bc
000001b0: a97b 2bbd 4191 e03c 66d3 083e 5db7 5e3d
000001c0: 68e4 363c 1d19 2bbd 7c05 67bd 199e 003e
000001d0: ca20 bb3d 7dd7 d9bd f896 c2bc 7c35 763d
000001e0: 2252 b73d a2b1 1d3d b996 a93d fc75 523a
000001f0: 8241 8dbc 3f05 8f3d 89df a4bd 73da 96bd
00000200: 4d32 e23c e9ba 593d 7b58 b7bd 9cf7 08be
00000210: 1ed2 593c dbef 24bc d046 bc3d 9f7c 8ebd
00000220: f0fd 113c bdd3 b7bd dd5b bdbd f356 7cbc
00000230: e56f f3bd 1f24 a9bc 8fd4 0fbe d5f9 c2bd
00000240: bbc7 06bd 6aa1 cbbd 4f33 aa3b db67 08be
00000250: f3a2 65bd 8c35 39be 85bd af3d 0f38 ec3a
00000260: 8b6c 083e c1bf 46be 66af 80bd be45 27bd
00000270: cd11 9d3d dd5f b83c 873f d6bd aad4 84bd
00000280: 7022 193e 2144 c23d df32 273d c4ed 0dbd
00000290: 49d7 c1bd 1900 9fbc 3b51 e83c 0330 f5bb
000002a0: 5469 aebc 221c 1fbd acec 043e 66b3 bc3d
000002b0: 0831 023e 0b01 0ebd 3819 c2bd 38d5 08be
000002c0: 163f 8c3d 3e31 b2bd 4ac6 7cbd 28b9 e4bd
000002d0: 1dd2 6a3d 8773 63bd d768 9fbd d0ce 42bd
000002e0: 9d80 fe3c bc59 debc 9e4a 7a3d 4165 95bd
000002f0: b693 d63c 477a b1bd 4223 92bd 006d 76be
00000300: 7892 94bd f381 3dbd 6e4a 22be 0bfc 913c
00000310: ba46 8a3d 7919 e0bb 919f 933b 6477 c0bc
00000320: 082e 83bd 283d b13d 7ce8 d53d da2b 1fbd
00000330: 3b2c bbbd 2555 383e e9fd 87bd a4a3 90bd
00000340: 63bf 1b3e 6db8 9abd b8e0 99bd 3a62 913d
00000350: 8c3b 553d 48d9 2d3c 7dd7 ca3d e89b 663e
00000360: c52b 273c b812 8bbc 31ba f83d e8cf 0bbd
00000370: 88ca 733e 2c5c 033e 3348 fa3c 0fa4 833c
00000380: a684 fbbc 2eb5 0b3d 659e 53bd d19a cfbd
00000390: fd0c 80bc 014f 4cbd 8bfa 63bd 022a 3dbd
000003a0: afef 9bbc 475a c8bc 0f95 8dbd acad bd3d
000003b0: 34c7 cd3d 02e5 02be aeb4 c5bc 482d cabd
000003c0: 1292 25be a455 d5bb db88 1f3d 8326 a5bd
000003d0: 15c4 c6bd 3a26 61bc bb48 94bb d5d3 143d
000003e0: 9df3 31be 92c3 cbbd 01a3 d3bc 9c38 273e
000003f0: 7b96 0b3d 6cbe 143e 5a27 e53d 5c55 4e3c
-0.0155069055 0.028234983 0.01919052 -0.1339566 -0.16618973 0.045799233 0.06847298 -0.0015906022
-0.02460905 -0.056093156 -0.09843684 0.0076795747 0.1508007 0.067914546 -0.047523264 -0.07411461
-0.093070224 -0.038385585 -0.015339221 -0.036361683 -0.08470814 -0.03511272 0.010119612 0.19609669
0.080380484 -0.04463669 0.09198883 -0.023149567 -0.0064801835 0.010269597 0.006247419 -0.06780793
0.103910424 -0.012866172 -0.013879835 -0.062072467 -0.048193913 -0.13537088 -0.013921372 -0.05752234
0.105600424 -0.02921059 -0.14203234 -0.09218795 0.09086548 -0.034483235 -0.09509586 -0.10582184
-0.046780054 -0.043928254 0.10851152 -0.058435895 -0.09206384 -0.03288677 -0.12657362 -0.13554063
-0.08774289 -0.09312388 -0.0066261725 -0.061804626 0.058183923 -0.020592848 0.034830514 0.06854418
0.031277254 -0.010252697 -0.12323541 -0.008506412 -0.011892831 0.0121402675 -0.0635906 0.15029776
0.057552744 -0.079061374 -0.07936003 -0.050595738 0.029328156 -0.029808663 -0.01893334 -0.08068553
-0.16957577 -0.03623371 0.08971846 0.04902882 0.016899314 -0.119324885 -0.024439806 -0.027128719
-0.07020065 -0.012213369 0.010649771 -0.060951594 0.1164184 0.10958929 0.0035343375 -0.15221716
0.07016072 0.04771673 -0.09369948 -0.03728774 -0.032313537 0.116354704 0.041982275 -0.06962869
-0.0006527809 0.048742734 0.105600275 -0.02974763 -0.04186598 0.027413012 0.13361892 0.054374088
0.011162855 -0.041771997 -0.056401715 0.1256031 0.091371134 -0.10636804 -0.023753628 0.0601096
0.089512125 0.038499482 0.08280701 0.00080284453 -0.01724315 0.069834225 -0.080504484 -0.07365885
0.027611876 0.053156767 -0.08952423 -0.13375705 0.013294725 -0.010066952 0.09193194 -0.06957363
0.008910641 -0.08975933 -0.09246037 -0.01540159 -0.118865766 -0.020647107 -0.14045928 -0.09520308
-0.03290532 -0.09942897 0.0051941047 -0.13320868 -0.056063604 -0.18086833 0.0858107 0.0018022078
0.13322656 -0.19409086 -0.062834546 -0.040837996 0.07669411 0.022506649 -0.10461336 -0.06485875
0.14954543 0.09485651 0.04082 -0.03465058 -0.094648905 -0.019409226 0.028359046 -0.00748253
-0.021290459 -0.03884519 0.12980908 0.09213905 0.12714016 -0.034668963 -0.09477466 -0.13362586
0.0684797 -0.087007985 -0.06171254 -0.11168128 0.057329286 -0.055530097 -0.077836685 -0.047560513
0.031067187 -0.027142398 0.061106317 -0.07294703 0.026193481 -0.08665901 -0.07135631 -0.24065018
-0.07254499 -0.046266507 -0.15848705 0.017820379 0.06751771 -0.006838974 0.004505106 -0.02349443
-0.06405264 0.08654243 0.104447335 -0.03886018 -0.09139296 0.1800123 -0.066402264 -0.07062462
0.15209727 -0.07554708 -0.07513565 0.07098813 0.05205874 0.010610886 0.099043824 0.22520411
0.010203307 -0.0169767 0.12144888 -0.03413382 0.23807728 0.1282813 0.030552005 0.01606944
-0.0307029 0.034108333 -0.05166473 -0.10136951 -0.015631193 -0.04988003 -0.05565886 -0.04618264
-0.019035188 -0.02445711 -0.06913196 0.09261641 0.100477606 -0.12782672 -0.024134006 -0.09871918
-0.16169003 -0.0065104533 0.038948875 -0.08063986 -0.097053684 -0.013742024 -0.0045252717 0.03633483
-0.17378087 -0.099494115 -0.025834562 0.16330189 0.034079056 0.14525765 0.11189146 0.012593593

fc2.bias f4 [100]
00000000: 657d 36bd fb63 e23d 1df6 ed3d 08fa 973a
00000010: 8451 b43c 1c68 88bd 3373 163e e333 c6bd
00000020: 2f69 a73c f664 853d 4055 de3d 1300 5dbd
00000030: bc4d f13c 776a 7c3c 56b8 303d c9bf e33b
00000040: 33a1 52bd 045d 04bd b468 f83c 0650 9b3d
00000050: d655 c9bd 0476 f63d c416 243e d8b1 093d
00000060: 62c6 b93c 2bbe 033e aff5 e63d a8c0 e63d
00000070: 0fdc 0e3d cde3 a8bd fe09 483c 9022 0e3e
00000080: 3740 173e c8c1 043d 871a 913d 4baa 75bd
00000090: 5029 b3bd 9bf6 0fbc 0e82 92bd ec44 80bd
000000a0: 667e f23d ae0b 56bd d46f a53b c887 463b
000000b0: e3ea 5e3d a879 b23d 985d 283d abcd 11bd
000000c0: c4cb e93d 0734 e3bb 1aa4 f73d e238 59bd
000000d0: 286d e7bd da9c 32bc 8580 0e3d c28a 93bc
000000e0: 6af5 333e 9b35 7d3c c271 abbc f319 b3bd
000000f0: 70e0 b83d 9926 e33d af6b 13bd 401f 0fbe
00000100: a850 c73c 8c31 cebd 9fea a2bc ff82 c13b
00000110: 753f b43d 5fc3 34bd 4230 5fbd e1a2 993d
00000120: 2b99 c53d e83a 8ebd 9fc5 c23d 7ada f0bd
00000130: 49c3 fa3d 09af a53c e3a1 913d 2e79 71bd
00000140: ba43 853d c44b 6ebc 6bcd 9f3d d7cc 8f3e
00000150: 2f26 64bd d13f d4bd 9090 5fbd 2b39 e4bb
00000160: 4679 5e3d 1bc2 cf3d 8c7f 30bd 85f5 9abc
00000170: 184a 52bd 7ec0 25bc 6fda 113e df8c 743e
00000180: 15e1 e5bc a765 8fbd 62a2 babc 5c85 d8b8
-0.04455318 0.11054226 0.11619208 0.0011594901 0.022011526 -0.06660482 0.14692383 -0.09677865
0.020435898 0.065133974 0.10856104 -0.05395515 0.029456012 0.015406243 0.043144546 0.006950353
-0.051423263 -0.03231527 0.030323364 0.07583623 -0.09830825 0.120342284 0.1602431 0.03361687
0.022677604 0.12865512 0.11277329 0.11267215 0.034877833 -0.082465746 0.012209414 0.13880372
0.1477059 0.032411367 0.07085138 -0.059976857 -0.08748114 -0.008786823 -0.07153712 -0.06263146
0.11840515 -0.052257232 0.0050487313 0.0030293334 0.054423224 0.0871461 0.041104883 -0.03559653
0.11415818 -0.0069336924 0.12091847 -0.053032763 -0.11300117 -0.010901654 0.034790535 -0.0180105
0.17574087 0.015454675 -0.020928267 -0.08745184 0.09027183 0.11091346 -0.035991367 -0.13976765
0.024330452 -0.10068044 -0.019887267 0.0059055085 0.08801166 -0.044131633 -0.05448938 0.0750177
0.09648355 -0.06944829 0.095103495 -0.11760421 0.12244279 0.020225065 0.071109556 -0.058953457
0.065070584 -0.014544431 0.07802852 0.28085968 -0.055700477 -0.103637345 -0.054581225 -0.0069648228
0.054314874 0.101444446 -0.04309039 -0.018915901 -0.051340193 -0.0101166945 0.14243482 0.23881863
-0.028061429 -0.070018105 -0.022782508 -0.00010324523

action_head.weight f4 [6, 100]
00000000: 4145 2c3e 03a3 21be db69 a93c f3ad 0e3d
00000010: 8301 f8bd 3525 eb3b cc8c 153e 3c72 8e3d
00000020: fcdf ae3d f6b7 3b3c 6e5e debd c0b6 5b3c
00000030: 3c68 853d 4b0c 2f3d 71fa 97bc 45f6 753d
00000040: 6a96 4cbc f591 83bc e3de 023e 850a 63bd
00000050: 044e 4c3d 06cc a2bd 4f6c 42bd 5770 1dbe
00000060: 1c53 c43d 377d 38be d560 d0bd 1082 d03d
00000070: 92c0 0e3e cb61 63bc 8346 0e3e 0728 aebd
00000080: b676 72bd f183 18be 7b25 533e 30e3 c2bd
00000090: e8de f3bd cf63 96bc eec4 b03d cb13 85bd
000000a0: 3575 e439 4946 c13c 6ddf 6bbc 8927 c2bd
000000b0: 9f20 be3d a35f eebd bccd ed3d f547 1f3e
000000c0: a1bd 66bd 49f1 95bd aa05 c3bd 0bed a0bc
000000d0: 7a2f f4bd d693 bd3c 3fdc f8bd 14cb ba3b
000000e0: caed a5be bb22 27bc f0ef c93d 9449 f23d
000000f0: 2ee6 6cbc 2743 26bd 0697 57be b761 313d
00000100: 6d30 fe3d f756 cd3d e359 6fbe c8e5 bf3d
00000110: 27e2 e1bc 98a5 dcbd 3b32 2f3d 68c0 87bd
00000120: ccb9 26bd c440 163d 88d5 c33d 991a 8b3d
00000130: e3ad 8abc acfb 273e 438e b63d 4601 03bd
00000140: 089a 023e 510b 3fbd 069a f63d 39a6 4cbe
00000150: 0ce9 a33d 4e9b 7ebb b425 533d 690c 11bd
00000160: 75e1 f83b 6180 8abd 1fd3 9dbd 3c3c 443e
00000170: e9a8 8cbe 38ad 48bd 7d54 eabb eee9 94be
00000180: 49fd fcbd 3390 943c c78f 143e a5cf 163d
00000190: 1c18 34be 6fea 023e 880d 603d 2767 c1bd
000001a0: 2fe8 b63d e260 debd 2a0d cb3d 1ec7 dcbb
000001b0: d4db 87bd 12ad 30be ba42 f13d cffc 14be
000001c0: bab0 5dbe 77b8 5b3c 0dd4 25be 85d7 0fbe
000001d0: d52f 3f3d eb13 58bd aa1e 043d 7366 1a3d
000001e0: 6839 dc3d 697b 2f3d 7ef0 a53d 17f4 083e
000001f0: e3bf 8ebd 106c 11be 21b8 a7bd dc16 2bbc
00000200: 9cb6 27be 5b35 32bc d5df 0cbe fff4 d33d
00000210: 1fce 463e 2d84 a0bd 2f5d 48be d0d6 803d
00000220: 7e73 d6bd 8ef8 ef3d a966 6ebe 8d0a 03bd
00000230: e756 623c ad4d 3ebe b655 d83d b136 e63c
00000240: 8288 473d 03ae 77be 7429 8cbe 1326 82bd
00000250: 7204 a33d adf9 f1bd 6689 e13d b1d3 11be
00000260: 834f 9dbd 471d 0dbe c7b6 cf3b f207 d0bd
00000270: 9036 0a3e 54d3 123d e036 693d 9342 a0bd
00000280: 775c 1b3e bc2d 9b3c 08ab fb3d 946a 08bd
00000290: 7919 e8bc ca23 dd3c ed0f a9bc eebd 90be
000002a0: 34f6 213e f4eb 453d 43b4 57be 3826 70be
000002b0: 9f12 303e 83ba 09bd 6b2f 873d cc0e 98bd
000002c0: 8a8c 0f3e 0838 22be 76e6 2b3d e162 5cbc
000002d0: 54aa 793b 4485 37bc 7e24 3bbd 5694 713e
000002e0: e31d 11bd ef5a 8a3d 73c7 b63d b34a 67bd
000002f0: 552d c5bb 1c58 cb3d 5198 a6bd cdf7 f23d
00000300: b883 c33d 2452 6f3d f98a 043e be7c 453e
00000310: c110 03bd a7f2 e3bc 64e3 92bd e4d5 9e3d
00000320: aa3c 8e3c 4ffb ecbd 5a02 7d3d b83c 983d
00000330: a5eb 41bd bf1d 18bd 6aff 00bd 9f94 72bd
00000340: a62f 8f3d 0f98 143d d69d edbd 94b8 c73c
00000350: 49cb f23c e2d7 88bc 6e2a 183c 2b82 95bd
00000360: d289 12be b3ed ba3c e4d0 04bc 9558 9c3d
00000370: c273 5a3d 58b7 1b3e 83f9 7d3d 83d2 9abe
00000380: c1b7 b9bd eb5c 733d 89ea d63d 199b a7bd
00000390: 4333 dc3d 1b89 8dbd d7ec c8bd 5cae 25ba
000003a0: 43c3 9e3d 8e1e 0dbc 8d76 25bd 832c 4f3d
000003b0: 7cc0 ce3d d71e 6339 14df cc3d c781 8c3d
000003c0: 9725 90bd 2c85 b6bd 04a8 233d 837b 0abb
000003d0: 8a2c 37bb d650 1f3e eee3 69bc e375 1bbd
000003e0: b140 063e d02b 05bd 2255 4dbd 6da1 763d
000003f0: 6489 a43d d58c 3a3e 272f 1b3e 1bfe 1e3e
0.16823293 -0.1578484 0.020680359 0.03483386 -0.12109663 0.0071760663 0.14604491 0.06955382
0.085388154 0.011457434 -0.10857855 0.01341027 0.06514022 0.042736333 -0.018552037 0.060049314
-0.012487033 -0.016060809 0.12780337 -0.055429954 0.04987909 -0.07949071 -0.047466572 -0.15374885
0.09586164 -0.18016516 -0.10174719 0.101810575 0.13940647 -0.013878296 0.13894086 -0.08503728
-0.059195243 -0.14894082 0.20619766 -0.09515989 -0.1190775 -0.01835814 0.08631311 -0.06497916
0.00043574875 0.023593085 -0.014396531 -0.09480197 0.09283566 -0.11639335 0.11611506 0.15554793
-0.056333188 -0.07321412 -0.09522565 -0.01964428 -0.11923118 0.023141783 -0.121513836 0.0057004783
-0.3240798 -0.0102011515 0.098602176 0.1183044 -0.014459176 -0.040591385 -0.21053705 0.04330608
0.1241158 0.10026353 -0.23374133 0.09369999 -0.027573658 -0.10773772 0.042772513 -0.066284955
-0.040704533 0.03668286 0.09562212 0.067921825 -0.016928619 0.16404599 0.08913853 -0.031983636
0.12754071 -0.04664165 0.120410964 -0.19985284 0.080034345 -0.0038849893 0.05154963 -0.035412226
0.007595236 -0.067627676 -0.07706284 0.19163603 -0.27472618 -0.04899332 -0.007151185 -0.29084724
-0.12352998 0.018135166 0.14507972 0.03681912 -0.17587322 0.12784742 0.054700404 -0.09443503
0.08931004 -0.10858323 0.0991462 -0.006737604 -0.06633726 -0.17253521 0.11780305 -0.14549564
-0.21649447 0.013410679 -0.16194172 -0.14047058 0.046676476 -0.05275337 0.032255806 0.03769536
0.10753137 0.042842302 0.08102511 0.13374363 -0.06970193 -0.14201379 -0.08189417 -0.010442462
-0.16378254 -0.010876979 -0.1375726 0.10349464 0.19414566 -0.078377105 -0.19566797 0.06290972
-0.10471247 0.1171733 -0.23281349 -0.031992484 0.013814664 -0.18584318 0.10563223 0.02810225
0.04871417 -0.24187474 -0.27375376 -0.06354918 0.07959832 -0.118152 0.11012535 -0.1424091
-0.07681181 -0.137807 0.0063389274 -0.101577654 0.13497376 0.03584607 0.0569371 -0.07825198
0.15171991 0.018942706 0.12288481 -0.033304766 -0.028332459 0.026994605 -0.020637477 -0.28269905
0.15816575 0.048320726 -0.21064858 -0.2345208 0.17194603 -0.033625137 0.06600841 -0.07424697
0.14018455 -0.15841687 0.04196783 -0.013451309 0.0038095908 -0.011201207 -0.0456891 0.23591742
-0.035428893 0.067556255 0.08924761 -0.056467723 -0.006017367 0.09928915 -0.08134521 0.118636705
0.09546608 0.058427945 0.12943639 0.19285867 -0.0319984 -0.027825667 -0.071722776 0.0775564
0.017362911 -0.11571371 0.06176982 0.07433456 -0.04734387 -0.037137743 -0.03149358 -0.059223767
0.0699151 0.036277827 -0.116023704 0.024380006 0.02963795 -0.016704503 0.00928746 -0.07300218
-0.14310387 0.022818422 -0.008106444 0.07634083 0.05333305 0.15206659 0.06200553 -0.30238733
-0.090682514 0.059414785 0.10493953 -0.081838794 0.10751965 -0.069109164 -0.098107986 -0.0006320232
0.07752087 -0.008613242 -0.040396262 0.05057956 0.10095307 0.00021659896 0.10003486 0.068606906
-0.0703842 -0.08912119 0.039955154 -0.0021130748 -0.0027950131 0.1555818 -0.014275534 -0.037954222
0.13110615 -0.032512486 -0.050130017 0.06021254 0.08034018 0.18217786 0.15154706 0.15526621

action_head.bias f4 [6]
00000000: c7ab 7abd 68b1 bf3d 3ba9 863c 1d50 e4bd
00000010: 653d 433e 00bd 7bbc
-0.061198976 0.093600094 0.016438117 -0.11148093 0.19066389 -0.015364885
