text_cnn/param/net_param/la16 - 副本_critic_net.model (torch, 244759 bytes, 5 tensors)

feature1.0.weight f4 [6, 3, 5, 5]
00000000: c60f 1e3e 22e5 e7be 2c78 aa3d 21d8 5bbf
00000010: a285 3ebf 9977 113f de41 e43e 6a25 94bd
00000020: 22e6 8abf e288 3fbf 3388 b8bf 12f2 67c0
00000030: 2863 61bf d07e 9abe c1ac 01bf 1acd 70be
00000040: 6a23 7cbf bd3d 19bf 9be8 84bf ad94 babe
00000050: 6cb9 0b3f 0e21 a73e 2517 473f 11de a93e
00000060: 75cf 91bd 12a2 8e3b 4a12 09bd 42e7 b3bc
00000070: 634d 2d3d 1710 0bbe 14cd 743b a598 2cbc
00000080: 4141 3eb9 78f8 4fbc 724f bebd 1599 313c
00000090: e96d d3bd b6a2 86be 898d 6dbe 3fef afbd
000000a0: affb d43c 985a c5bc 5e87 4bbd bd11 47be
000000b0: d440 edbd fcc5 69bc 2cd7 e2bc 4120 05bd
000000c0: 19c5 48bd 6970 46bc 8f64 193f cc60 f13e
000000d0: 1039 333f 3663 06bf 0235 a5be d024 3b3f
000000e0: ab3c f73e ceb0 0a3f 39f2 6bbe abd5 1dbf
000000f0: 6c25 a0bf a9f7 81c0 9eb0 ecbf 345e afbf
00000100: 4eec 6bbf 6041 e8be 92cf f3be 9fea ecba
00000110: efab e4bf 2c4e 03bf 93f8 1fbe 753f a03e
00000120: 95c7 ed3e e3df 0b3d 1e57 12be e776 cabf
00000130: 62f0 49be dd52 773f e5cb aabe aeb2 1dbf
00000140: 924c 49bf 421b 143d 71f4 2cbe c7cb e03d
00000150: 7820 ea3d c313 58bd be43 d1bd ce46 843e
00000160: 0082 4f3e c5ab f63e 4c0e 43bf 3d3a 9c3e
00000170: 6b9a 6ebe 38a7 aabe cbc2 843e d0ed a83c
00000180: f76c 433f dc0d 0c3f cb3b ae3e 3b4e 433e
00000190: db8b 01be 5f08 a6bd e67f 5ebe 560f 50bd
000001a0: c18b 58be 8f7d c5bd dbc5 c7be 4fbc 4bbe
000001b0: ece9 f2be de54 8bbf dae9 a5be 9f61 2cbd
000001c0: 269d ac3b f82b 27be 0721 11be 6c50 17bd
000001d0: 128b f0bd 0832 36be 601a 4cbd 7d47 ccbc
000001e0: b6b8 1bbe 74b9 4abe 7e51 c23b a736 903c
000001f0: 1e4e b4bd 9e42 93bf 4f0e b23d 194b c63e
00000200: cbf4 51bf 64da 0abf 9bcd 2cbf 916e a33d
00000210: f009 32bf e272 16bf b002 d8be ff8e 94bf
00000220: ff88 6abf 047e bebe fd5b f8bd b6d0 4fbe
00000230: b03b 8abf d264 20be cbfb fbbd 3966 a8be
00000240: 4508 d13c d522 a93e 26d7 d5be 589a 2cbe
00000250: dfe9 f13e 62c1 a93d 9da7 eebf 8d67 c7bf
00000260: 3840 42bf 419c d3bf 86ea 6ebf 9b8e 31bf
00000270: 3bfd 53bf 8c35 9b3e 776a 8ebe 9aba e7be
00000280: e2fa 2abc 31d6 50be 6a27 353e 10e5 83bd
00000290: cfab fd3e 6e97 9a3e 6432 1abd 81fd eabe
000002a0: 1e67 5fbf 6e09 a0be e3ee 5ec0 ab3a d6bf
000002b0: 4875 4fbc b8de 5abe 2a8f 06bc c26a c9bd
000002c0: 2439 82bd d6e7 fbbd 064e 5ebf 763c 6b3d
000002d0: 8682 11be f80a 7cbc b849 b7ba bc32 43bd
000002e0: ff8d 55bd 1f1f 4dbd 7ad2 0cbd 9fa1 033d
000002f0: 6e12 dbbc e1dd 3abe 3e9b 24bc c382 a33b
00000300: b33e 38bd c3c2 f1bc 0588 2cbd cf53 22bd
00000310: 4455 11be 36e6 59be 7048 96be 50e2 c5bd
00000320: f102 6fbf 4001 17c0 9e31 6fbf 8030 45bf
00000330: bb7f 32bf 5755 f9be 9308 fc3e 0b06 c93f
00000340: 1be6 c33f 721d 373e 3e45 223f 2757 6a3e
00000350: caa5 84bc 9b2e 0ebf 7b5f aa3e 0c14 c03e
00000360: 0b50 2d3e 87c6 353f 33ac 86be 597b 4a3d
00000370: edb9 98c0 d739 d9bf ded0 13bf 0fac bcbe
00000380: 069b e1bd 193f 3ebd b953 3bbf 613b bcbe
00000390: 0040 a0be 8eda a2bd fcc0 e93e f57e b6be
000003a0: 3c91 093e f76a e93c dcd4 813e b005 f0be
000003b0: dc5f c83d e7c9 553c 03a0 43bd 461d 263e
000003c0: 3fa5 82bf 93e8 9bbe 8f49 e43d 0f75 06be
000003d0: 9c4d 003e 14c7 debe 0880 57bf e4f4 64be
000003e0: e766 303e 7dce 46bd a74b 79bd 915a 04be
000003f0: 8351 e1bc 04af 90bf 5deb 13be d8d1 12be
0.15435705 -0.45292002 0.08323702 -0.8587666 -0.7442266 0.56823117 0.44581503 -0.07233699
-1.0851481 -0.7481824 -1.4416565 -3.6241498 -0.88041925 -0.30174875 -0.50654227 -0.2351574
-0.9849154 -0.5985983 -1.0383486 -0.36441556 0.54579806 0.32642406 0.7776969 0.33177236
-0.071196474 0.0043528164 -0.033464707 -0.021960858 0.04231013 -0.13580357 0.0037353681 -0.01053444
-0.00018144121 -0.012693517 -0.09292497 0.01083972 -0.10323698 -0.26296014 -0.23198523 -0.085905544
0.025998918 -0.02409105 -0.049689643 -0.1944036 -0.115846306 -0.014268395 -0.027690493 -0.032501463
-0.049016092 -0.012111762 0.59919065 0.47144163 0.70008945 -0.52495134 -0.32267004 0.73103046
0.48288473 0.5417603 -0.2304162 -0.61654156 -1.251142 -4.061482 -1.8491399 -1.3700624
-0.9215745 -0.45362377 -0.476193 -0.0018075294 -1.786497 -0.51291156 -0.15622167 0.31298414
0.46441332 0.034149062 -0.14291045 -1.5817536 -0.19720605 0.96610814 -0.33358684 -0.6160077
-0.7863246 0.036158808 -0.16890122 0.109763674 0.11431974 -0.05275322 -0.10217999 0.2583527
0.20264435 0.48177925 -0.7619369 0.30513182 -0.23301093 -0.33330703 0.25929865 0.02062121
0.7633814 0.5470865 0.34029993 0.19072811 -0.12651007 -0.081070654 -0.21728477 -0.050795875
-0.21147062 -0.09643089 -0.3901814 -0.19896053 -0.47444093 -1.0885274 -0.32404977 -0.042085286
0.005267757 -0.16325366 -0.14172755 -0.03694193 -0.117452756 -0.17792523 -0.04982984 -0.024936432
-0.1520718 -0.19797307 0.005930125 0.017604185 -0.08803962 -1.1504705 0.086941354 0.3872917
-0.8201415 -0.5423949 -0.6750123 0.07980073 -0.69546413 -0.5876905 -0.4218955 -1.1606139
-0.9161529 -0.37205517 -0.1212692 -0.2029446 -1.0799465 -0.1566346 -0.12303885 -0.3289049
0.025516639 0.33034387 -0.41765708 -0.16855752 0.47248742 0.08288838 -1.8644902 -1.5578476
-0.7587924 -1.653206 -0.93326604 -0.69358224 -0.82808274 0.3031429 -0.278156 -0.45259553
-0.010435792 -0.20394208 0.17690817 -0.064401746 0.49545142 0.30193657 -0.037645712 -0.45896533
-0.8726672 -0.31257194 -3.4833305 -1.6736654 -0.012662239 -0.21374023 -0.008212844 -0.098348156
-0.06358555 -0.123000786 -0.86837804 0.057430707 -0.14209947 -0.0153834745 -0.0013983762 -0.047655806
-0.05213737 -0.050078508 -0.034380414 0.032136556 -0.026742186 -0.18248703 -0.010046778 0.0049899532
-0.04498167 -0.029511815 -0.042121906 -0.039630707 -0.14192683 -0.21279225 -0.2935214 -0.09662306
-0.93363863 -2.3594513 -0.93435085 -0.7702713 -0.6972615 -0.48697922 0.49225292 1.5704969
1.5304598 0.17882326 0.63386905 0.22884808 -0.016192336 -0.55539864 0.3327597 0.37515295
0.16925065 0.71006054 -0.26303253 0.04943404 -4.772696 -1.6970776 -0.5774058 -0.3685002
-0.110158965 -0.046446893 -0.73174626 -0.36764053 -0.31298828 -0.07951842 0.45655048 -0.35643736
0.13434309 0.028493388 0.2535771 -0.4687934 0.09783909 0.013048626 -0.04776002 0.16222104
-1.0206679 -0.30450878 0.11146843 -0.13130592 0.12529606 -0.4351126 -0.84179735 -0.22359043
0.17226754 -0.048536766 -0.060863163 -0.12925173 -0.027504688 -1.130341 -0.14445253 -0.14337862

feature1.0.bias f4 [6]
00000000: b344 233f e2b0 ea3e db61 d73e dff1 2e3d
00000010: 5c22 a43e 891c 183f
0.637767 0.45838076 0.42066845 0.042711135 0.32057464 0.5941854

fc2.weight f4 [100, 600]
00000000: 9858 afbc 35b8 273c 5442 61bd c7f7 69bd
00000010: 8c04 42bd e117 5ebd d83e 0dbd 84ad a03c
00000020: bc5b b3bc d2b4 64bd 287c 8ebc 18f6 34bc
00000030: 97fd 58ba 7aed 24bc 858a 21bd 03dd cfbc
00000040: 6981 903c cc35 dfbb 7197 f33b 61f4 22bc
00000050: 8ce5 113a 6156 23bd e7f8 5abd 54c4 56bd
00000060: 673f 12bd 9053 62bb e9d5 49bc 01d9 77bd
00000070: efe2 01bd 91c5 bc3b 2be6 59bd bc82 2abd
00000080: b1cf 9bbc 6ded 94ba 5d84 15bd b8d1 923b
00000090: 5827 133c 91a8 89bc 58f8 b6bc dfd9 72bd
000000a0: bd76 25bc ed29 5fbd 0e5e a93b 768f 8bbc
000000b0: e071 d7bc 1064 b9bc b6f5 ddbc a4e6 0cbd
000000c0: 4859 8f3c 8d8a c8bc c0fb f9bc 76a0 30bd
000000d0: 7caf 05bd d1bb 2bbd 1cbe 193b 8ad1 98bc
000000e0: 72a4 43bd e4b1 2abd 858f ffbc 7a0d 4e3c
000000f0: 3a9a 87bb 0229 ab3c 9852 2fbd 182c 26bb
00000100: 870b 2dbd a105 2abb 37e5 be3b b9a7 053b
00000110: 672e 633c 2282 db3b 2d0e 36bc 468c 3ebd
00000120: 0870 0cbd 792f 25bd 67a7 5dbd ab1d 99bc
00000130: 12ab 303a ec94 ebbc 5626 63bd a3a0 c9bb
00000140: a1d8 81bc e33f 6ebd b23a 41bc 7b73 64bd
00000150: f830 5bbd cd07 0abd b72d 36bd cd3b 04bd
00000160: 83d0 063a 9174 41bd f63f 41bd cf55 683b
00000170: 7770 a5bc 80aa f3bc f251 20bd 45fb f9bc
00000180: 4c4e f7bb 3276 97bc 1847 1fbc 9ee5 afbb
00000190: 77bc c8bc 2d5c 3a3c 97ef 9fbb 90de f1bc
000001a0: 445d 39bd 1dc6 aebc db82 ddbc 15bc 5dbd
000001b0: 72fe ac3b fffe 68ba 6e21 1fbd 56f1 a63a
000001c0: 0bd9 3dbd ff49 9cbc 766c 37bd 5d19 09bd
000001d0: 684c 42bd 6e3b 9c3c c8c1 0ebd 77b9 5b3c
000001e0: a42c c8bc 8ca3 0b3c f6b1 82bc 085b 14bd
000001f0: d0c1 cfbc 95dd 65bd 014e 6ebd 2338 8d3c
00000200: db1f 85bc f390 593c 4d05 98bc 0b69 b4bc
00000210: 27cd 13bd aa18 40bc fbca 36ba c264 d0bc
00000220: 1084 ae3b 0a40 0ebc 84e1 de3b 6df6 5dbd
00000230: c959 34bb 7400 783c 245d 90bc b908 aabc
00000240: edb6 00bd 9438 93bc fbe6 ecbb 5d2d 75bc
00000250: cc2e 6dbd 831f 85bc 3f34 b83b ce07 adbc
00000260: 810e f1bc 160a 68bc d7d5 debc b26e 58bd
00000270: 08d5 3abd 562b 6cbc a0ab 55bd a941 513b
00000280: 092b 59bd dbff 883c 76e0 52bc a7af 393c
00000290: 8d2d 4f3c 29c4 1bbd dfb6 24bd e560 74bd
000002a0: 36cc 11bd a144 54bd 8eb2 28bd 1e05 5cbd
000002b0: 81fe 0abc 356d d1ba 9a3a dbba de7b 48bc
000002c0: ca81 823b 6643 3f3a 24a7 34bd 6aa3 08bb
000002d0: f95c 3bbd abec 83bd 154f a23b 2438 83bc
000002e0: f5dc 10bd f81d 793b 206b 90bb ed84 94bc
000002f0: fade ee3b 62a7 5bbc 6316 4fbd bcd4 49bd
00000300: abb4 53bd 6245 e7bc 3ea2 74bd f387 59bd
00000310: 2b17 c5bc b8a3 65bd 6013 3bbd eb03 97bc
00000320: 8c01 9c3a 1e28 04bd 8d81 71bd 8796 5cbd
00000330: db35 743c ee2b f7bb badf 22bb be9c 46bc
00000340: 1120 71bd 8f6e adbc 06bd 5c3c 73b3 46bd
00000350: 3f2c 21bd fc7b 8e3c 5b7f 51bd c5aa 863c
00000360: 7681 6fbd 0532 813c a400 343c 6e28 4ebc
00000370: 7c2a 17bc 0742 5abd bcc5 88bc 4732 35bd
00000380: b442 403c 84bf 3dbc 85f3 c1bb b070 0cbd
00000390: 2a24 d1bc 5832 c2bc 91f1 b2bc 8176 00bd
000003a0: 7222 19bd a5e0 0dbd eb77 78bd 13e0 54bd
000003b0: 20df 23bd b1b3 96bc ba7e 913b e58a 873c
000003c0: 671a d8bc 5fe5 33bd 01ca 5ebc 6fdc 05bd
000003d0: df92 433c 546d 4cbd b752 51bd 94ec 3cbd
000003e0: 94b3 ebbc ef20 fcbc feb4 ac3b 337a 86bb
000003f0: d337 f4bc e6b3 9f3b a588 debc fbaf 24bd
-0.02140455 0.0102367895 -0.054994896 -0.057121065 -0.047367617 -0.05422199 -0.03448376 0.019613989
-0.021894328 -0.055836506 -0.017393187 -0.011045001 -0.0008277534 -0.010066384 -0.039438743 -0.025373941
0.017639833 -0.006811833 0.0074338247 -0.00994596 0.0005565516 -0.0398773 -0.053460028 -0.052433327
-0.035704996 -0.003453467 -0.012319067 -0.060509685 -0.03171056 0.0057608564 -0.05319802 -0.041628584
-0.019019933 -0.0011362262 -0.036503185 0.004480567 0.008981548 -0.016804012 -0.022335216 -0.05928981
-0.01009911 -0.054483343 0.005168683 -0.017036181 -0.026299417 -0.022630721 -0.027094703 -0.034399644
0.017498627 -0.024480129 -0.030515552 -0.043121777 -0.032638058 -0.041927163 0.0023459261 -0.018654604
-0.04776425 -0.041673556 -0.031196365 0.012576455 -0.0041382583 0.020893577 -0.042803377 -0.0025355872
-0.04224732 -0.0025943296 0.0058256644 0.002039416 0.013866044 0.0066988626 -0.011111778 -0.046520494
-0.03428653 -0.040328477 -0.054114725 -0.018690905 0.00067393587 -0.028757535 -0.055456482 -0.0061531826
-0.015850367 -0.058166396 -0.011793779 -0.055774193 -0.053513497 -0.033698846 -0.04447719 -0.032283593
0.0005142765 -0.047230307 -0.04718014 0.0035451537 -0.020195229 -0.029744387 -0.03914065 -0.030515322
-0.0075471755 -0.018488977 -0.00972154 -0.0053679487 -0.02450393 0.0113745155 -0.0048808563 -0.029525071
-0.04525496 -0.021334702 -0.027039936 -0.054134447 0.0052793557 -0.0008888095 -0.03885024 0.0012736719
-0.046349566 -0.019078253 -0.04478117 -0.033471454 -0.047436148 0.019071307 -0.034852773 0.0134109175
-0.024435349 0.008522879 -0.015953999 -0.036219627 -0.025360972 -0.05611952 -0.05817986 0.017238682
-0.016250541 0.0132791875 -0.018557215 -0.022022745 -0.03608432 -0.01172463 -0.00069729955 -0.02543867
0.0053258017 -0.00868226 0.006801786 -0.054190088 -0.0027519336 0.015136827 -0.017622538 -0.020756112
-0.03142445 -0.017971314 -0.0072296835 -0.014964429 -0.057905957 -0.016250378 0.0056214626 -0.021121886
-0.029425861 -0.014162561 -0.027201576 -0.052839942 -0.04561332 -0.014414629 -0.052165627 0.0031930006
-0.053019557 0.016723564 -0.0128708985 0.011333383 0.0126451375 -0.03802887 -0.040213462 -0.05966272
-0.03559514 -0.051823262 -0.041185908 -0.053715818 -0.00848353 -0.0015977981 -0.0016725839 -0.0122365635
0.003982757 0.0007296115 -0.04410471 -0.0020849355 -0.045742963 -0.06441625 0.004953275 -0.01601798
-0.03536697 0.0038012248 -0.0044073015 -0.01812979 0.0072897645 -0.013406606 -0.05055846 -0.049275145
-0.05168597 -0.028231326 -0.05972504 -0.053108167 -0.024058899 -0.056064337 -0.045672774 -0.018434485
0.0011902316 -0.03226482 -0.05896144 -0.05385449 0.014905418 -0.0075430786 -0.002485259 -0.012122331
-0.05886847 -0.021170883 0.013472801 -0.04851098 -0.039348837 0.017393105 -0.051146846 0.016438851
-0.058473073 0.015770921 0.010986481 -0.012582881 -0.009226438 -0.053285625 -0.01669585 -0.0442374
0.011734653 -0.011581305 -0.0059189224 -0.034287155 -0.02552994 -0.023705646 -0.021843703 -0.031363014
-0.037386365 -0.034638066 -0.060661238 -0.051971506 -0.04000771 -0.01839623 0.004440156 0.016545722
-0.026379777 -0.043919917 -0.013597966 -0.032680925 0.011936872 -0.04990895 -0.051104274 -0.046124056
-0.028772153 -0.030777423 0.0052705994 -0.0041039228 -0.029811775 0.0048737405 -0.027164767 -0.04020689

fc2.bias f4 [100]
00000000: 592f 3ebd d3f3 02bd f0f2 74bc a723 893f
00000010: f14b 013f e7e5 693c 378f 943f 04bd 963d
00000020: ae37 b33f d991 adbc ff5e 0cbc 7267 a33f
00000030: ed4a dabc 0f45 8d3f 0ce8 4f3f eb7a 16bd
00000040: 2705 373f e14c 3d3f cbf3 823f 6036 9e3f
00000050: afb2 573f b0e4 9c3f 5df3 9c3f 1139 a13f
00000060: 2e73 6fbd 725a d13b 46ae 47bd a63f 973f
00000070: 2485 2a3f 7121 5abd 0296 31bd ca09 ffbc
00000080: 0d13 2fbc 25c5 31bd 0364 113c b4ef 3a3f
00000090: cc05 b43f 5e76 793f b40c 933f ce93 5c3f
000000a0: bc4f 043b 2892 6d3f 67d6 eabc b2fe a33f
000000b0: 9627 35bc f608 373f 2e59 903f c550 2cbd
000000c0: a9fd 9f3f 7ff8 c23e ece0 603f 38bf a03f
000000d0: cb75 f6bc b76d 58bd 872a cd3e 2dbf 043d
000000e0: 9377 31bb 5c7c 973f c812 313f 95ba 0cbd
000000f0: 46b4 a73f 8e52 7c3b bad6 2f3c 0111 29bd
00000100: 115d 643f 2846 953f 8d65 9d3f 7ad7 553f
00000110: ed60 a23f f307 b8bc 56ae d53b e666 c7bc
00000120: 8772 483c 9224 55bb cafb 92bc 0d35 aa3e
00000130: ade4 a63f 770b 143f aa15 e63a 7e01 003c
00000140: 2261 a73f b198 2e3f d36a a23f 801f a43f
00000150: a33b e5bc 5dfd 8fbc 19f5 763f f6ca d8bc
00000160: b71c 4bbc 3776 51bd fae3 9c3f 88fb 673f
00000170: 11c7 a73f 501c c1bc a38c fbbc ffab 253c
00000180: b4b7 97bc 9b56 a73f acba a6bc 2273 76bd
-0.046431873 -0.03197081 -0.014950499 1.0714005 0.505065 0.014276004 1.1606206 0.073602706
1.4001367 -0.02118771 -0.008567571 1.2765944 -0.026647056 1.10367 0.8121345 -0.036738317
0.71492237 0.7394543 1.023065 1.2360344 0.84257025 1.225729 1.2261769 1.259554
-0.058459453 0.0063889557 -0.048750184 1.1816299 0.66609406 -0.05325455 -0.04335595 -0.031132597
-0.010685694 -0.043400902 0.008873942 0.7302201 1.4064269 0.9744624 1.1488252 0.8616303
0.0020189127 0.9280114 -0.028666688 1.2812102 -0.011056801 0.7149805 1.1277215 -0.042069215
1.2499286 0.38080212 0.87843204 1.2558355 -0.030085465 -0.052839007 0.40071508 0.032408882
-0.0027079328 1.1834826 0.6916928 -0.034357626 1.310189 0.0038501355 0.010732347 -0.04127598
0.8920451 1.1662035 1.2296616 0.83531916 1.2685829 -0.022464728 0.0065210266 -0.024341058
0.012234337 -0.0032523018 -0.017942328 0.332436 1.3038536 0.57829994 0.0017554064 0.007812856
1.3076518 0.6820174 1.268885 1.2822113 -0.027982539 -0.017576868 0.9646774 -0.026463967
-0.012396983 -0.05113813 1.2257073 0.9061818 1.3107625 -0.02357307 -0.03070671 0.010111808
-0.018520214 1.3073305 -0.020352684 -0.060168393

state_value.weight f4 [1, 100]
00000000: 2db3 063c 6136 3b3d 5ef3 843d 8ca3 b13b
00000010: 8ff7 aebe 704b 8b3d 2e01 2cbc 0310 7f3e
00000020: 5136 a6bd 0064 8f3d 3157 4c3d 8303 adbd
00000030: 28ae 363c ad9c e53b b866 913b 5e68 5dbc
00000040: ef5b 69be 6ed5 cbbd f763 f73b 988b 3cbb
00000050: c9e9 acbd 5cb7 8fbd dfa8 9dbd 34f1 8abd
00000060: f81b 873c d069 c23c d122 813d 6fe5 e7bc
00000070: aa4a cbbd 8cd9 793d 64c5 7b3c 1c36 8cbb
00000080: efcb a63c 8cb1 8abc 6c6a e53c 920e 9fbd
00000090: b481 c5bd a00a 98bd 1337 d1bc 4632 66bd
000000a0: 9c88 f93c e1eb 70bd 409e d63c cad6 c3bd
000000b0: 6c05 7aba 5855 c0be c44f 93bc b4b9 993d
000000c0: d296 8dbd bc44 793e 60cb 68bd 9ab5 78bd
000000d0: 9cba 083d d171 523d cf1c d83d 3e52 84bc
000000e0: 6395 143d dfbf b23b f2c3 1dbf 51ba c83c
000000f0: 888b a1bd 7554 5c3d 3ba5 48bc ffff 7a3d
00000100: 0d76 b3bd ae0c 8fbc 36c3 2bbd 1c0a 27be
00000110: dd40 c6bd d64c 9b3d b91c 813d 15da 76bc
00000120: 6b27 7b3d 0721 9b3d 64a2 953d 3d6f 643e
00000130: 7b7e b6bd a5bd df3d ae47 303c d2d9 083d
00000140: c14b c9bd bb89 89bd 464a 95bd ffaa d1bd
00000150: ab53 913d 035e 31bc 8b9d 61bd f81d 63bb
00000160: 2e15 9e3d c6fd 983d 2bff 84bd 2cbb 2abd
00000170: 8e52 bcbd b4ae ef3b d64a b53c 5290 083d
00000180: bd41 1dbc de3b c5bd 39ad 2abc 12fd 963d
0.00822143 0.045706157 0.06491731 0.0054211076 -0.34173247 0.06801498 -0.010498328 0.24908452
-0.08115829 0.07001495 0.04988784 -0.084479354 0.0111499205 0.0070072026 0.004437294 -0.013513653
-0.22788976 -0.09952818 0.0075497585 -0.0028769728 -0.084430285 -0.07017395 -0.07698225 -0.06784287
0.016492829 0.023732096 0.06305469 -0.028307645 -0.099263504 0.060998484 0.015366886 -0.0042789113
0.020360915 -0.016930364 0.028004847 -0.07766451 -0.096438795 -0.074239016 -0.025538957 -0.05620029
0.030460648 -0.0588187 0.026198506 -0.09562452 -0.0009537551 -0.37565112 -0.017982371 0.07506123
-0.06913532 0.24342626 -0.05683458 -0.060720064 0.03338109 0.051378075 0.1055237 -0.016152497
0.03627528 0.0054550017 -0.61627114 0.024502905 -0.078879416 0.053791482 -0.012246425 0.061279293
-0.08762751 -0.0174621 -0.041934215 -0.1631245 -0.096803404 0.07583015 0.063043065 -0.015066643
0.06131689 0.07574659 0.07306364 0.22308059 -0.08910843 0.10924844 0.010759277 0.033410855
-0.09828902 -0.06715723 -0.07289557 -0.10237693 0.070960365 -0.010825637 -0.055081885 -0.0034655314
0.077188835 0.074702784 -0.06493982 -0.041682407 -0.091954336 0.0073145274 0.022130411 0.03334076
-0.009598193 -0.096305594 -0.010417276 0.07372488
