text_cnn/param/net_param/la22_actor_net.model (torch, 548183 bytes, 6 tensors)

feature1.0.weight f4 [6, 3, 5, 5]
00000000: bd9d 273d 7d27 703e 1404 543e c704 88bd
00000010: ab71 cebd ea24 80bd a125 f33e 9b65 ca3d
00000020: 87fe 6bbe df67 abbe 26fb 68be d003 2fbe
00000030: 69fb fd3e e577 fdbd d79c 35be 7ffc a3bd
00000040: 875e 6cbe a996 3f3d e543 0abe 40c8 babe
00000050: 27a4 54be 1a7e adbe 1083 133f 8362 63be
00000060: c902 6d3d 08f0 a5be dd71 ecbd 3be3 21be
00000070: 0111 afbe b59f bfbe 541e c6be edac 88bb
00000080: f332 42be 621b 283d f351 9cbc 234e 0fbf
00000090: 067d 813d 0ae7 ffbd f236 12bf 8eaa 4cbe
000000a0: 83d6 853c fa73 cfbe defc bc3d 880a 15bd
000000b0: 51e7 8fbe d892 30be 6225 4ebe 7dea e43c
000000c0: f139 42bd 04fc aabd 42cd 303d cbd3 4a3e
000000d0: b0fc 51bd 6325 2c3b 6863 53bd a17e 543d
000000e0: 579b 323e db9d cf3d 9f8f 70bd 5e79 cfbd
000000f0: 4594 66bc 34c0 803d 6187 1b3e d4ff 9f3d
00000100: 0655 aabd 29d4 6b3d c342 b7bd f6b6 4fbe
00000110: 690e c2bd b78b 95be 0e15 7b3d 1d2c 73be
00000120: 172c c53d 048f e2bc d069 07be a1ed b4be
00000130: a3c9 d33e feb1 e7bd 454c 1d3d ba48 b7be
00000140: f131 ae3d d559 8f3e dee7 2cbe 70ba c53d
00000150: 176f d8be 6c2f bebd 03fd 603f 554f 843e
00000160: 654a 9d3c 3f8e 3abe e31b c63c 25ed a0be
00000170: 1c29 3ebd 5ad1 acbe 1894 08be 11b5 b03e
00000180: 99c9 93be ccbd 1abd 8be8 debe ee25 bcbe
00000190: c421 2cbe dced a3bd 3116 b9be 7ebd 12be
000001a0: df07 e9bc 3998 6cbe 9769 723d 5707 08bc
000001b0: dd3e 243d 9cfd 67bd eccc 0dbf 1fbb 4abd
000001c0: 2eb8 b5bd 5b15 043d f964 efbd 085e c1be
000001d0: 8750 e6be 73e8 dcbd a12e e6be fc52 5ebd
000001e0: 8598 fcbc 3754 48bf 2e5c 0cbf a36e 36be
000001f0: 8c4d d9bd dcae 1fbe aab3 22be 26e1 c3bd
00000200: fd03 86bd f7e4 ccbe c884 033e d909 993e
00000210: 8de7 72ba 1826 3e3d 2c92 5cbe 1760 fb3d
00000220: 2842 823e 11f7 883e 9248 b03d 2cf3 c2be
00000230: 6059 7f3d de7c bc3e 2688 d73e 39d7 92be
00000240: b5f5 e1be 899a 893e 949a 913d e811 9f3c
00000250: ee6f 16be 6e45 bfbe 91dc fabc 8e4a 233f
00000260: 9a79 1d3e 180d 9abd bf09 70be c93f f93e
00000270: aaed e73e 200b 45be 2604 6bbd 947d 88be
00000280: b235 193e 745d 32bd e2c1 3fbe 7deb b73c
00000290: 030f 86be edcd cebd 5b15 9cbd a9db 953e
000002a0: 8068 0fbe 16ee 57be 8c90 5a3d 4b4f afbd
000002b0: 5a7b c73d b85e 3abe 2da6 fcbd 5206 71be
000002c0: 29a4 fd3b 82c2 92be 51aa 84be 0033 cabe
000002d0: 2fe9 05be e4a6 c8bd 761b dabe 0908 25be
000002e0: 3fb9 17bf 7185 d8bc 46ca 99bd cd08 fcbe
000002f0: 1c31 873d 4bae b7bd c900 b3bd 3f42 91be
00000300: 9a4f 8fbd 2404 bbbe 8504 3ebd a704 09bd
00000310: 0fba 6abe e3e6 853d 1ac2 8bbe cda8 e1bd
00000320: a478 0e3e 45ea 8e3e 8b44 a63e 4eb5 7b3d
00000330: b91e 20be aa84 7d3e d6ae 633e e5cc c13d
00000340: 113f 40be 5668 bdbe 12f4 133e 3d5b dabc
00000350: c33a 263e e931 6dbc d070 4fbe 0b7e ed3d
00000360: 8c0d ecbd 8daa 293e 11bc efbd ad25 92bd
00000370: f688 473e e541 ab3c 002b d53c e140 91be
00000380: 913e 92be 0a7a a7ba ce9d 943d 5728 55be
00000390: a386 fbbd fbb5 ac3d fb59 6e3d 20bc 953d
000003a0: 0274 3cbe c7a5 8cbc 959c 2abe 784f 753e
000003b0: 1e87 72bc ca68 d6bc e6c9 99bd 2c6f 22bd
000003c0: ba3e 09be 24b5 16bd 0f16 373c 17b9 b7be
000003d0: cb87 70be deec 60be d83f 3f3d ffda 9fbe
000003e0: 42e2 b4be b760 823b 263d c8be 03f7 0fbe
000003f0: 247b 26bf f280 6d3d ec85 ec3d c7f5 acbe
0.040921915 0.23452564 0.2070468 -0.06641536 -0.10080274 -0.06257041 0.47489646 0.09882661
-0.23046313 -0.33477685 -0.22752056 -0.17091298 0.49605873 -0.12376384 -0.17735611 -0.08007144
-0.23082934 0.04677454 -0.13502462 -0.36480904 -0.20765744 -0.3388527 0.5762186 -0.22205548
0.057863984 -0.32409692 -0.11545155 -0.15809338 -0.3419266 -0.37426534 -0.38695014 -0.004171005
-0.18964748 0.04104174 -0.019082045 -0.559786 0.063226745 -0.12495239 -0.5711509 -0.19986936
0.016337639 -0.4051817 0.09227918 -0.036386997 -0.28106168 -0.17243516 -0.20131448 0.027943844
-0.04741854 -0.083488494 0.0431645 0.19807355 -0.051266372 0.0026267401 -0.051608473 0.051878575
0.1744207 0.101375304 -0.058730718 -0.10130571 -0.014073436 0.0628666 0.15188362 0.07812467
-0.08316998 0.05757538 -0.08948281 -0.20284638 -0.09475405 -0.29208156 0.061299376 -0.23747297
0.0962755 -0.027656086 -0.13223958 -0.35337546 0.41364774 -0.11313246 0.038402814 -0.35797673
0.08505619 0.27998224 -0.16885325 0.09654701 -0.42272255 -0.09286389 0.87886065 0.25841776
0.019200513 -0.18218325 0.02418322 -0.31430927 -0.046425924 -0.33753473 -0.13337743 0.34513143
-0.28864744 -0.03777866 -0.4353679 -0.36747688 -0.16809756 -0.080043525 -0.36149743 -0.14330098
-0.028446136 -0.23104943 0.05918273 -0.008302531 0.040099014 -0.056638345 -0.5539081 -0.04949486
-0.0887302 0.03224693 -0.11689181 -0.37767053 -0.44983312 -0.10786524 -0.4495745 -0.05427836
-0.030834446 -0.782535 -0.54828155 -0.17815642 -0.10610494 -0.15594047 -0.15888849 -0.09564428
-0.065437295 -0.40018436 0.12843621 0.29890326 -0.0009266071 0.046423048 -0.21540135 0.12274187
0.25441098 0.26750997 0.08607592 -0.3807615 0.062341094 0.36814016 0.4209606 -0.28679827
-0.44132772 0.26875713 0.071095616 0.019417718 -0.14691135 -0.37357658 -0.030622752 0.63785636
0.15378419 -0.07522029 -0.23441218 0.48681477 0.4529851 -0.19242525 -0.057377003 -0.26658309
0.1496189 -0.043546155 -0.18726304 0.022451157 -0.26183328 -0.10097871 -0.07621261 0.2926915
-0.14004707 -0.21086916 0.053360507 -0.08560046 0.09740324 -0.18200195 -0.12336383 -0.23537567
0.0077405167 -0.28664023 -0.2591119 -0.39492035 -0.13077234 -0.09797457 -0.42599076 -0.16116346
-0.5926704 -0.026430817 -0.07509284 -0.49225464 0.06601164 -0.089687906 -0.08740384 -0.28370854
-0.06997605 -0.36526597 -0.04639103 -0.033451702 -0.22922538 0.06538179 -0.27296525 -0.11018524
0.13913208 0.27913108 0.3247417 0.061452202 -0.1563672 0.24757639 0.22234663 0.09462909
-0.18774058 -0.36993665 0.14448574 -0.026654834 0.16233353 -0.014477232 -0.20257878 0.115963064
-0.11526021 0.16568966 -0.11705793 -0.07136092 0.1948584 0.020905444 0.02602148 -0.2836981
-0.2856336 -0.0012777459 0.07256661 -0.2081617 -0.12281539 0.084331475 0.05819128 0.073112726
-0.18403628 -0.017168893 -0.16661294 0.23956096 -0.014802722 -0.026173014 -0.07509212 -0.039656803
-0.13402835 -0.036793843 0.011174693 -0.358834 -0.23489301 -0.21965358 0.046691746 -0.31221768
-0.3532887 0.0039788145 -0.39109153 -0.14059071 -0.6503165 0.0579843 0.11548981 -0.33781263

feature1.0.bias f4 [6]
00000000: 27f0 0abc a1ef 2b3e 0baa 1c3e b065 693d
00000010: e3c6 27bc ce2b 15be
-0.008480108 0.1679063 0.15299241 0.056981742 -0.010240289 -0.14567491

fc2.weight f4 [150, 900]
00000000: 6d0f f13c cee0 813c 632f 83bc 34a6 8fbd
00000010: b63c e5bc 86a4 d5bd 9e37 cd3c 434f cebd
00000020: b5e0 83be 95ae 253e 17e6 cfbb c180 65bd
00000030: cb6b 22bb 65e0 973d 204b ba3c d0f6 113e
00000040: 18d6 b1bd 217d a2bc 22c4 aabd 761d f1bd
00000050: b926 90bd c54b e1bc 375a 903d b667 82bd
00000060: e3ed 3c3d 97c0 a6bd 84a0 3f3d f94a b7bd
00000070: fcac c13a 059a 94be 0292 94bd 93d6 1a3e
00000080: d64d b9bd 72cc a8bd 10c3 1b3e 98d8 993d
00000090: d9d1 0abe 1fc8 b1bd cca9 cb3b f079 1fbe
000000a0: 47ba 3abe 7b9b 47bc dead 9d3d ca0f 79bc
000000b0: f724 293d 1481 703e 4b9f 2abd f8a5 643d
000000c0: 4bac 51bd b0f6 9abe 1464 b63d 71fc ba3d
000000d0: 636f 16bd 5dad 573e 502f d8bc 179a 833d
000000e0: 83f2 c6bd 5efc b23c 1401 bd3c d25b 52be
000000f0: 4a39 6d3d 233b e33d c352 cdbc c348 973d
00000100: 8ebb 0c3e f8f7 c63a 7a95 1a3b d578 2bbd
00000110: e7f8 eebe dc48 073d 3f6e 02be 6224 2b3c
00000120: 28ce b6bd c01d 82be a208 9a3d 7b44 f63d
00000130: 9392 babe 5a83 89bc 2168 79bc cf30 43bd
00000140: 933f f1bd 3328 97bd 7ccb d63d cfa1 dbba
00000150: a216 123d e5a7 a83d 43c3 a23b 582b 9dbd
00000160: 5c31 70bd 553f f53d 7d0c 04bd d3ca 1dbe
00000170: fd26 f3bd 006c 283d b293 99bb fdf1 e83d
00000180: b81f a63c 6978 13be 1c54 e63d 19fc df3c
00000190: 64ac 80bd 22da 04bd df9e 2c3d 5292 123d
000001a0: 46e3 1f3e b6a4 c73d 75e6 90bd 7750 553d
000001b0: f9c6 843d 088f 843c 7984 e1bd dafb 9bbd
000001c0: b456 07bc d328 883d bddf d8bc 76f9 c5bd
000001d0: 8b0c 09bc 5bb3 33be 3460 8c3d 1664 253d
000001e0: 0700 733b 1be7 80bd 04d9 903d 8291 863c
000001f0: b75c a2bd 14c5 81bd c377 54bd 4062 443e
00000200: b5d6 313e 5093 93be c44e 3dbb 858d 0dbe
00000210: ed33 803d bcb4 8cbc a084 8fbc 87b8 553d
00000220: 6e85 20be 8685 2abe 2f12 f8bc 84e3 d0bd
00000230: c5ab c0bd 1af3 2cbe 823a 38be 1c18 823d
00000240: ffad 4a3e 8d99 dbbc 3448 07be 0b44 13be
00000250: cd91 32be 409a 2ebd 9674 6fbb d71a 04be
00000260: d5a2 873c 92a5 843d fd20 d1bc 16a5 f4bd
00000270: 078a 77bc 2d9f 1f3e e2f8 a4bc 1a55 503d
00000280: 7b3a 35bd 0fbe 96bc 76a9 12be 89c9 59bd
00000290: c04d 503d 206d 7ebd d39d 373e e74c 1ebd
000002a0: a143 003e 196f c33c b3b3 9abc 4153 0cbc
000002b0: c893 0d3d e558 a1bc 89ff 89bd eb2a 32be
000002c0: 725d a1bc e212 07be c339 253c 0b40 26be
000002d0: 74db 2ebd bc2b 46bd 71e8 703e 39d1 e73c
000002e0: eb78 f7bc 18ad 22be 3509 72be 90bc 98bd
000002f0: 8c97 0bbe 67d5 37bd 9c71 20be eed0 b3bd
00000300: 98ea c13d 0798 853c 3a9b a03d 30a9 223e
00000310: b0e6 acbd 113f 04be 79e2 1cbe f77d 07be
00000320: 7086 a5bd d1c2 823b e94d 563c e2df ecbd
00000330: c991 a9be eff9 c03d aef3 30be 433b abbc
00000340: 0424 a33c 3e09 ab3b 0b62 64bc aaa1 2f3e
00000350: 689e b13c 2017 663d 0960 d7bb 5489 4fbd
00000360: bd44 293d 74c9 06bc e3b9 8ebe ff28 8fbd
00000370: 1ef4 393c e30e 13be fd0a b73d 75d1 3ebe
00000380: ac91 ce3d 06c7 57bd e2a8 04bd 67cc d5bd
00000390: 990f c1bb f826 77bd 0508 8abd ef08 eebd
000003a0: 844b 1e3e 32d5 353d 8bd8 933d f080 2fbc
000003b0: 311c c53c 10e7 12be a7df d7bc c032 023e
000003c0: 8846 0cbe 2209 a1bd c8b0 11bd 315b 9d3d
000003d0: 3f50 123d ac07 b6bb b444 073e df85 aa3c
000003e0: 56f4 ef3d 06f0 b7bd 52aa afbd 6b53 aa39
000003f0: 32b6 803e 98df a63d 14d9 fe3d 2206 373d
0.0294263 0.015854266 -0.016013807 -0.070141226 -0.02798305 -0.10431771 0.025050934 -0.10073712
-0.25757375 0.16179879 -0.0063445675 -0.056030992 -0.0024783488 0.07415847 0.0227409 0.14254308
-0.08683413 -0.019835057 -0.083381906 -0.11773197 -0.07038636 -0.02750195 0.07048457 -0.063674375
0.046125304 -0.08142202 0.04678394 -0.08949847 0.0014776285 -0.29023758 -0.07254411 0.15120916
-0.09048049 -0.0824212 0.15211129 0.07512015 -0.13556613 -0.08680748 0.0062153097 -0.15573859
-0.18235122 -0.0121830655 0.07699178 -0.015201518 0.041295018 0.2348674 -0.04165582 0.055822343
-0.051189702 -0.30266333 0.08905807 0.091301806 -0.03672732 0.21062227 -0.026389748 0.06425875
-0.09714224 0.021848854 0.023071803 -0.20542839 0.057915963 0.11095264 -0.025063878 0.07386925
0.13743421 0.0015180102 0.002358763 -0.04186328 -0.46674272 0.03302847 -0.12737368 0.010445686
-0.0892604 -0.25413322 0.07521178 0.1202478 -0.36439952 -0.016786266 -0.01522258 -0.04765397
-0.11779704 -0.07380714 0.1048803 -0.0016756597 0.035666116 0.08235148 0.0049671247 -0.07674283
-0.058640823 0.1197497 -0.032238472 -0.15409403 -0.11872671 0.04111862 -0.004686796 0.113742806
0.020278797 -0.14401402 0.11246511 0.02734189 -0.06282881 -0.03243459 0.0421437 0.035784073
0.15614042 0.09748213 -0.07075206 0.05207869 0.064832635 0.016181484 -0.11011595 -0.07616396
-0.008260418 0.066484116 -0.026473874 -0.096667215 -0.008364807 -0.17548887 0.06854287 0.040378653
0.0037078874 -0.0629408 0.070726424 0.016426805 -0.0792784 -0.06336418 -0.051872026 0.19178104
0.1736706 -0.28823328 -0.002888606 -0.13823517 0.06259904 -0.017176025 -0.017519295 0.052177932
-0.156759 -0.16652498 -0.030282108 -0.10199645 -0.094077624 -0.16889611 -0.17991069 0.06352255
0.19792937 -0.026806617 -0.13211137 -0.14381425 -0.17438431 -0.042627573 -0.0036537996 -0.12900864
0.016557137 0.064768925 -0.025528425 -0.1194555 -0.015108592 0.15588064 -0.020138208 0.05086241
-0.044245224 -0.018401174 -0.14322457 -0.053170715 0.0508554 -0.06211579 0.17931299 -0.03864756
0.12525798 0.023856686 -0.018884515 -0.008564771 0.034564763 -0.019695709 -0.067381926 -0.17399184
-0.019697879 -0.13190797 0.010084572 -0.16235368 -0.042689756 -0.048381552 0.2352617 0.028298007
-0.030209025 -0.15886343 -0.23636325 -0.074578404 -0.1363203 -0.04488125 -0.15668339 -0.087800846
0.09468573 0.016307844 0.07842107 0.15884852 -0.08442438 -0.12914683 -0.15320767 -0.13231646
-0.080822825 0.003990509 0.013080099 -0.1156614 -0.33119038 0.09422671 -0.17280456 -0.020902282
0.019914635 0.0052196076 -0.013939391 0.17151514 0.02168198 0.056174397 -0.0065727276 -0.050668076
0.04132532 -0.008226741 -0.27876195 -0.06990241 0.011349706 -0.14361148 0.08937643 -0.18634589
0.100863785 -0.052680038 -0.03238762 -0.10439377 -0.005891752 -0.060339898 -0.06739811 -0.11622798
0.15458494 0.044392772 0.07219037 -0.010711893 0.024061294 -0.14345956 -0.026351763 0.12714672
-0.1369878 -0.0786307 -0.035568982 0.07683409 0.03572106 -0.005555114 0.13209802 0.020815788
0.11716525 -0.08981328 -0.08577408 0.00032487078 0.25139004 0.08148116 0.12443748 0.044683583

fc2.bias f4 [150]
00000000: e257 87bc ca06 0fbd f826 0c3e 87b1 92bc
00000010: 6373 023e 962b f7bd 981b 143e 9ff7 38be
00000020: 4f85 d4bd d379 08bd 5958 59bd daca e6bb
00000030: 5e35 2dbe 2dc0 2ebd 35e9 d0bc 0580 d4bd
00000040: 60dc f7bd 67e7 893d 2702 a73d c46c d73c
00000050: 7da4 79bd b824 03bd a6e8 a93d 6dff c5bd
00000060: c9db d03c cff7 52bd acaa 8abd 80cc febd
00000070: f664 ba3d cdd8 483d d4b7 2a3d 71b1 453d
00000080: db32 573e faf7 413d e19f c2bb b871 bfbd
00000090: 110c cf3c cd5c bfbc 8575 473d 59d9 7bbd
000000a0: 94b0 143d 8281 cb3c 72c6 e6bd b6a6 b83d
000000b0: 16b8 e03c 5014 68bd 159c 7cbd 1b18 b6bc
000000c0: b565 5eba c86d a3bd 968d 043d a92f fbbc
000000d0: 16e7 a93c eb14 99bd a432 c63c 66d4 cb3d
000000e0: 92b7 9fbd 8715 93bd b000 8cbd fe9b 15bd
000000f0: e625 babc f645 02be fdf4 21bd 9162 2e3c
00000100: 58e2 9dbc 37f4 a23d a940 07bd 0d69 97bd
00000110: d378 bb3d 1a1a 483d 9cc9 cdbc c50a 903d
00000120: 0a14 d7bd 4687 21bd fb47 77bd 0e5b 87bd
00000130: ebec 98bb f92b 87bd 34fd 7bbd a9ea 29bd
00000140: 3c38 ffbd 081c 7e3c 7ba5 41bd f097 033c
00000150: 7a6f 1cbd 5271 dabd 61bd b8bc e364 d9bd
00000160: 99f2 1bbe 317c ba3c c67e a6bc 7c12 89bd
00000170: 17ca d63d 85a4 7d3c dd1f 8e3c b429 74bd
00000180: bde5 d2bd 1b79 74bd 12c3 39be 8bee 4d3e
00000190: 1053 96bd 040b 10bd c08b 8ebc 93c2 153e
000001a0: fb7f a4bd cfd1 23be c123 053e d632 17bd
000001b0: 4dce 1bbd 995a 993c f317 da3d c4da d63c
000001c0: d871 a8bd 7cc6 133b 52b1 183d 1b0f 1abe
000001d0: 07d7 ba3d 8943 91bd 5656 603d 10a0 c83d
000001e0: 4e56 443d 4772 f03d bd96 dbbc 9c5a 74bd
000001f0: 5c14 45bc 8cd3 f2bd 0eb6 a5bc 59d9 5d3d
00000200: 8b69 e4bd 6f27 1fbe 4b5b 6cbd c7c2 ca3d
00000210: 6fed be3d 327e 843e 1dae 0b3e 46ed 883b
00000220: baab c7bd f568 1dbd a66e 213d 7773 8c3b
00000230: 63b3 4abc d01d 653a b704 b4bd 9980 6ebd
00000240: 8c68 96bb 0323 50bd 4d56 abbd ddb1 8cbd
00000250: ca56 49bc 9173 bcbd
-0.016521398 -0.034918584 0.1368674 -0.017906917 0.12739329 -0.1206886 0.14463651 -0.1806321
-0.10376989 -0.033319306 -0.05306277 -0.0070432248 -0.16914889 -0.04266374 -0.025501827 -0.1037598
-0.1210258 0.067335896 0.081547074 0.02629698 -0.060947884 -0.03201744 0.08296327 -0.09667859
0.025495427 -0.05150586 -0.06770834 -0.12441349 0.09101288 0.049034882 0.04167922 0.048264924
0.21015494 0.04735563 -0.005939469 -0.09347862 0.025274308 -0.02335968 0.04869606 -0.061486576
0.03630121 0.024842028 -0.11268319 0.090161726 0.027431529 -0.056659997 -0.06167229 -0.022228291
-0.00084837835 -0.079799235 0.03236159 -0.030662375 0.020740073 -0.07474693 0.02419407 0.09952621
-0.07798685 -0.071818404 -0.06836069 -0.03652572 -0.02272315 -0.12722 -0.03954028 0.010643617
-0.019272968 0.079567365 -0.03302065 -0.07393084 0.09153905 0.048853017 -0.025120549 0.07033304
-0.10501869 -0.039435647 -0.06037138 -0.06609164 -0.0046669147 -0.06600184 -0.06152077 -0.041483555
-0.12461898 0.015509613 -0.047276955 0.00803183 -0.03819225 -0.106661454 -0.02255124 -0.10614946
-0.15229262 0.022764297 -0.020324122 -0.06692979 0.10487764 0.015481119 0.017349178 -0.059610084
-0.10297725 -0.059685808 -0.1814082 0.20110528 -0.07340062 -0.035166755 -0.017400622 0.14625005
-0.08032223 -0.15998004 0.1300192 -0.036913715 -0.03803854 0.018719958 0.10649099 0.026227362
-0.08224839 0.0022548726 0.03727848 -0.15044825 0.091230445 -0.070929594 0.054769836 0.097961545
0.04793387 0.11740547 -0.026805276 -0.059656724 -0.01202878 -0.118567556 -0.020228412 0.054162357
-0.11152943 -0.15542386 -0.05770425 0.09900432 0.093226306 0.2587753 0.13640638 0.004178676
-0.09749551 -0.038430173 0.039412163 0.0042862254 -0.012371871 0.0008740099 -0.08789962 -0.05822811
-0.0045900997 -0.05081464 -0.0836607 -0.06869862 -0.0122887585 -0.0920173

action_head.weight f4 [6, 150]
00000000: 67e3 693d 406a 97bb f3be f83d ae5b 85be
00000010: 61bb 0a3e ba32 14be 561e 493d 82df 2d3e
00000020: 5f5a dcbc 01a3 90bd b8cf 323c d708 ddbd
00000030: d241 1d3e dbf6 ed3d a263 1b3e d398 a5bd
00000040: b5b3 48bc ebb9 20bd cbb7 55be 6244 eebd
00000050: f18d ccbe 6e2b 10be 61f2 16be d8e2 16bc
00000060: d17d a73d 1e9f 0cbe d1ae 4b3e 96de b9ba
00000070: 2720 66be 9150 cc3d f03e 7bbe c790 dc3d
00000080: bd0f 303d 7868 c53d 9cec 5cbc 9cbd 28bd
00000090: ccf0 343c f62f 693d eadf e43d 3269 61bd
000000a0: bedf d3bd a479 e8bb cf31 2bbe d484 5b3e
000000b0: 9a1c 35bc f2c6 813c ea16 493d b7fc dbbd
000000c0: 4445 02be d7a2 e6ba 180d 223e 9334 a8bd
000000d0: acc2 81bd a757 4e3d 7647 3abe 0079 c03d
000000e0: 5488 5dbe 7cf1 bc3d 66d3 863d 3e76 db3c
000000f0: a246 66be 3517 703e 05b5 a9bd 777b 893d
00000100: 0943 d4bc 2323 7b3e d80a 383d f2c1 fb3d
00000110: 61ce bb3d 3875 023e a53e 08be 5c73 c3bd
00000120: b507 39be 4e5e 793d 9842 8d3c 184c 623d
00000130: c51e adbe 3bf0 4a3b b2af 0ebe c4e5 bb3d
00000140: d1a8 c13d 06e1 00be 07c1 c9bd 6adb 7f3b
00000150: 3e23 bf3d 47db 01be ba59 94bc 5b66 913d
00000160: 5ceb e7bc 640f b83d 28db 88bd 2066 16bc
00000170: 83ed 2a3d 5821 febd 7384 bcbe 79ce 5b3e
00000180: ee21 5dbd afc3 b23d b09f 7ebe 3028 953d
00000190: fa69 a63d f843 2abe a1b4 103e 8986 163e
000001a0: 0504 b5bd 0d8c f43d 3de1 a7ba 4521 60bc
000001b0: 17b1 8c3d 1043 71be 5518 be3d 4050 cabd
000001c0: 1e5a 473d 94d2 003d 69ea e63d b62b 7cbd
000001d0: fdc3 013d 0012 95bd c694 1abe 75ac 763d
000001e0: 72c2 183e fff3 a53e d891 7d3d bd21 babe
000001f0: d511 0bbe 8470 45be f2e9 59be a449 fd3d
00000200: 4161 0cbe 4a63 f2bd a207 0cbe 9acb 25bb
00000210: d061 91ba 68c6 403e edf7 a73d 5128 a1be
00000220: 6919 50bc 4a34 2cbe 85bf 9e3d 3cf9 683e
00000230: 6371 73bb c668 e43c d1bd bfbc 874f 1b3e
00000240: 92bd 9c3c b73f 54be 4e4a 97bb 9ffe 673d
00000250: 8f96 a53c d667 1e3e 9a9b 963b 8b46 953d
00000260: 047d 30be cdfb be3c f396 59be 92d8 2dbe
00000270: 5fc9 94ba 0f22 943d 8e3b 843e cdb0 7b3d
00000280: b942 35bb 5020 d73d 7abb 11be bb8c 3e3e
00000290: 9b62 a33c 908b 373d 45d7 b0bd a963 09be
000002a0: 277c 833d 822c c3bc 9f75 e7bb 00f5 4c3d
000002b0: 29bc ef3d a007 28be 1197 29be 54e8 c33c
000002c0: 30af ecbd 0941 fc3d 563e 7dbb 002a 343e
000002d0: 5018 873d c64f 013d 82b6 32bd e989 533d
000002e0: cfa2 a6be 7c58 8e3d 278b 62bd b2a7 ea3c
000002f0: 9576 34be cb7b 253d aea9 373d 229b 44be
00000300: 8500 d73c 1b0f 3bbe a180 90be 1267 1f3e
00000310: a59f 9ebd eb51 813e dd2b 39be ae2e 70be
00000320: 421c c33d 6149 f43d 8963 743d 4dbd 5e3b
00000330: 4338 213e 93a3 82bd 51ea 423e fc95 44bb
00000340: 67ab 533d 403e d4bc 7b98 b6bc fde4 373d
00000350: 52a8 1e3e 1091 3fbe fff3 edbc 865f 2c3d
00000360: f7b7 3c3d 4584 b03c acde 30be 34dd 83be
00000370: af4e 0f3e d9b4 103e c318 493d 1bde 163e
00000380: 6897 05be 07d5 f03c 3412 c83d 0232 ab3d
00000390: 7c46 613d 6989 3e3d e16f c3bd 40db d0bd
000003a0: 4af2 103e 7675 54bc 33d5 9fbe fb79 143e
000003b0: 0344 94bc 5d7a 783d 0b5b 7abc e372 9f3d
000003c0: 52cb 823d 8e4f b03b b02b 213c d78a 713d
000003d0: e707 b43d cdb0 b5bd 6bf2 223e 6e3b 06bd
000003e0: c32f 6fbd ae81 b7be dbf2 2abd c6c1 043d
000003f0: 9ebb 2f3d 8db3 67bc 48d4 11be 823a 2fbd
0.057101633 -0.0046208203 0.12145796 -0.2604651 0.13548042 -0.14472476 0.049101196 0.16979793
-0.026898561 -0.070623405 0.010913782 -0.10792702 0.1535714 0.116193496 0.15174726 -0.080857895
-0.012249877 -0.039239805 -0.20870893 -0.11634137 -0.39952043 -0.14079067 -0.14740898 -0.009209357
0.081782945 -0.13732573 0.19890906 -0.0014180716 -0.22473203 0.09976304 -0.24535728 0.107698016
0.04298376 0.096390665 -0.013484146 -0.04119645 0.011043739 0.056930505 0.11175521 -0.055031963
-0.1034541 -0.007094579 -0.16718219 0.21437389 -0.011054182 0.015841935 0.04909412 -0.10741561
-0.12721735 -0.0017596137 0.15825307 -0.08213153 -0.06335959 0.05037656 -0.18191323 0.09398079
-0.21634036 0.09225747 0.0658329 0.02678978 -0.22487882 0.23446353 -0.0828648 0.06713002
-0.025910871 0.24525122 0.044932216 0.122928515 0.09170223 0.12740028 -0.13305147 -0.095434874
-0.18069346 0.06088095 0.017243668 0.05524835 -0.33812538 0.0030965942 -0.1393421 0.09174684
0.09456027 -0.1258584 -0.0985127 0.0039040693 0.09332894 -0.12681304 -0.018109191 0.07099601
-0.02831047 0.089873105 -0.06682426 -0.009179622 0.041730415 -0.124087036 -0.368198 0.21465482
-0.053987436 0.0872873 -0.24865603 0.07283056 0.08125682 -0.1662749 0.14131404 0.14699759
-0.08838657 0.11940775 -0.0012808215 -0.013679807 0.06869715 -0.23560739 0.09281985 -0.09878588
0.048669927 0.031450823 0.11275179 -0.061565123 0.03168105 -0.07278824 -0.15095815 0.06022306
0.14917925 0.32412717 0.061906666 -0.36353865 -0.13581021 -0.19281203 -0.2128065 0.123675615
-0.13708974 -0.11835344 -0.13674787 -0.0025298358 -0.0011091772 0.18825686 0.08201585 -0.3147607
-0.012701371 -0.16816822 0.07751373 0.22751325 -0.0037146441 0.027881991 -0.023405941 0.15167056
0.019133363 -0.2072743 -0.004617012 0.05663931 0.020213393 0.15469298 0.004596186 0.07288846
-0.1723519 0.023313427 -0.21248989 -0.16977146 -0.0011351517 0.07233059 0.25826687 0.061447907
-0.0027658178 0.1050421 -0.14231673 0.18608372 0.01994448 0.04481083 -0.086348094 -0.13416924
0.064201646 -0.023824934 -0.007063582 0.050038338 0.117058106 -0.16409159 -0.16561534 0.023914494
-0.11556852 0.12317092 -0.0038641891 0.17594147 0.06596434 0.03157022 -0.043631084 0.051645193
-0.32546088 0.06950471 -0.055308487 0.028644416 -0.1762336 0.04040126 0.044839554 -0.19199803
0.026245365 -0.18267481 -0.28223136 0.15566662 -0.077452935 0.2525781 -0.18083139 -0.23455307
0.09526874 0.119280584 0.059665237 0.0033987344 0.15744118 -0.063788556 0.19034697 -0.0029996624
0.051677134 -0.02590859 -0.022289505 0.044896115 0.15493897 -0.1870768 -0.02904701 0.042083286
0.04607388 0.021547446 -0.17272443 -0.25754702 0.13994859 0.14131488 0.04909588 0.14733164
-0.13046038 0.029398454 0.09769097 0.083591476 0.05499886 0.046517763 -0.095428236 -0.101980686
0.14154926 -0.012967458 -0.31217346 0.14499657 -0.018098837 0.06066357 -0.015280495 0.07785585
0.063864365 0.0053805774 0.009837076 0.0589703 0.0879057 -0.08871613 0.15912788 -0.03277152
-0.05839516 -0.35841125 -0.04173551 0.03241136 0.042903535 -0.014141929 -0.14241135 -0.042780407

action_head.bias f4 [6]
00000000: 169b 943c 15b5 b4bd 4bd8 2b3b 79ef a0bc
00000010: 349f 13bc 831d 9e3c
0.018140357 -0.08823601 0.002622145 -0.01964544 -0.009010125 0.019301182
