text_cnn/param/net_param/la22_critic_net.model (torch, 545175 bytes, 5 tensors)

feature1.0.weight f4 [6, 3, 5, 5]
00000000: 881e 073d 4bd0 383f e4d5 1fbf ce43 d2be
00000010: ac68 96bb 1f37 8fbe 1f34 4a3e f67a ba3e
00000020: d754 82be e0b5 21bf a515 40be 2c2c f03e
00000030: 4f29 03be d797 33bc e0ef 133f c5f0 92be
00000040: a439 8e3d 3dac 403f ce46 18be 8cc3 f63d
00000050: fafc b9be f9f3 373f 8401 ea3e 910b 6cbf
00000060: f447 16bf 0eb4 2dbe 4da6 60be 451c 8f3c
00000070: 58c4 70bd ed2e afbe 6221 4fbd 14f5 6ebd
00000080: eb70 3bbd 2ec1 45ba ecd2 a2bd ffee 83bd
00000090: 1d35 acbd 4a4b 7dbc 9a5d 03bd 8dc9 adbd
000000a0: b98c eabd 53fa c1bd ac00 1ebd c4a7 51bd
000000b0: 8673 25be a97e 23be ca38 99bd 0564 ebbc
000000c0: dad4 efbd b376 59bf 6181 5cbe 8b83 d53e
000000d0: d47b 4a3d 5e48 64bf bb37 bdbe ab0b 97bf
000000e0: 22f7 bf3e f8be b53f 88e2 e3bf 5fa0 a9be
000000f0: 0c04 6abc 767a bd3f 3e87 c13f 14c9 80be
00000100: 583c 353d 2257 6bbf 5b55 703e 8b9e 313f
00000110: fa7a 35be 2582 1f3f 2042 c8bf f723 493e
00000120: 6894 613f 7843 4dbf 5c64 39bf 4620 753b
00000130: a633 993e a3c1 193e 83e3 223f 2b1f f43e
00000140: d70b c03d 3adf 043d 3462 c03e e000 2c3f
00000150: f8c4 913f 11a7 e33d 2fa8 83be 2ed3 ce3d
00000160: cf32 e4bd c26a 5ebe 9236 20bf 29f0 4f3e
00000170: f683 8e3e 73f7 4d3f a376 263f 6fbd 93be
00000180: bd25 c0be 1b55 8b3e 0dc8 5ebe 6fae 02bf
00000190: 6e94 c2bd 5058 12be f266 3dbe f8b6 b8bd
000001a0: acbf 88bc be85 d6bc 3ca8 fbbc 8b57 44bd
000001b0: 181d 5dbd ea84 54bd 0b2e bfbd a10d 7fbc
000001c0: 4812 4e3c 5755 4fbb a0bd 3c3c ebef c4be
000001d0: a128 3ebe f2f5 dabe 7231 29bd 4496 fbbc
000001e0: 94a0 74be 686b 89be 60a0 b6bd b453 5dbd
000001f0: 8b9e 953c dd84 f9bd e5bb 9ebe a55c 3a3d
00000200: 4271 443f 64cd 213f d710 21bf df0f 9ebf
00000210: b3d3 ffbf ed4e 81bf 4be7 fd3d f0fb 9a3e
00000220: 6211 ca3b b5b8 5d3e ec28 693f b924 29be
00000230: cf4a 53bf accc 26bf 8a77 a1bf 8a70 1fbe
00000240: 3fab 333f 7623 b43e 00c1 113f 581b 8e3f
00000250: 7691 8b3f 2e4a a93d 7454 24bf 959f 8dbe
00000260: 0db4 17bf 7752 ecbe e13a 093f 76df 2b3f
00000270: c33e 60bf 72f8 5f3d 50a7 2b3f 7795 9cbd
00000280: 2254 10bf 5ad5 f33e e4c8 d33d 9757 6d3e
00000290: 0cc6 51be b0f7 06bf dc06 4dbf 3f16 28be
000002a0: fda3 ecbe 3191 f7be 0e02 27bf f3fe 533e
000002b0: c1ba db3e 1eb2 95bf 1d9d 95be 5ed4 c9bd
000002c0: 5d46 34be f8db d7bd b9fe d3bd 55c4 07be
000002d0: f92e 41bd c175 9fbd 3d16 58be 61eb ffbd
000002e0: 9eb5 00be 0157 a8bf af9e 0ebf 80ed e2bd
000002f0: 3709 553c 8a40 03bd 3d21 7abf 6532 0ac0
00000300: 8491 d5bd d12e 7dbd ff6b ddbd 3106 a6be
00000310: cb7a f3bd 826c 82bc a459 99bd 6cee 72bd
00000320: 5cc3 dcbe ef94 c33d 3aed d4bf 424c ebbf
00000330: d3c4 14bf 6a23 9b3f 02b0 f9be c1d9 e93e
00000340: b650 9e3f 4b32 be3e a74e b1bf 8f9f 8c3e
00000350: d28a 5f3f 70b4 1e3f 8a93 183e 06f7 96bf
00000360: 3565 4f3f 1c79 a73f de26 4d3e 9151 13bf
00000370: 5ef5 273f d431 893e 63c4 db3e b9f9 47bf
00000380: 5563 b0be 03e4 a83e 54aa 5d3c f6b5 7a3c
00000390: 11d8 7b3e a9fe 1e3f b455 24c0 05fc e2bf
000003a0: 8584 2ebf dc00 51bf 728e 94bd b584 143e
000003b0: 8856 b03e 8c17 233e 657b c7bd 89d4 7f3e
000003c0: 660e 403f 3f3c bf3e 11aa 47bf 8b46 72bf
000003d0: dd37 1d3e 76a3 193f fb36 9ebe 4c38 93bd
000003e0: 1863 88bb b023 213e 4aa5 ab3a 7edd 05bd
000003f0: 7f10 efbc 6a64 e2bb fdc9 13be c50c 43bd
0.0329881 0.7219283 -0.62435746 -0.41067356 -0.0045901146 -0.27971742 0.19746445 0.36421937
-0.25455353 -0.63168144 -0.18758257 0.469087 -0.12808727 -0.010961494 0.57787895 -0.28699318
0.06944588 0.75262815 -0.1487076 0.12049016 -0.36325818 0.7185665 0.4570428 -0.9220515
-0.5870354 -0.16963217 -0.21938439 0.017469535 -0.058780998 -0.3421549 -0.050568946 -0.058339193
-0.045761984 -0.00075437396 -0.079503864 -0.06442069 -0.08408568 -0.015459845 -0.032071687 -0.084857084
-0.11452622 -0.09471574 -0.03857486 -0.051185384 -0.1615735 -0.15966286 -0.07481535 -0.028734216
-0.1171052 -0.84946746 -0.21533729 0.41701922 0.049434498 -0.89172924 -0.3695658 -1.1800436
0.37493235 1.4198904 -1.7803507 -0.33130166 -0.014283191 1.4802997 1.5119398 -0.2515341
0.044247 -0.9192983 0.2347006 0.6938254 -0.17722693 0.6230796 -1.564518 0.19642626
0.88117075 -0.80181074 -0.7241876 0.003740327 0.29922217 0.15015273 0.63628405 0.4768003
0.09377258 0.032439448 0.37574923 0.67188835 1.1388235 0.1111585 -0.2571425 0.10098873
-0.111425035 -0.21720412 -0.6258327 0.20306458 0.27835053 0.804557 0.65024775 -0.28855464
-0.37528792 0.27213368 -0.21756001 -0.51047415 -0.09500967 -0.14291501 -0.18496302 -0.090192735
-0.016692959 -0.02618682 -0.030719869 -0.04793505 -0.053982824 -0.05188457 -0.09334954 -0.015567214
0.012577601 -0.003163656 0.0115198195 -0.38464293 -0.18570186 -0.42765766 -0.04130692 -0.0307113
-0.2388938 -0.26839757 -0.08917308 -0.054034904 0.018264076 -0.12183545 -0.31002727 0.04549851
0.7673532 0.63204026 -0.6291632 -1.2348593 -1.998648 -1.0102211 0.12397631 0.30270338
0.006166623 0.21652491 0.91078067 -0.16517915 -0.82536024 -0.65156054 -1.2614605 -0.15570274
0.70183176 0.35183305 0.5693512 1.1102095 1.0903766 0.08266102 -0.64191365 -0.27660814
-0.5925911 -0.46156666 0.5360547 0.6713785 -0.87595767 0.054680295 0.67052174 -0.07645696
-0.56378376 0.47623712 0.10341051 0.23177944 -0.20485705 -0.5272169 -0.8008859 -0.16414736
-0.46218863 -0.4835296 -0.6523751 0.20702724 0.4291592 -1.1694982 -0.2922143 -0.09854959
-0.17604966 -0.105400026 -0.10351319 -0.13258488 -0.047163937 -0.07786132 -0.21102233 -0.12496067
-0.12569281 -1.3151551 -0.5571088 -0.11080456 0.013002685 -0.03204397 -0.9770697 -2.1593258
-0.104281455 -0.061812226 -0.10811614 -0.324266 -0.11888655 -0.015920881 -0.07487801 -0.059309408
-0.43117797 0.09549891 -1.6634896 -1.8382647 -0.5811283 1.2120183 -0.48767096 0.45673946
1.2368381 0.37147745 -1.3852128 0.27465484 0.873212 0.61994076 0.14900032 -1.1794136
0.81013805 1.3083835 0.20034358 -0.57546335 0.65608776 0.26795828 0.4292327 -0.7811542
-0.34450784 0.3298646 0.013529379 0.015302172 0.24594142 0.6210733 -2.567731 -1.773316
-0.6817096 -0.81641936 -0.07253732 0.14503749 0.34441018 0.15926951 -0.097403325 0.2498342
0.7502197 0.37350652 -0.77993876 -0.9463889 0.15353341 0.60015047 -0.30901322 -0.07188472
-0.0041622035 0.1573627 0.0013095525 -0.032681935 -0.02918267 -0.006908943 -0.14432521 -0.0476196

feature1.0.bias f4 [6]
00000000: d022 9dbe f6a5 0dbe fbc9 293e 54d5 d23e
00000010: 0bf4 a1bd 4d3e 933e
-0.30690622 -0.1383284 0.16580956 0.4117838 -0.079078756 0.2875847

fc2.weight f4 [150, 900]
00000000: ffa9 26bd 88f1 ddbc 5994 70bc 0e4b 4c3c
00000010: 19ff aebc bf84 ffbb eb1f 9bbc 1537 06bd
00000020: c35a ddbb 5852 073b f727 34bc b578 2bbd
00000030: 6bce 513a 1b2b 40bd 945f fdbc c27f fdbc
00000040: 28db c93a 0da3 eabc 807e d1bc e9da 073c
00000050: 3f09 37bd 9d39 b0bc d266 203c 0376 1fbd
00000060: 7e1e c9bc a5f7 373c 4a51 36bd 0a77 333c
00000070: a953 64bc b355 173b f219 12bc 2811 e4bc
00000080: 23dd 1abd 020f 0dbc a6c4 b13b 94d9 37bd
00000090: 7941 dabc 71a1 0ebd 08ef 3dbd f3ff 4a3c
000000a0: 7ede 9c3b f896 02bd 3f96 21bd b9bd 41bd
000000b0: ff1e 42bd a22f 473c 99a6 bbbb 6b09 7abc
000000c0: 1967 dcbc fe8d 06bd e7b7 bc3a b92c 013c
000000d0: ade3 b4bc d22d 523c 868a 0cbd f8dc 163c
000000e0: f9d9 2a3c cc97 98bc c145 4a3c 45f4 33bc
000000f0: ee7c 88bc fc71 01bc edc7 b8bb 3df2 683b
00000100: 3ee7 76ba 59ae 163c dbb3 40bb e53a 9d3b
00000110: 0137 c73b c706 d6bc 9477 efbc 7171 2fbd
00000120: f3a5 5c3b 9677 73bc d498 3abd e7a2 0bbd
00000130: 7598 c7ba c5e6 0bbd bf88 4abd 2017 39bd
00000140: fde6 4b3c 521c 02bd 4082 5bbc 6081 8dbc
00000150: fe25 23bd 507e eb39 bbfe d23a be50 52bb
00000160: bf52 ac39 2721 19bd 5997 2e3c cd31 3ebc
00000170: 6de2 06bd dc33 07bc 5ea9 e4bc 620a 0dbd
00000180: cf9b efbc 441e 293b 13d4 43bd 8c7b b7bc
00000190: 1e07 9fbb 92d7 d6bc c5ce 51bc 16ca cabc
000001a0: c317 48bd 6d8e d3bb 4dfe 983b 50ea 51bd
000001b0: 7fec 5e3c f5b8 eebb a68a 273c 75a1 d8bb
000001c0: 33ed 02bd 0541 11bd a52a 3ebd d691 a03b
000001d0: 02e8 d33a c451 06bd 061f 3ebd d8b3 2fbd
000001e0: e719 4dbd 0ea9 c13b 1215 133c 7869 14bd
000001f0: e33a 90bc 5c77 44bd 9022 a7bc 681f 15bd
00000200: 9c0e 2bbd 51ee aabb 0985 8638 1d7f c9b9
00000210: b7f1 1dbd 8955 34bb 2b81 1fbd 4453 653c
00000220: 5083 11bd c03a d3bc d12d f2ba 480a db3b
00000230: 6a9a 19bc 438c 50bd bc36 74bc ec0e e1bc
00000240: c3fa 0fbd 9e95 e23b 04de 2bbd fde0 c4bb
00000250: 56a7 b1bc 360d 12bc 24fe a63b 9467 f9bc
00000260: bb72 5f3c 0fe6 0abc 67d2 c0bb 2c45 9b3b
00000270: d095 8ebc 28a0 2ebd 6da5 a93b 7bbc efbc
00000280: 14b1 443c 6549 3fbd 1283 1e3c bd2d 963b
00000290: 3e37 333b 71bf 0fbd 8af3 9dbb a769 cabc
000002a0: a194 b3bc 5203 5cbb a183 eebc b448 2bbd
000002b0: 1be7 cb3b 19f9 f3bc 77e6 053c be88 43ba
000002c0: 967b 323c ee13 653c 88f3 003c bab6 08bd
000002d0: e9bb 4abd 3938 19bd c797 a2ba e28b 14bd
000002e0: 1f46 2cbd ccb6 f3bc ffd0 a93b f0af 07bd
000002f0: 8780 b4ba 5d19 31bd 3427 d33b 4bb2 943b
00000300: 786f 2bbd 6b4f 2cbd 3d30 aebc 4e96 9dbb
00000310: fafe 8bbc bfa8 943b 3f2a 343c 547b bebc
00000320: dbca 0fbd ae1c 0cbc ad72 f53b 6a14 3abd
00000330: 48a6 6fbc b4c9 56bc 4767 9b3b 84d8 24bd
00000340: d6ad 23bd 3e53 d7bb 1fd3 73bc eefc 3fbc
00000350: f0a4 603c 73c1 93bc b280 bfba aaf1 1c3c
00000360: aad0 af3b 1978 4fbd 41cb 4cbd cf55 69bb
00000370: 8453 70bc 2fe1 afbc f22d 25bd f23d 3fbd
00000380: af8b 0bbc f7ca c8bb c8ce 58bc 65d1 c33b
00000390: 43f0 4bbd 11d0 c6bc bd59 643b ffe6 4c3c
000003a0: d93b a1bc 8b9a 4abd 89c7 6a3c 3589 42bc
000003b0: 2396 eebc 06ba cdbc 1c97 1dbd 7f96 5fbc
000003c0: 0d78 3ebb a670 f03b b721 ddbc f07d 0dbc
000003d0: 791c 463c 126f 4abd a0dc a9bc 86a5 19bc
000003e0: 9c43 2fbd 91ca 53bc 3b73 483b 9112 623c
000003f0: b5cd 11bd be4a 223c 9f0c 3e3b 50d0 f0bc
-0.040689465 -0.02709271 -0.014683806 0.012469066 -0.021361874 -0.007797807 -0.018936118 -0.032767374
-0.0067552044 0.0020648446 -0.0109958565 -0.041863162 0.0008003476 -0.04691611 -0.030929364 -0.030944709
0.0015400397 -0.028642202 -0.025573015 0.008291938 -0.044686552 -0.021511847 0.009790139 -0.038930904
-0.024550673 0.011228477 -0.044511117 0.010953674 -0.013935962 0.0023091852 -0.008917319 -0.027840212
-0.03780855 -0.008609535 0.0054250536 -0.044885233 -0.026642548 -0.03482193 -0.046370536 0.012390125
0.0047872653 -0.031882256 -0.039449926 -0.047300074 -0.04739284 0.012157353 -0.005726647 -0.0152610345
-0.02690463 -0.032850258 0.0014398069 0.007884198 -0.02208122 0.012828307 -0.034311794 0.0092079565
0.010427945 -0.01862707 0.012345732 -0.010983531 -0.016661134 -0.007900711 -0.0056390674 0.0035544776
-0.0009418613 0.009196841 -0.0029404077 0.0047982805 0.006079555 -0.026126279 -0.029231824 -0.042832796
0.003366825 -0.0148600545 -0.045555905 -0.034090903 -0.0015227931 -0.034155626 -0.049446817 -0.04518807
0.012445209 -0.03176529 -0.013397753 -0.017273605 -0.039831154 0.00044916803 0.0016097644 -0.0032091583
0.00032868047 -0.037385132 0.010656201 -0.011608553 -0.03293078 -0.00825211 -0.027912792 -0.03443373
-0.0292491 0.0025805393 -0.04780967 -0.022397779 -0.0048531434 -0.026225839 -0.012805645 -0.024754565
-0.048850786 -0.0064561875 0.004668987 -0.05124885 0.01360619 -0.007285232 0.010225927 -0.006611044
-0.031964492 -0.035462398 -0.046427388 0.0049001975 0.0016167166 -0.03279282 -0.046416305 -0.04289612
-0.05007353 0.0059100455 0.0089771915 -0.036233395 -0.017606204 -0.047965392 -0.020402223 -0.036406904
-0.04176198 -0.005216398 6.414398e-05 -0.00038432414 -0.038560595 -0.0027516803 -0.038941544 0.013996903
-0.03552562 -0.02578485 -0.0018476789 0.006684575 -0.009375194 -0.050915014 -0.014905628 -0.027472936
-0.035151254 0.0069148084 -0.041959777 -0.006008266 -0.021686237 -0.008914283 0.005096214 -0.030444898
0.013638194 -0.008477702 -0.005884457 0.0047384705 -0.01740542 -0.042633206 0.005177191 -0.02926468
0.012005109 -0.046700854 0.009674804 0.004583089 0.002734616 -0.035094682 -0.004820292 -0.024708582
-0.021921458 -0.0033571315 -0.0291155 -0.041817382 0.0062226183 -0.029781865 0.008172623 -0.0007459036
0.010893723 0.013981802 0.007870562 -0.033377387 -0.04949561 -0.037407134 -0.0012404852 -0.036266215
-0.04205906 -0.02975025 0.005182385 -0.03312677 -0.0013771214 -0.04323708 0.0064438824 0.0045378557
-0.04185435 -0.042067926 -0.021263236 -0.0048091775 -0.017089356 0.0045367177 0.0109964 -0.023252167
-0.035105567 -0.00855176 0.007490477 -0.045429625 -0.014627047 -0.013109613 0.004742536 -0.040245548
-0.039960705 -0.0065712025 -0.014881878 -0.011718018 0.013711199 -0.01803658 -0.0014610498 0.009579102
0.005365451 -0.050651643 -0.049998526 -0.0035604124 -0.014668349 -0.02146968 -0.04032702 -0.046689935
-0.00851719 -0.006127711 -0.013232894 0.0059758895 -0.04978968 -0.024269136 0.0034843527 0.012506246
-0.019681858 -0.04946379 0.014329799 -0.011873533 -0.029124325 -0.025113117 -0.038474187 -0.013646721
-0.0029063255 0.0073376475 -0.026993616 -0.008635983 0.012091749 -0.04942233 -0.020735085 -0.009377843
-0.042789087 -0.012926714 0.003058626 0.013798372 -0.03559657 0.009905515 0.0028999222 -0.029396206

fc2.bias f4 [150]
00000000: 38e5 c33b e1cc 18bc a066 213e e9e4 6f3f
00000010: c464 233c 073d 12be 6793 5a3f 8dfa 42bd
00000020: d9b2 4b3f 00f9 0bbc 27a8 62bb 34e9 973e
00000030: c24e e93d 37d0 f6bc 80c0 4dbc 5010 14bd
00000040: 8ed2 5cbb a009 46bc 0fcd 5b3f d02d 7ebc
00000050: 20d6 153e 248d 4fbd d138 313c b3e0 8f3e
00000060: 11a8 813e faf7 2d3f 7ec5 acbc 9d93 c93e
00000070: acc4 45bc 43ee c53d 06b9 e6bc 4fc6 943d
00000080: c5f6 b4bb b973 be3e ac59 62bc 2ef3 993e
00000090: 5130 293e 6379 e13e 4680 17bc 91f5 babc
000000a0: af5e 11bd 793c 2d3f 8f88 01bd 16e7 74be
000000b0: ccf5 45bd f1cd 393f f533 183e aee2 e13c
000000c0: 83a2 b93e bead 7fbc f0d4 a03e 2d00 953e
000000d0: 46a2 c8bc 2408 dbbc 1853 8d3b f000 e5bc
000000e0: 7494 633c 1977 153c 9577 8f3e 876c 04bd
000000f0: 861e 3dbd 714f 37bd 3fa5 3fbd a60f 0b3f
00000100: 4524 30bd 82bc 00bd c900 c13e 1530 963e
00000110: b0e1 723e 9b19 86bc 054c 253f b950 22bd
00000120: 8470 563e 8f0a 4e3c 94c3 1bbd 4974 ad3e
00000130: d1cc 363f 5abd b8bc 0af0 2e3c 896b db3a
00000140: 658c 2c3c 97f0 183b 4c47 933e 14fc 4cbd
00000150: 1227 3f3e 7793 17bd 1b89 eb3a 177d 7dbc
00000160: 75e6 1b3e f3f3 65bc c512 c8b9 2518 2cbc
00000170: c02c b43b 1499 0abc 0f8d 8c3b 3be2 c53b
00000180: be8d c7bc 9eef a63e 2ed3 8cbb 68ac 37bd
00000190: e42e 683e b34c 53bd d028 c6bb ac15 4cbd
000001a0: f73f 283f 9877 9dbb 3d3d a93e f9f4 2bbc
000001b0: 067d 1f3b 3212 003c 5799 8ebc 6e68 f23d
000001c0: 3ca1 c6ba b2e9 4a3c 69f9 863e 693a 543e
000001d0: 8a10 843e 17ff 3ebd 22a1 ba3e accd 223e
000001e0: a5cb 063f 1897 ef3b 7bf1 4ebc 59b1 713f
000001f0: 254b 98bc 1f90 813e 9160 0abc 607b 2abc
00000200: 1fa3 703f c1c9 2f3c cc50 2a3e 1fcb 24bd
00000210: 4b8a 1b3f d8fb d33e d69e 3c3e f386 0bbb
00000220: 0037 d2bc 5985 bdbc 2c8c 97bb f99c 45bd
00000230: 7de2 f23d f921 263b bf30 3d3e 4e6c 3d3f
00000240: a55b 183e c894 cf3a d267 553e b258 adbd
00000250: 81ec ac39 0133 893e
0.0059782527 -0.009326191 0.15761805 0.93708664 0.009972755 -0.14281093 0.8538117 -0.047602225
0.79569775 -0.008543253 -0.003458509 0.29670107 0.11391975 -0.030128581 -0.012558103 -0.03614837
-0.0033694836 -0.012087256 0.8585977 -0.015513852 0.14632463 -0.05067171 0.010816769 0.2810112
0.25323537 0.6795651 -0.021090265 0.39370432 -0.012070816 0.096645854 -0.028164398 0.07264387
-0.0055225813 0.37197664 -0.013815325 0.30068344 0.16522337 0.44037923 -0.009246891 -0.022822173
-0.035490688 0.676704 -0.031624373 -0.23916277 -0.048330113 0.72579867 0.1486357 0.02757391
0.362568 -0.015605388 0.31412458 0.29101697 -0.02449144 -0.02673728 0.004312884 -0.027954549
0.013890374 0.009122633 0.2802092 -0.032330062 -0.046171688 -0.044753496 -0.04678845 0.5432075
-0.04300334 -0.031429775 0.37695912 0.2933356 0.23718905 -0.016369632 0.6456912 -0.039627764
0.20941359 0.01257576 -0.038028315 0.3387778 0.71406275 -0.022551227 0.010677347 0.0016740422
0.01053152 0.0023336762 0.28765333 -0.050045088 0.18667248 -0.037005868 0.0017969938 -0.015471718
0.15224631 -0.014035213 -0.00038160957 -0.010503803 0.0054984987 -0.008459348 0.0042892764 0.0060389317
-0.02435958 0.32604688 -0.0042976355 -0.044842154 0.22674137 -0.051586818 -0.0060473457 -0.049825355
0.657226 -0.0048055165 0.33054534 -0.010495418 0.0024335994 0.007816838 -0.017407103 0.11836325
-0.0015154253 0.012384819 0.2636216 0.20725407 0.25793868 -0.04662999 0.3645106 0.1589877
0.52654487 0.007311713 -0.012630816 0.94411236 -0.01859052 0.25305268 -0.008445875 -0.010405391
0.93998903 0.010729254 0.16632384 -0.040232774 0.60757893 0.4140308 0.18419966 -0.0021290153
-0.025660992 -0.023134874 -0.004624864 -0.048245404 0.118596055 0.002534984 0.18475626 0.73993385
0.1487871 0.0015837187 0.20840386 -0.08464183 0.00032982606 0.26796725

state_value.weight f4 [1, 150]
00000000: 0d2f 0cbb f7c0 7e3d 6a18 69be 31be f2bd
00000010: 91a3 803d dffa 2e3e 7f7f 78bd 6362 313d
00000020: cf6a 4ebd f073 403d 5798 5b3d 7ba4 99be
00000030: 710a d0be 024d e3bb 5c56 ff3c 1ffd d23c
00000040: 4f66 ad3b 269f c43b a695 b9bd fbe0 913c
00000050: 3abd bdbe 4a50 6c3d 84c9 813d fb16 10bc
00000060: d88d 0d3e 8f79 eebd a982 5abb 0959 58be
00000070: cbc1 e03c fe99 94be 732c cf3c bda0 fa3e
00000080: 67ad 4c3c 2897 c33d 25f9 82bc 1993 2fbd
00000090: a4b6 43be d8b7 42bd 289d b13c 5bad 963c
000000a0: 76ee 5a3c 1b14 1ebc ac90 21bc dee5 f93e
000000b0: 9d69 5bbc 7ce6 41bd 3a08 1dbd 1256 763e
000000c0: e372 8ebe ceb4 e5bb 5ca8 8ebe 90ff 51be
000000d0: bfd8 5e3d b346 0d3c 0b5e 4c3d dc9c b73c
000000e0: b777 4d3d 4d1e b33c 3bbe 893d 7c3a 7e3d
000000f0: 7466 683c c648 3c3d 1091 033d 0474 74be
00000100: c9e1 47bc 0e70 293d bc56 78be b9fa 30ba
00000110: ee80 01be 7032 d438 90ab c13b 04e7 cc3c
00000120: 924b bfbe 13c8 1dbc 9061 48bb b8c1 86bd
00000130: 66f3 5ebe 4c8f 963c 313b 603c 7c76 46ba
00000140: 062d 173d feb0 ef3c 2e45 92be 5015 7d3d
00000150: 19c0 47be 36fd 6a3d 1ef2 70bc 148b 403d
00000160: d3ed 02be 2c6e 70bc fbd6 f4bb 365c aebd
00000170: 029a 36bc 2702 043d 0a6a 153d 8b26 193d
00000180: 1385 083c 9e05 3bbe 7c6c 333d f625 ba3b
00000190: f824 ec3d e767 bc3b 99e1 adbb fbbd 1d3d
000001a0: ce81 80be ab3d 563d 832b 04bf 41ca 393d
000001b0: 383b ab3c 42bd 5a3d 931a a1ba c868 143e
000001c0: acf7 563d 15fd b03c 7841 09bf 4eec 95be
000001d0: 9c1c b7be fd8a 6d3c 1eb8 eebd 55fe de3d
000001e0: 39b0 16be 14a0 c53c 325f 12bc 70d4 d6bd
000001f0: ae73 463c eb29 b3bd 8ef0 753d 46ea 7b3d
00000200: 34a4 cbbd 222c b93c 173f 48be 4215 93bb
00000210: 6995 bebd 5cb6 3dbe 2e74 2cbe 2f11 7e3d
00000220: 8f40 e73c 88c6 9d3c 2c5c 8bbc 0e5d 4f3d
00000230: eb0c 523e 23ca ee3b 4733 3abe a4bf 1fbe
00000240: e33c 36be 271f 553c a2ec 6f3b fa2e b4be
00000250: 0c74 06bc ed59 3cbe
-0.002139035 0.062195744 -0.2276322 -0.118526824 0.06281198 0.17087887 -0.060668465 0.04330672
-0.05039483 0.046985567 0.05361208 -0.300083 -0.40632966 -0.0069366703 0.031169109 0.025755463
0.005291737 0.0060004173 -0.09061746 0.017807474 -0.3705843 0.057693757 0.06337264 -0.0087945415
0.1382364 -0.11644279 -0.003334204 -0.21127714 0.027436158 -0.29023737 0.02528975 0.4895076
0.012492514 0.09550315 -0.015987942 -0.042864893 -0.1911264 -0.04753861 0.021681383 0.01839321
0.013362518 -0.009648348 -0.009861153 0.48808187 -0.013391879 -0.047338948 -0.038337924 0.2405627
-0.27822027 -0.007010079 -0.27862823 -0.20507646 0.054405924 0.008622813 0.049894374 0.022413664
0.050162997 0.021865034 0.06725737 0.062067494 0.014184583 0.04596784 0.032120764 -0.23872381
-0.0121998275 0.04136663 -0.24251837 -0.0006751228 -0.12646839 0.000101183425 0.0059103444 0.0250125
-0.37362343 -0.009630221 -0.003057573 -0.06579918 -0.21772537 0.018378876 0.013685987 -0.0007570756
0.036908172 0.029259201 -0.28568405 0.061787903 -0.19506873 0.057370387 -0.014706163 0.047007635
-0.12786035 -0.0146747045 -0.0074719167 -0.085136816 -0.011145117 0.032228615 0.03647808 0.037390273
0.008332509 -0.18263862 0.04380463 0.005680795 0.11530489 0.005749691 -0.0053064344 0.038511258
-0.25099033 0.052304905 -0.51628894 0.0453589 0.020902261 0.053403147 -0.0012291245 0.14493096
0.052482292 0.021605054 -0.5361552 -0.2928185 -0.35764015 0.014498469 -0.11656211 0.10888354
-0.14715661 0.024124183 -0.008933829 -0.10489738 0.012112541 -0.087482296 0.060043864 0.061502717
-0.09943429 0.022604052 -0.19555317 -0.004488618 -0.093058415 -0.18526596 -0.16841194 0.062028106
0.028229026 0.019259706 -0.017011724 0.050625853 0.2051274 0.00728728 -0.18183623 -0.15600449
-0.17796664 0.013007916 0.003660955 -0.3519209 -0.008206379 -0.18393679
