text_cnn/param/net_param/la23_actor_net.model (torch, 548183 bytes, 6 tensors)

feature1.0.weight f4 [6, 3, 5, 5]
-0.21143933 -0.00504942 0.010650925 0.06537439 0.023375515 -0.103805415 0.07170924 0.11697883
-0.027809273 -0.042332564 -0.1043215 0.044425543 -0.13583015 0.06870279 -0.04858602 0.0733949
-0.02138601 -0.018627062 -0.13992932 0.026552008 -0.061992165 0.0107794115 -0.112696104 -0.07694384
-0.07969978 0.042004813 -0.19124067 -0.16184546 -0.0760906 -0.023827484 0.018828588 0.021601606
0.022006232 -0.10485139 -0.19661959 0.027589789 0.054584682 0.029388767 0.063604504 0.11876418
-0.10084829 -0.07069097 -0.15468752 -0.0066272765 0.14391664 0.0009034344 0.056428134 -0.1800971
-0.16801393 -0.2194179 -0.13564074 -0.13324541 0.032759033 0.049485844 -0.053689446 -0.102909274
-0.045304094 -0.04005595 -0.03664192 -0.004605517 -0.021985631 -0.014114709 0.04661895 0.041880563
0.07972119 0.048281215 -0.005255021 -0.07481898 -0.124529324 -0.116657 -0.16568242 -0.05349534
-0.1323816 0.056930356 -0.14013118 0.024477154 0.05550419 0.17333047 0.01685962 -0.18322428
0.10338822 0.08441059 -0.10979296 -0.048994694 0.005506035 -0.023571635 0.13661511 -0.07596993
-0.1595776 -0.095794365 0.11242355 -0.048894696 0.031665612 0.05306859 -0.14613047 0.0037736935
0.04045582 -0.12827702 -0.06304526 -0.117825955 0.07890589 -0.14053674 -0.05319233 0.07576479
-0.052979566 0.0033060363 -0.18503425 -0.12414202 -0.009093842 -0.08975578 -0.08866666 -0.07848817
0.13033623 -0.11244701 0.037561126 -0.17598534 -0.23113757 -0.16561408 0.049963027 -0.069820076
0.034809887 -0.26534045 -0.15041406 -0.27678725 0.02023599 0.08573445 0.086061575 0.08011386
0.037100118 -0.047218576 0.010623548 0.12115481 0.17207152 0.060036976 -0.0082163755 0.061811227
0.14966393 0.1650481 0.022164918 -0.15567838 0.18011126 0.033659007 0.097621046 -0.07377718
-0.14250931 0.1141773 0.15080619 0.16552962 -0.09378982 -0.0155997025 0.029489106 0.052542895
-0.23438807 0.011347249 -0.0490568 -0.050441194 -0.16265357 0.020738536 0.026841298 0.0369265
-0.1070893 -0.08689849 -0.15674834 -0.10095276 0.059452735 -0.1336421 -0.05566564 -0.20205823
-0.054281607 0.10674691 -0.020425027 -0.08082231 -0.1825686 0.07380235 0.09685713 0.038900394
0.003577 -0.096187174 -0.047757324 0.035042387 -0.16804163 -0.23723662 0.003909973 -0.002253184
0.11457631 0.009554542 -0.1923255 0.061505973 0.050324187 -0.24619375 0.033301882 0.038695995
0.022944095 -0.14808428 0.12573436 -0.07307698 0.042113736 -0.022724649 -0.31978655 -0.03410888
-0.0667384 0.055582087 0.042132203 -0.12421476 -0.07480157 -0.009228218 0.047361586 -0.023107175
-0.105693914 0.01595819 0.07448197 -0.0938652 0.07563263 -0.0007548025 -0.1184228 -0.07880806
0.06395403 0.031177016 -0.1065757 0.14784054 -0.07248512 0.01937369 -0.104239054 -0.006258524
-0.01441706 0.033021506 -0.05891938 0.0054939208 -0.17037053 -0.038524464 0.019313259 0.00015325277
-0.05029653 -0.03900215 -0.13089494 -0.09845238 -0.07764335 -0.110570155 0.004128766 -0.16439913
-0.070444174 0.045973223 -0.106875196 0.025865475 -0.11063917 -0.028437126 -0.06626159 -0.17885698
-0.17183453 0.068557 -0.06966099 -0.100577846 0.110073276 0.078268036 0.058609538 0.04865489
00000000: 8d83 58be 9b75 a5bb 3881 2e3c 02e3 853d
00000010: 027e bf3c ef97 d4bd 4bdc 923d 9992 ef3d
00000020: 46d0 e3bc e964 2dbd 83a6 d5bd 8ff7 353d
00000030: 0f17 0bbe 0cb4 8c3d 2202 47bd 1150 963d
00000040: b731 afbc c897 98bc a249 0fbe 9983 d93c
00000050: 7feb 7dbd 219c 303c 37cd e6bd bb94 9dbd
00000060: a339 a3bd 3d0d 2c3d 98d4 43be d1ba 25be
00000070: 63d5 9bbd db31 c3bc 693e 9a3c daf5 b03c
00000080: 6a46 b43c 53bc d6bd a556 49be fb03 e23c
00000090: 3094 5f3d b6c0 f03c 1443 823d a23a f33d
000000a0: 8c89 cebd 6dc6 90bd 6866 1ebe a029 d9bb
000000b0: e25e 133e 75d4 6c3a 3021 673d 606b 38be
000000c0: d80b 2cbe 16af 60be 68e5 0abe 7c71 08be
000000d0: 562e 063d abb1 4a3d 77e9 5bbd 19c2 d2bd
000000e0: c990 39bd b511 24bd d715 16bd e0e9 96bb
000000f0: 361b b4bc 6141 67bc 83f3 3e3d f48a 2b3d
00000100: dd44 a33d 86c2 453d 5032 acbb b23a 99bd
00000110: 3b09 ffbd dde9 eebd a7a8 29be ee1d 5bbd
00000120: 0b8f 07be ce2f 693d 8c7e 0fbe 5084 c83c
00000130: 5d58 633d 8b7d 313e 301d 8a3c 259f 3bbe
00000140: 34bd d33d 76df ac3d 22db e0bd a9ae 48bd
00000150: f86b b43b 4d19 c1bc d5e4 0b3e 1f96 9bbd
00000160: 4f68 23be d62f c4bd 513e e63d ce45 48bd
00000170: cdb3 013d 735e 593d 3aa3 15be 1250 773b
00000180: 00b5 253d 0d5b 03be e01d 81bd bc4e f1bd
00000190: 6999 a13d dde8 0fbe 33e0 59bd 922a 9b3d
000001a0: 1a01 59bd 16aa 583b 9e79 3dbe 2c3e febd
000001b0: 56fe 14bc e1d1 b7bd de96 b5bd 68be a0bd
000001c0: dc76 053e 9e4a e6bd b2d9 193d 8035 34be
000001d0: 54af 6cbe bd96 29be 08a6 4c3d d4fd 8ebd
000001e0: d094 0e3d b4da 87be 2506 1abe 0fb7 8dbe
000001f0: f2c5 a53c 8b95 af3d 0d41 b03d bc12 a43d
00000200: 4bf6 173d 4468 41bd 640e 2e3c 0320 f83d
00000210: 8433 303e 55e9 753d fa9d 06bc c52d 7d3d
00000220: 8041 193e 5e02 293e 3493 b53c 276a 1fbe
00000230: 166f 383e 07de 093d 8bed c73d 7d18 97bd
00000240: f6ed 11be cad5 e93d f06c 1a3e 9980 293e
00000250: e114 c0bd e595 7fbc 2393 f13c 3837 573d
00000260: 6d03 70be d0e9 393c c8ef 48bd 6d9b 4ebd
00000270: a88e 26be dde3 a93c 48e2 db3c 3e40 173d
00000280: a351 dbbd d6f7 b1bd a382 20be 52c0 cebd
00000290: b684 733d 7ad9 08be a701 64bd 5ae8 4ebe
000002a0: 6456 5ebd 209e da3d 6352 a7bc 2b86 a5bd
000002b0: 43f3 3abe b025 973d 085d c63d 0556 1f3d
000002c0: 1a6c 6a3b c8fd c4bd 2f9d 43bd 9b88 0f3d
000002d0: 1b13 2cbe 28ee 72be 3b1f 803b 28aa 13bb
000002e0: fca6 ea3d a78a 1c3c faf0 44be b0ed 7b3d
000002f0: bc20 4e3d 371a 7cbe 8e67 083d b17f 1e3d
00000300: 41f5 bb3c 68a3 17be 82c0 003e 62a9 95bd
00000310: 747f 2c3d 0b29 babc 10bb a3be c1b5 0bbd
00000320: 24ae 88bd 0baa 633d d192 2c3d 4f64 febd
00000330: 9131 99bd f431 17bc 39fe 413d 424b bdbc
00000340: 0d76 d8bd c0ba 823c 018a 983d 663c c0bd
00000350: 48e5 9a3d f0dd 45ba a787 f2bd 1f66 a1bd
00000360: 55fa 823d f166 ff3c 5c44 dabd 8363 173e
00000370: 1473 94bd 93b5 9e3c 497b d5bd 4e14 cdbb
00000380: 8835 6cbc 8f41 073d 7355 71bd 5906 b43b
00000390: 9d75 2ebe d4cb 1dbd d736 9e3c 7ab2 2039
000003a0: bc03 4ebd b8c0 1fbd 5309 06be 67a1 c9bd
000003b0: 7a03 9fbd 9b72 e2bd 994a 873b 3f58 28be
000003c0: 0945 90bd 6b4e 3c3d 62e1 dabd d5e3 d33c
000003d0: ca96 e2bd faf4 e8bc 28b4 87bd 4926 37be
000003e0: 64f5 2fbe 9d67 8c3d 6caa 8ebd c2fb cdbd
000003f0: 196e e13d fe4a a03d 8e10 703d 5a4a 473d

feature1.0.bias f4 [6]
-0.032821216 0.15198529 -0.1765686 -0.13610364 0.11443748 -0.010738245
00000000: 8a6f 06bd 08a2 1b3e 66ce 34be c15e 0bbe
00000010: 335e ea3d 77ef 2fbc

fc2.weight f4 [150, 900]
0.027086917 0.056480996 0.053828474 0.046360165 -0.054906964 0.06968958 -0.033043116 -0.0680316
0.03624599 -0.031578552 -0.008415648 0.0451014 0.0060840705 -0.044411596 0.028621264 -0.00036008327
-0.0903492 -0.021335142 -0.03676689 -0.02065474 -0.09010919 -0.041631326 -0.047635235 -0.021192936
-0.014638236 -0.01855709 0.067940615 -0.0068830852 0.027207188 0.028278042 -0.034835078 0.10791535
0.043885242 -0.07013042 -0.030653046 -0.11431078 0.046032477 -0.031088803 -0.009679642 0.0026025493
-0.012509861 0.0744533 0.11115532 0.02303984 -0.04263189 -0.08208525 0.03930181 -0.04855574
-0.073826246 0.01913404 -0.08284327 -0.0036102408 0.076721594 -0.09139839 -0.07163893 0.06786851
0.049053505 0.0626643 -0.09241143 -0.033099227 -0.0027587651 -0.03219532 0.024222929 -0.02594956
-0.08880905 -0.04221523 -0.0015806528 0.0297872 0.014912826 0.016827255 -0.06848904 0.07686118
0.06879562 0.021471428 -0.043522436 -0.056919362 -0.020265495 -0.04085981 0.00704129 0.0009740488
0.09380137 0.041443504 -0.01180953 -0.009237095 -0.028358104 -0.04758802 -0.05382339 -0.0066795433
-0.12105362 -0.038012415 0.02558075 -0.05940577 0.040119417 0.025062094 -0.033019375 0.004875408
-0.0978865 0.018829733 0.0069121593 -0.06517162 -0.10099701 0.03003555 0.019474836 -0.07982016
-0.002552269 -0.016845068 -0.035847448 0.03893464 -0.0534948 -0.046925463 -0.072978586 -0.030901054
-0.012562429 -0.09548371 -0.025886524 -0.073786095 -0.06141617 -0.0036486902 0.055799894 -0.04912927
0.015860267 -0.122308925 0.050731964 -0.0134220645 0.003308538 -0.13223636 -0.061266508 -0.086183734
-0.06241955 -0.011489899 -0.012688843 -0.011670656 0.0015543917 -0.016067993 0.006416892 -0.032550957
0.02681163 -0.061087083 -0.029827124 -0.050500486 -0.054231904 -0.017845284 -0.06965651 -0.095210455
0.012557325 -0.06991579 -0.057279095 -0.062010765 -0.012661694 -0.018761668 0.06280216 0.003259833
0.009742272 -0.09075522 0.082482494 -0.060184408 -0.08769292 -0.01015581 -0.1067341 -0.011631166
0.027041342 0.06747811 0.09667243 0.03381336 -0.044763308 0.009999125 0.06459022 -0.11129745
0.016892798 -0.063034914 -0.028208096 -0.08642391 -0.06935345 0.002200935 -0.11358472 -0.058878165
0.016552202 0.016899288 -0.016192647 0.024821645 0.014216857 -0.018785978 0.1066561 -0.09444479
-0.07564302 0.037576996 -0.039010923 0.00021888972 -0.006533196 -0.044779576 -0.035305716 -0.024865078
0.052518517 0.04850953 -0.041869197 -0.16272038 0.05645651 -0.10623028 0.017176282 -0.08267207
0.029554037 0.047278173 0.108909115 0.020678636 0.03259175 -0.083330095 0.019027887 0.010030459
-0.051463116 -0.040010553 -0.050308492 -0.039692488 -0.07849659 -0.08356174 -0.12934668 -0.06959526
0.04161428 0.0852471 -0.03187622 0.013731092 0.045046676 -0.055659946 0.0069126408 0.064717844
-0.042284217 -0.078266695 0.07189654 -0.005230898 0.034438282 -0.07945287 -0.04205766 -0.046421748
0.006314917 -0.0086402185 -0.012244436 0.05822006 0.025701929 -0.015954345 -0.040772453 -0.04506947
-0.0108465515 -0.027398312 -0.017665433 -0.047759924 0.018069463 -0.016778596 -0.20613267 0.099414304
-0.037111994 0.0011872031 0.058378957 -0.14499502 -0.0028454317 0.040727273 -0.0204665 -0.0007914626
00000000: 62e5 dd3c 9e58 673d 3f7b 5c3d 28e4 3d3d
00000010: 20e6 60bd 69b9 8e3d 3858 07bd 2754 8bbd
00000020: ad76 143d 8358 01bd c9e1 09bc 3fbc 383d
00000030: e25c c73b efe8 35bd 2477 ea3c 8fc9 bcb9
00000040: 0009 b9bd 09c7 aebc e198 16bd 2134 a9bc
00000050: 2b8b b8bd 9c85 2abd 2a1d 43bd cf9c adbc
00000060: 36d5 6fbc 0a05 98bc 7324 8b3d 818b e1bb
00000070: 9ce1 de3c 5aa7 e73c 3aaf 0ebd b902 dd3d
00000080: 03c1 333d 8aa0 8fbd 191c fbbc c51b eabd
00000090: 8d8c 3c3d f2ad febc 5c97 1ebc 888f 2a3b
000000a0: 29f6 4cbc f97a 983d 67a5 e33d 0cbe bc3c
000000b0: c79e 2ebd 501c a8bd effa 203d 62e2 46bd
000000c0: 3732 97bd febe 9c3c bba9 a9bd ca99 6cbb
000000d0: 3620 9d3d 142f bbbd 6eb7 92bd a5fe 8a3d
000000e0: 54ec 483d 2456 803d 3442 bdbd 0e93 07bd
000000f0: 66cc 34bb 3ddf 03bd 2a6f c63c 2c94 d4bc
00000100: 85e1 b5bd e1e9 2cbd e82d cfba 4904 f43c
00000110: ed54 743c 50d9 893c fb43 8cbd 6569 9d3d
00000120: b8e4 8c3d d9e4 af3c 9544 32bd 4724 69bd
00000130: d303 a6bc 9e5c 27bd 9fba e63b 4f57 7f3a
00000140: ef1a c03d aac0 293d c27c 41bc 2f57 17bc
00000150: 414f e8bc a8eb 42bd ea75 5cbd 12e0 dabb
00000160: f6ea f7bd e8b2 1bbd b98e d13c 7753 73bd
00000170: 4254 243d 054f cd3c 533f 07bd e3c1 9f3b
00000180: b878 c8bd d040 9a3c 657f e23b b378 85bd
00000190: 85d7 cebd 1d0d f63c b189 9f3c c178 a3bd
000001a0: f843 27bb abfe 89bc c6d4 12bd ee79 1f3d
000001b0: 5d1d 5bbd ea34 40bd cc75 95bd 3524 fdbc
000001c0: a5d2 4dbc f78c c3bd fa0f d4bc 2a1d 97bd
000001d0: 868f 7bbd dd1e 6fbb 6e8e 643d c63b 49bd
000001e0: 64ed 813c 1a7d fabd 52cc 4f3d 38e8 5bbc
000001f0: 0fd4 583b f868 07be 97f2 7abd 1981 b0bd
00000200: a4ab 7fbd 2140 3cbc dde4 4fbc 4736 3fbc
00000210: bbbc cb3a 06a1 83bc cb44 d23b 2754 05bd
00000220: 10a4 db3c 7336 7abd 0358 f4bc 99d9 4ebd
00000230: 4622 5ebd 4630 92bc 13a8 8ebd b3fd c2bd
00000240: 3dbd 4d3c 0230 8fbd 7c9d 6abd 00ff 7dbd
00000250: fe72 4fbc 12b2 99bc 6b9e 803d eca2 553b
00000260: 0d9e 1f3c dfdd b9bd 95ec a83d ed83 76bd
00000270: 5898 b3bd 8e64 26bc 6897 dabd a590 3ebc
00000280: ce85 dd3c f731 8a3d 32fc c53d e17f 0a3d
00000290: bb59 37bd 5fd3 233c e147 843d ebef e3bd
000002a0: c462 8a3c 7318 81bd aa14 e7bc 05ff b0bd
000002b0: 2e09 8ebd 903d 103b 1b9f e8bd 3b2a 71bd
000002c0: 7c98 873c 6070 8a3c 71a6 84bc c356 cb3c
000002d0: d2ed 683c 0de5 99bc 836e da3d 456c c1bd
000002e0: baea 9abd 56ea 193d ebc9 1fbd c385 6539
000002f0: 6c14 d6bb ca6a 37bd ba9c 10bd d9b1 cbbc
00000300: a81d 573d eeb1 463d 097f 2bbd 2ca0 26be
00000310: f13e 673d 438f d9bd 46b5 8c3c f94f a9bd
00000320: 4f1b f23c c2a6 413d be0b df3d 3e66 a93c
00000330: ed7e 053d f8a8 aabd 5fe0 9b3c cb56 243c
00000340: fdca 52bd 1be2 23bd 4710 4ebd 9794 22bd
00000350: d2c2 a0bd 6b22 abbd 7573 04be f687 8ebd
00000360: bc73 2a3d 0896 ae3d a490 02bd 60f8 603c
00000370: dd82 383d affb 63bd 6f83 e23b ca8a 843d
00000380: 3732 2dbd 4a4a a0bd 7e3e 933d f467 abbb
00000390: 280f 0d3d 30b8 a2bd a744 2cbd bb24 3ebd
000003a0: 5ded ce3b b48f 0dbc e39c 48bc 2878 6e3d
000003b0: da8c d23c b0b2 82bc 0401 27bd c49a 38bd
000003c0: bcb5 31bc 6d72 e0bc 19b7 90bc e99f 43bd
000003d0: 6906 943c 4473 89bc 7114 53be ba99 cb3d
000003e0: bf02 18bd ed9b 9b3a c61e 6f3d 9379 14be
000003f0: 6c7a 3abb a4d1 263d 5da9 a7bc 287a 4fba

fc2.bias f4 [150]
-0.030935407 0.09261833 -0.015276472 0.12073248 -0.051651653 -0.058169927 -0.053740937 0.032942876
-0.017833877 -0.03434598 -0.074448004 -0.060488366 -0.005096025 0.013124265 -0.050468296 -0.02021274
0.107179314 0.0028585582 0.0010335775 0.059759665 -0.020487435 0.07025054 0.063564286 -0.04285461
-0.0052248407 -0.040169492 0.11815096 -0.06856427 -0.028489565 -0.03801392 0.006447538 0.14658841
-0.021923415 -0.055336263 -0.0055282554 -0.06505159 -0.009845506 -0.0398907 -0.020274162 0.0016468753
-0.016568799 0.06269212 -0.019303145 -0.052067835 0.030642075 -0.05065442 -0.04571788 0.10668237
-0.030231439 -0.0673246 -0.0095681455 -0.0048593055 -0.02447141 0.11768923 0.027796589 -0.01257198
-0.020234562 -0.025608638 0.002145297 -0.018028218 0.08813727 -0.0127218515 -0.041910976 0.14195663
-0.024811614 0.019165741 -0.015580827 0.02178941 0.012905291 -0.045972418 -0.054192066 0.047282938
0.022029337 -0.014349469 0.0024562932 -0.009567025 -0.030365268 -0.07775642 -0.005471312 0.007990183
-0.033218574 0.044649012 -0.021427337 -0.030932993 -0.035459135 -0.028711041 0.03316559 -0.031812634
-0.030831743 -0.04890857 -0.035213113 -0.01898915 -0.021221409 -0.031129308 -0.007613402 0.006157312
-0.018043127 -0.073759004 -0.016559472 -0.051694624 0.10631343 -0.0146789085 -0.025463488 -0.021899454
-0.0016010359 -0.0059629143 0.030451545 -0.022238394 0.011774026 0.02863723 -0.025985394 0.041818164
-0.0067407195 -0.017115265 -0.0023405824 -0.0635756 -0.029759245 -0.020178095 0.055402983 -0.004021412
-0.014893573 0.037715584 0.09733886 -0.02768535 0.10104739 -0.000659402 0.017200662 0.0016956923
0.020140614 0.15667135 -0.055036817 0.05058576 0.011485194 0.041201394 -0.025347972 0.003297777
0.033228204 -0.0057121525 -0.012771608 0.06426315 -0.016022736 0.08785009 -0.027848477 0.095472984
-0.02445653 -0.06594251 0.0101496335 0.045093924 0.07183514 0.015720591
00000000: 406c fdbc aeae bd3d 2b4a 7abc 9742 f73d
00000010: af90 53bd 9743 6ebd 751f 5cbd 1cef 063d
00000020: 5a18 92bc 5fae 0cbd 3278 98bd a6c2 77bd
00000030: 8efc a6bb 2807 573c d8b7 4ebd 3095 a5bc
00000040: d480 db3d a656 3b3b 1b79 873a 8dc6 743d
00000050: 44d5 a7bc 84df 8f3d fe2d 823d 5188 2fbd
00000060: 2435 abbb c488 24bd 21f9 f13d 6d6b 8cbd
00000070: f362 e9bc 7cb4 1bbd de45 d33b 461b 163e
00000080: bc98 b3bc 47a8 62bd 5e26 b5bb c539 85bd
00000090: 0c4f 21bc 6e64 23bd 0016 a6bc f7db d73a
000000a0: 4abb 87bc ba64 803d a121 9ebc 1545 55bd
000000b0: 1705 fb3c 027b 4fbd ac42 3bbd 497c da3d
000000c0: eca7 f7bc 7be1 89bd b6c3 1cbc cf3a 9fbb
000000d0: 4478 c8bc 0d07 f13d acb5 e33c b5fa 4dbc
000000e0: f4c2 a5bc 35c9 d1bc 1c98 0c3b eaaf 93bc
000000f0: 5081 b43d 506f 50bc d8aa 2bbd 145d 113e
00000100: ba41 cbbc 7901 9d3c ba46 7fbc b47f b23c
00000110: b770 533c 934d 3cbd 80f8 5dbd c1ab 413d
00000120: de76 b43c 091a 6bbc c3f9 203b 03bf 1cbc
00000130: 95c0 f8bc c23e 9fbd b148 b3bb 42e9 023c
00000140: 3310 08bd e2e1 363d 6288 afbc 3067 fdbc
00000150: 993d 11bd 6b33 ebbc a4d8 073d f74d 02bd
00000160: da92 fcbc 5a54 48bd a03b 10bd 228f 9bbc
00000170: 85d8 adbc e402 ffbc d879 f9bb 47c3 c93b
00000180: 2ecf 93bc f60e 97bd bba7 87bc bebd 53bd
00000190: dbba d93d ce7f 70bc ce98 d0bc 7c66 b3bc
000001a0: dad9 d1ba 8d64 c3bb 8575 f93c 4b2d b6bc
000001b0: d8e7 403c a098 ea3c 52df d4bc 8649 2b3d
000001c0: 41e1 dcbb 5035 8cbc 7564 19bb ed33 82bd
000001d0: a9c9 f3bc 884c a5bc 3dee 623d 0dc6 83bb
000001e0: 2c04 74bc a87b 1a3d 9959 c73d 63cc e2bc
000001f0: eff1 ce3d b8db 2cba 67e8 8c3c fe41 de3a
00000200: eefd a43c 746e 203e 496e 61bd 0433 4f3d
00000210: 652c 3c3c cbc2 283d 8da6 cfbc 841f 583b
00000220: 4c1a 083d 022d bbbb 0240 51bc 669c 833d
00000230: 1d42 83bc bfea b33d 7d22 e4bc 5787 c33d
00000240: 1059 c8bc de0c 87bd a64a 263c 68b4 383d
00000250: 4d1e 933d 78c8 803c

action_head.weight f4 [6, 150]
-0.036388 0.1623257 -0.0886806 0.11768822 0.076433696 0.055251602 0.09440512 -0.16174437
0.040081073 0.098146684 0.043206852 -0.08710193 -0.08383492 0.0037258447 -0.01765261 -0.01803089
0.09237317 0.0011223765 -0.0075335773 -0.012470491 -0.023802 0.07507988 0.028983412 -0.056524895
-0.08127509 -0.12706421 0.018247647 0.14111002 -0.034783382 -0.081771106 -0.1134626 -0.016561681
-0.031214014 -0.07407898 -0.13248473 -0.075055175 -0.018846419 -0.05501742 0.05014982 0.045036778
0.103433214 -0.02606683 -0.00832814 -0.031153303 -0.040522967 -0.044725668 0.060665485 -0.035194274
-0.0050669494 0.006341987 0.0010993677 -0.07738822 0.019516964 0.08419243 0.0036670247 -0.086776614
0.020317549 0.0016234734 0.054454852 0.10557916 -0.042792756 -0.042566497 0.041356117 0.07666133
0.13223588 0.11036396 -0.0210844 -0.01877768 -0.15223998 0.03778527 0.0073355 0.08882276
-0.014511792 0.006500802 -0.027929125 0.042685427 -0.07959493 0.023315968 0.04722968 -0.00509212
-0.056591634 0.01384799 0.07978874 -0.04711415 -0.09791722 0.11338523 0.07754478 0.0152152
-0.08907757 0.05102566 -0.08923445 0.008448393 -0.060542922 0.015756352 0.050945852 -0.055023003
0.012488061 -0.03914247 0.08405596 -0.047275376 -0.005824694 0.047603633 -0.016669508 0.02097955
0.022400968 0.077781245 0.084754586 0.014916302 -0.09666337 -0.10074488 -0.030544536 0.04904749
-0.0023236745 -0.05620844 -0.058217928 -0.08288901 -0.10341496 0.024310023 0.0050935238 0.030474644
-0.057529006 0.03369826 0.018557113 -0.028918402 -0.06657999 0.06136355 -0.07673702 0.043076444
-0.049378276 0.04303202 -0.08335845 0.003752555 -0.06296225 0.061053164 -0.07370741 -0.04432276
-0.11968727 -0.08121366 0.06272521 -0.14621963 -0.10131384 0.054915424 -0.054968677 0.053249687
0.08327757 0.027778966 -0.088115975 0.10631656 -0.010771406 0.046453472 0.053860757 -0.114220746
-0.089868054 0.05715098 0.0716488 -0.080854446 -0.040427182 0.12871929 0.0674448 -0.02130331
0.07307488 0.086989656 0.049315713 0.047235757 0.064805366 0.0008668909 -0.1815671 -0.035191245
0.00027787645 4.294021e-05 -0.03530483 -0.11160028 -0.019094542 -0.04078045 0.042521227 0.051673505
-0.020397823 -0.12698168 0.021979304 -0.04011237 -0.005635779 0.053521454 -0.1480111 0.029089706
-0.014081556 0.06487621 -0.03566856 0.10207665 0.010826478 0.028265728 0.061770048 0.051491786
-0.08614604 -0.0891665 -0.12411508 -0.044416692 0.0748618 -0.033914536 -0.04434888 0.06468467
-0.031188248 0.054601878 -0.063547954 -0.12311205 -0.04347897 0.0073715127 -0.0024304597 0.003536857
0.025760284 0.03899456 -0.135987 0.080456465 0.016481258 -0.119343445 -0.045311797 0.0660605
0.1097425 -0.06871694 -0.004330594 0.01569678 -0.084251836 0.0054091928 0.07203245 0.019871203
-0.1246811 0.03850304 0.049085762 0.039892673 0.0373024 -0.048333883 -0.067984514 0.07421253
0.061744247 -0.115185045 0.008067401 0.08339719 -0.09257975 -0.1510035 0.01902419 -0.11892193
0.04437912 0.11616366 0.08810266 0.029290685 -0.0012951375 -0.026575027 -0.036412276 -0.030726807
0.029669262 0.09779483 -0.1003723 0.08263939 0.05773905 -0.12408109 0.03381247 0.012122067
00000000: 950b 15bd b538 263e 2d9e b5bd 8606 f13d
00000010: 4589 9c3d 814f 623d 7957 c13d 51a0 25be
00000020: 0d2c 243d 2101 c93d abf9 303d 7f62 b2bd
00000030: a4b1 abbd 4d2d 743b 359c 90bc 84b5 93bc
00000040: 252e bd3d b51c 933a 3adc f6bb 0851 4cbc
00000050: 69fc c2bc 7bc3 993d 9f6e ed3c a686 67bd
00000060: 8e73 a6bd 1f1d 02be 177c 953c 257f 103e
00000070: 0579 0ebd 9c77 a7bd 145f e8bd 5dac 87bc
00000080: 88b4 ffbc b8b6 97bd 14aa 07be 87b6 99bd
00000090: ce63 9abc f259 61bd e669 4d3d 7c78 383d
000000a0: cbd4 d33d 1b8a d5bc c072 08bc 3635 ffbc
000000b0: 69fb 25bd 4332 37bd 5f7c 783d df27 10bd
000000c0: a708 a6bb 71d0 cf3b a918 903a b77d 9ebd
000000d0: 0ae2 9f3c 156d ac3d 7752 703b f0b7 b1bd
000000e0: fd70 a63c baca d43a 0d0c 5f3d e339 d83d
000000f0: 7547 2fbd 355a 2ebd 0865 293d 9e00 9d3d
00000100: d868 073e 8006 e23d 31b9 acbc a6d3 99bc
00000110: cce4 1bbe bac4 1a3d a25e f03b b5e8 b53d
00000120: dec2 6dbc ae04 d53b 9fcb e4bc ead6 2e3d
00000130: ab02 a3bd 2101 bf3c e973 413d ccdb a6bb
00000140: a1cc 67bd aee2 623c 4768 a33d c4fa 40bd
00000150: d388 c8bd 8436 e83d cccf 9e3d 2d49 793c
00000160: 4d6e b6bd 4800 513d 8dc0 b6bd 216b 0a3c
00000170: dbfb 77bd 7713 813c 99ac 503d cd5f 61bd
00000180: b99a 4c3c db53 20bd 8825 ac3d d3a3 41bd
00000190: 13dd bebb 07fc 423d 7e8e 88bc 4edd ab3c
000001a0: 3c82 b73c c64b 9f3d d093 ad3d 8163 743c
000001b0: 72f7 c5bd 5553 cebd 8938 fabc 05e6 483d
000001c0: ca48 18bb d23a 66bd ec75 6ebd b7c1 a9bd
000001d0: 39cb d3bd d025 c73c 93e7 a63b f6a5 f93c
000001e0: 89a3 6bbd 3007 0a3d 1605 983c 49e6 ecbc
000001f0: 175b 88bd 5958 7b3d 4c28 9dbd ed70 303d
00000200: e040 4abd 5842 303d d6b7 aabd 6ded 753b
00000210: 5af2 80bd e212 7a3d e9f3 96bd c88b 35bd
00000220: 991e f5bd 5953 a6bd 1376 803d 99ba 15be
00000230: a17d cfbd ffee 603d d626 61bd 581c 5a3d
00000240: 6e8d aa3d b790 e33c 2676 b4bd 7fbc d93d
00000250: 8d7a 30bc ff45 3e3d 199d 5c3d 91ec e9bd
00000260: be0c b8bd 2517 6a3d 9bbc 923d 0497 a5bd
00000270: f996 25bd fdce 033e 8020 8a3d 4784 aebc
00000280: 48a8 953d a227 b23d 46ff 493d 487a 413d
00000290: adb8 843d 1040 633a baec 39be b224 10bd
000002a0: f2af 9139 b31a 3438 cc9b 10bd b08e e4bd
000002b0: 286c 9cbc 6709 27bd bd2a 2e3d 99a7 533d
000002c0: 5619 a7bc 7c07 02be f10d b43c de4c 24bd
000002d0: 57ac b8bb 5039 5b3d 3990 17be 894d ee3c
000002e0: 54b6 66bc d2dd 843d 3219 12bd 900d d13d
000002f0: 8a61 313c 878d e73c 9702 7d3d 0de9 523d
00000300: 566d b0bd ed9c b6bd 0c30 febd 47ee 35bd
00000310: 2551 993d f8e9 0abd 2ca7 35bd 6579 843d
00000320: 7f7e ffbc 38a6 5f3d 6e25 82bd 2c22 fcbd
00000330: 0117 32bd bb8c f13b 5948 1fbb 9dca 673b
00000340: 3b07 d33c c2b8 1f3d 2d40 0bbe 5cc6 a43d
00000350: b403 873c 566a f4bd dd98 39bd ba4a 873d
00000360: adc0 e03d 78bb 8cbd a8e7 8dbb 8996 803c
00000370: 3a8c acbd 993f b13b c085 933d efc8 a23c
00000380: ce58 ffbd 5db5 1d3d 270e 493d 8066 233d
00000390: 67ca 183d c0f9 45bd 773b 8bbd bdfc 973d
000003a0: 89e7 7c3d 23e6 ebbd 222d 043c 25cc aa3d
000003b0: 749a bdbd a9a0 1abe 9ed8 9b3c 578d f3bd
000003c0: e1c6 353d 37e7 ed3d 2b6f b43d 05f3 ef3c
000003d0: 9ac1 a9ba dfb3 d9bc 0a25 15bd c9b6 fbbc
000003e0: f40c f33c a848 c83d fe8f cdbd d73e a93d
000003f0: c87f 6c3d 3a1e febd f27e 0a3d a29b 463c

action_head.bias f4 [6]
0.090794705 -0.1211394 -0.021189194 0.08505933 0.023726262 -0.035081755
00000000: 93f2 b93d ef17 f8bd f694 adbc 9633 ae3d
00000010: 945d c23c e3b1 0fbd
