text_cnn/param/net_param/la24_critic_net.model (torch, 545175 bytes, 5 tensors)

feature1.0.weight f4 [6, 3, 5, 5]
0.3032879 -0.6853084 -0.97780263 -0.43141055 -0.5050328 0.15008481 -0.43466246 0.53989774
0.15598151 0.004365591 -1.3491997 -1.2557948 -0.5563852 0.5268707 0.25729486 -0.3656933
0.67958903 0.03729067 0.36055318 -0.53640866 0.88637435 0.9677222 -0.10557458 -0.37192684
-0.6525471 -0.049868584 -0.13967346 -0.0491529 -0.2106846 -0.14016487 -0.059443705 -0.111466266
-0.2643012 -0.055639163 -0.07811987 -0.37622446 -0.13936378 -0.08563351 -0.10208551 -0.10777895
-0.23377311 -0.07091018 -0.12252242 -0.14140372 -0.19114248 -0.7690358 -0.3524787 -0.0012276027
-0.1756556 -0.099686176 0.48247844 -0.64949036 -0.5837541 -0.44525078 -0.3047832 0.17561466
0.6370928 0.04875853 -0.19173233 0.077828445 -2.879603 -1.2558082 -0.36439213 0.5176215
0.11052396 -0.20230089 -0.028499825 -0.7045086 -0.46106476 -0.46179554 -0.19627842 0.20261566
0.42275628 -0.43764192 0.054992042 -0.2925974 -0.15372612 0.02649739 0.19821084 -0.3993709
-1.0390337 -0.34668788 -0.05165527 0.043035254 0.33264104 0.054357443 -0.35931006 0.12698843
0.07549195 -0.23919648 0.22683915 -0.22548845 0.11404626 0.039449636 0.13303062 -0.58396727
-0.29847747 0.07618431 0.10280785 -0.00041884405 -0.35279477 -0.36419404 -0.58872265 -0.048300993
-0.021751022 -0.1828608 -0.11386151 -0.2449236 -0.06842922 -0.068023816 -0.07703376 -0.026325768
-0.104988344 -0.022418745 -0.09830944 -0.37670994 -0.1441761 -0.402004 -0.013820749 -1.0079436
-0.10222649 -0.23034266 -0.057251647 -1.4908733 -0.089299865 -0.7097694 -0.42659134 0.04516651
0.5448276 0.90371406 0.1827553 -0.19133446 0.75687575 0.633432 -0.61068904 -0.27337906
0.27190354 0.35753295 0.38473713 0.6002189 0.06480466 -0.60234237 -0.43774322 0.02146948
-0.67191964 -0.07705485 0.101875685 0.5120768 0.75565726 0.334813 0.07311041 0.066677
0.1964522 -0.5519001 -0.16314267 0.17359218 0.27550343 0.2030984 -0.0439633 -0.17154305
0.056402225 0.20875157 -0.07209328 -0.19574526 0.12233958 0.1566551 0.559329 0.07705132
-0.1624494 -0.19628865 -1.3455323 -0.33317035 -0.014772636 -0.41337278 0.11354445 -0.09458158
-0.11055042 -0.13121116 -0.1561228 -0.058799908 0.019984117 -0.03427012 -0.20248269 -0.15658596
-0.12894437 -0.078116395 -0.111113444 0.015726225 -0.16302224 -0.89407754 -0.23071033 -0.2620281
-0.062434383 -0.07711571 -0.5924465 -0.08819163 -0.07611324 -0.048232447 -0.070705734 -0.24878836
-0.33744806 -0.20429438 -0.28312248 -0.5423421 -0.27346388 0.25629756 -0.95488644 -0.08365826
-0.05865411 -0.27210915 -0.13656852 -0.031591542 -0.25601915 -0.37685692 -0.045961663 -0.46631876
-0.3305832 -0.14403017 -0.6125493 -0.053421766 -1.0217404 -0.7457177 0.07166391 -0.66617316
0.1547415 -0.29933873 0.2694764 -0.25903976 0.10084076 0.048946634 -0.45672914 0.28044948
0.41115847 0.08824716 0.077748105 -0.21093595 0.30342114 0.7489193 -0.30301133 -0.40852144
0.733279 -0.017777903 -0.002634559 -0.6393446 -0.30319875 -0.613304 0.2551547 -0.8482708
-0.25138533 0.23717016 -0.10017978 -0.2749638 -0.8432122 -0.1405623 -0.12044417 -0.0725862
00000000: 8d48 9b3e 5f70 2fbf 4651 7abf d8e1 dcbe
00000010: d449 01bf d5af 193e 148c debe bd36 0a3f
00000020: 9eb9 1f3e 3b0d 8f3b 93b2 acbf e2bd a0bf
00000030: 436f 0ebf 00e1 063f 27bc 833e 273c bbbe
00000040: 8cf9 2d3f 1abe 183d 6d9a b83e 1452 09bf
00000050: 6ee9 623f a4bc 773f 7c37 d8bd 326d bebe
00000060: 540d 27bf 0043 4cbd 8f06 0fbe 8d54 49bd
00000070: b4bd 57be 6187 0fbe 3e7b 73bd 6d48 e4bd
00000080: 7d52 87be e4e5 63bd 4ffd 9fbd 7ea0 c0be
00000090: 61b5 0ebe 9f60 afbd 3512 d1bd 36bb dcbd
000000a0: 3862 6fbe 5b39 91bd 09ed fabd 23cc 10be
000000b0: dbba 43be 88df 44bf 1778 b4be 83e7 a0ba
000000c0: 10df 33be 4428 ccbd 6a07 f73e 0045 26bf
000000d0: e970 15bf e9f7 e3be 8b0c 9cbe 54d4 333e
000000e0: 8418 233f 06b7 473d 7b55 44be 8564 9f3d
000000f0: 6a4b 38c0 53be a0bf 9b91 babe d882 043f
00000100: 635a e23d f727 4fbe 7778 e9bc ad5a 34bf
00000110: ae10 ecbe 7770 ecbe 36fd 48be 7b7a 4f3e
00000120: 8373 d83e 9a12 e0be 563f 613d 54cf 95be
00000130: 616a 1dbe 0e11 d93c c8f7 4a3e 587a ccbe
00000140: 0eff 84bf 1381 b1be 7a94 53bd bc45 303d
00000150: ed4f aa3e e9a5 5e3d 7df7 b7be 4109 023e
00000160: 869b 9a3d ecef 74be 8648 683e 72e6 66be
00000170: 1691 e93d f195 213d 2e39 083e e17e 15bf
00000180: 0ad2 98be 8506 9c3d ec8c d23d 4c98 dbb9
00000190: 84a1 b4be a477 babe 87b6 16bf 43d7 45bd
000001a0: 332f b2bc dd3f 3bbe 3930 e9bd 41cd 7abe
000001b0: 9e24 8cbd 1250 8bbd e0c3 9dbd 23a9 d7bc
000001c0: 2104 d7bd 84a7 b7bc 7656 c9bd 20e0 c0be
000001d0: e6a2 13be 78d3 cdbe 6c70 62bc 4c04 81bf
000001e0: 1f5c d1bd f2de 6bbe b480 6abd f0d4 bebf
000001f0: d9e2 b6bd 73b3 35bf 2e6a dabe 8500 393d
00000200: d279 0b3f ce59 673f 3524 3b3e 2eed 43be
00000210: 9cc2 413f 9928 223f 1e56 1cbf 57f8 8bbe
00000220: f136 8b3e 8f0e b73e 44fc c43e f2a7 193f
00000230: 4eb8 843d 1c33 1abf e11f e0be c3e0 af3c
00000240: ed02 2cbf efce 9dbd 33a4 d03d 7717 033f
00000250: c172 413f 9c6c ab3e e9ba 953d f38d 883d
00000260: c42a 493e 5349 0dbf df0e 27be 26c2 313e
00000270: c90e 8d3e 07f9 4f3e dc12 34bd fba8 2fbe
00000280: 0506 673d f9c2 553e a4a5 93bd 7271 48be
00000290: 2c8d fa3d 326a 203e 2f30 0f3f 15cd 9d3d
000002a0: 2359 26be e4ff 48be 673a acbf 4e95 aabe
000002b0: ed08 72bc 99a5 d3be fe89 e83d fdb3 c1bd
000002c0: 4268 e2bd 385c 06be a8de 1fbe 2cd8 70bd
000002d0: bbb5 a33c d35e 0cbd 9f57 4fbe 1258 20be
000002e0: fe09 04be 7dfb 9fbd 728f e3bd 49d4 803c
000002f0: 4def 26be 44e2 64bf 543f 6cbe 8c28 86be
00000300: 32bb 7fbd d7ee 9dbd 93aa 17bf d09d b4bd
00000310: 42e1 9bbd 638f 45bd 2bce 90bd 60c2 7ebe
00000320: fec5 acbe 8c32 51be 6ef5 90be efd6 0abf
00000330: 7503 8cbe 6f39 833e 7073 74bf 0655 abbd
00000340: 4b3f 70bd e451 8bbe 9ed8 0bbe 2266 01bd
00000350: f114 83be 64f3 c0be 4c42 3cbd 55c1 eebe
00000360: 3442 a9be a57c 13be 08d0 1cbf c8d0 5abd
00000370: 64c8 82bf 5be7 3ebf 87c4 923d 538a 2abf
00000380: 8e74 1e3e ed42 99be d0f8 893e dca0 84be
00000390: 9a85 ce3d 447c 483d 67d8 e9be 1397 8f3e
000003a0: 5d83 d23e edba b43d 663a 9f3d 98ff 57be
000003b0: 045a 9b3e 2db9 3f3f 4d24 9bbe b929 d1be
000003c0: 2cb8 3b3f f7a2 91bc 91a8 2cbb 16ac 23bf
000003d0: de3c 9bbe 7e01 1dbf a3a3 823e 4628 59bf
000003e0: 94b5 80be bcdc 723e 0e2b cdbd 0ec8 8cbe
000003f0: c1dc 57bf 90ef 0fbe 6fab f6bd 13a8 94bd

feature1.0.bias f4 [6]
-0.47387135 0.074488275 0.3839491 0.04589075 0.1327193 -0.021305857
00000000: 449f f2be 4f8d 983d fa94 c43e f0f7 3b3d
00000010: 91e7 073e 9f89 aebc

fc2.weight f4 [150, 900]
0.098113395 -0.024985412 -0.005818329 -0.13878399 0.5092541 -0.0069835046 0.19083214 0.14499114
0.53474003 0.3632757 0.099289864 -0.090857536 0.027253192 -0.10124297 0.048749585 0.044753127
-0.14885974 -0.1721087 -0.60575664 -0.5774475 0.0078687025 -0.021651268 0.3333262 0.076698154
-0.015841937 0.06662713 -0.016011601 0.054004367 -0.66254723 -0.057167318 -0.051251825 -0.1866861
0.059573144 0.21320346 0.02845827 -0.09235367 -0.044654272 0.03557301 0.0433761 0.1093538
0.072260305 -0.0732296 0.03282677 0.16219273 -0.28617096 -0.36984497 -0.14173235 0.37356594
0.038535155 0.41802114 -0.03924347 0.0821175 0.03350968 -0.6400934 -0.022964358 0.016485339
-0.19158643 -0.3668932 -0.21504869 0.51707727 0.14237034 0.11013677 0.010657363 0.060574666
-0.058494955 0.26928613 -0.041731954 0.14815404 0.17267747 -1.0645357 0.0049095894 -0.004952726
-0.053506065 -0.023019502 0.18432161 0.5103436 -0.22339596 -0.09970481 -0.24899448 0.018480685
0.012619456 0.17291112 -0.035127062 0.19156003 -0.20321643 -0.05147126 -0.089880615 0.060859043
-0.2598284 0.016252458 0.11025975 -0.054051615 0.05311697 0.18985416 0.41943538 -0.010436167
-0.33694404 0.051738605 -0.31635436 -0.019522212 0.0092979465 0.08188068 0.13452378 0.26668838
0.022754936 -0.2822421 -0.2062852 -0.15798523 -0.02010172 0.6387736 0.06200465 0.11110169
0.49015155 -0.15097232 -0.08961437 -0.7761886 0.10147985 -0.6626297 -0.485531 0.0024369867
-0.018312313 0.028131189 -0.040281784 -0.35431316 -0.19264546 0.14677055 -0.32848096 -0.15683663
0.08028822 -1.0375967 0.027935328 -0.0251986 0.10396474 0.06083688 -0.15435937 -0.04304247
0.0077229575 -0.13283436 -0.20707095 0.31200552 0.008174055 0.0872752 0.049285166 -0.13429654
0.074472785 0.38063824 0.14570637 0.24421328 -0.2363945 -0.29668787 0.29196423 0.37102595
-0.23938245 -0.20412666 -0.46621752 -0.2724531 -0.45907336 -0.19500054 -0.33441207 -0.110360764
-0.19572017 0.011867372 -0.22923142 -0.105028726 -0.2407502 -0.009349809 -0.08321572 -0.23115048
-0.2505713 -0.29698208 0.225798 0.18566805 0.094552234 0.22891007 -0.15194394 -0.1755408
0.1600416 -0.38160998 -0.5463193 -0.40466532 0.117351755 0.22892511 -0.15633711 0.43623546
0.45565218 0.27182508 0.13238631 -0.31168094 -0.5312374 -0.113334596 -0.21764018 0.11326072
-0.112152934 -0.06259955 -0.15106376 -0.56148535 -0.36868018 -0.35262835 -0.6075359 -0.14476852
-0.10339002 -0.16804169 -0.49198368 0.17634092 -0.0072695133 -0.49119103 0.016022094 -0.03958627
-0.28436452 -0.17889185 -0.12760758 -0.037850417 0.45443 -0.008806714 0.11096235 -0.21077643
0.15883334 -0.11600975 -0.17226376 0.05840999 0.029880192 -0.40489474 -0.44131398 -0.91346914
-0.42920253 -0.48653218 -0.24774091 -0.14569858 -0.27376872 -0.14725338 -0.43121442 -0.34224933
0.42585433 -0.39783975 -0.5261496 -0.8608632 -0.52634996 -0.30046785 -0.14599304 0.3137862
-0.1728692 -0.18890989 -0.8494634 -0.5415768 -0.07598315 -0.5139035 -0.07579469 -0.120793305
-0.44098416 -0.30114594 -0.3196509 -0.27901846 0.23995738 -0.72669125 -0.1958275 -0.29211575
00000000: adef c83d 35ae ccbc aea7 bebb 641d 0ebe
00000010: 7a5e 023f e2d5 e4bb 8069 433e 8f78 143e
00000020: b9e4 083f 46ff b93e 7c58 cb3d 8413 babd
00000030: 1642 df3c 7958 cfbd a5ad 473d 0e4f 373d
00000040: b06e 18be 433d 30be de12 1bbf 99d3 13bf
00000050: bbeb 003c 005e b1bc bba9 aa3e ec13 9d3d
00000060: f3c6 81bc ce73 883d c32a 83bc af33 5d3d
00000070: b29c 29bf 4728 6abd 6fed 51bd a42a 3fbe
00000080: f802 743d 0252 5a3e 5121 e93c ec23 bdbd
00000090: 66e7 36bd 01b5 113d 23ab 313d e3f4 df3d
000000a0: 36fd 933d 67f9 95bd 5d75 063d da15 263e
000000b0: 0085 92be 525c bdbe 4922 11be 0944 bf3e
000000c0: 0ad7 1d3d de06 d63e c3bd 20bd 382d a83d
000000d0: 7241 093d 29dd 23bf c01f bcbc 430c 873c
000000e0: 3c2f 44be 6dd9 bbbe b935 5cbe 2d5f 043f
000000f0: 88c9 113e 638f e13d 389c 2e3c 241d 783d
00000100: 6898 6fbd dfdf 893e 20ef 2abd b1b5 173e
00000110: 5dd2 303e b542 88bf 9fe0 a03b 7a4a a2bb
00000120: 2d29 5bbd 6593 bcbc cebe 3c3e e1a5 023f
00000130: e9c1 64be 0932 ccbd 69f8 7ebe ce64 973c
00000140: d6c1 4e3c 9d0f 313e 65e1 0fbd 5028 443e
00000150: f817 50be 87d3 52bd 5413 b8bd 5547 793d
00000160: 3a08 85be e023 853c ddcf e13d 3a65 5dbd
00000170: 2e91 593d 2169 423e 3cc0 d63e 75fc 2abc
00000180: ee83 acbe dceb 533d 33f9 a1be 0ced 9fbc
00000190: 6a56 183c 0fb1 a73d 9ac0 093e 618b 883e
000001a0: 8f68 ba3c 0982 90be 6d3c 53be e1c6 21be
000001b0: 5dac a4bc ab86 233f 96f8 7d3d 4889 e33d
000001c0: 25f5 fa3e 7d98 1abe bd87 b7bd 4cb4 46bf
000001d0: abd4 cf3d 1aa2 29bf 8597 f8be dab5 1f3b
000001e0: b403 96bc 6173 e63c 83fe 24bd 8968 b5be
000001f0: da44 45be 054b 163e a82e a8be c899 20be
00000200: 266e a43d f8cf 84bf a1d8 e43c 4b6d cebc
00000210: 77eb d43d 1830 793d 6210 1ebe 4d4d 30bd
00000220: dd10 fd3b bb05 08be 680a 54be 30bf 9f3e
00000230: 79ec 053c 57bd b23d 3edf 493d 0885 09be
00000240: 3085 983d 04e3 c23e 0d34 153e 0c13 7a3e
00000250: 6611 72be 79e7 97be 567c 953e 1df7 bd3e
00000260: ac20 75be 9406 51be 10b4 eebe f97e 8bbe
00000270: aa0b ebbe 39ae 47be 0f38 abbe d304 e2bd
00000280: de6a 48be 5e6f 423c a4bb 6abe 4d19 d7bd
00000290: 3887 76be f12f 19bc 016d aabd b6b2 6cbe
000002a0: e24a 80be 090e 98be 9737 673e c41f 3e3e
000002b0: 9aa4 c13d 6767 6a3e 3197 1bbe f8c0 33be
000002c0: f2e1 233e 6262 c3be 95db 0bbf 4b30 cfbe
000002d0: 1e56 f03d 586b 6a3e d616 20be 415a df3e
000002e0: 3e4b e93e a82c 8b3e 4790 073e a594 9fbe
000002f0: 2dff 07bf f81b e8bd 11dd 5ebe 3df5 e73d
00000300: 70b0 e5bd 3134 80bd 75b0 1abe 81bd 0fbf
00000310: a6c3 bcbe b48b b4be 7987 1bbf 333e 14be
00000320: 26be d3bd 1f13 2cbe 49e5 fbbe b792 343e
00000330: 1935 eebb 647d fbbe c440 833c 3625 22bd
00000340: 3a98 91be 6d2f 37be 90ab 02be 0a09 1bbd
00000350: 0dab e83e 094a 10bc 3b40 e33d c7d5 57be
00000360: 35a5 223e 8596 edbd e965 30be 503f 6f3d
00000370: 4ec7 f43c 5d4e cfbe e8f3 e1be 1dd9 69bf
00000380: 6fc0 dbbe bf1a f9be cbaf 7dbe 0232 15be
00000390: 6a2b 8cbe 97c9 16be 23c8 dcbe 4e3b afbe
000003a0: 9409 da3e a7b1 cbbe bdb1 06bf 8861 5cbf
000003b0: dfbe 06bf ecd6 99be 337f 15be 96a8 a03e
000003c0: a004 31be 9871 41be 6f76 59bf c7a4 0abf
000003d0: 0e9d 9bbd 2e8f 03bf 3f3a 9bbd 7b62 f7bd
000003e0: adc8 e1be cd2f 9abe 48a9 a3be 82db 8ebe
000003f0: 63b7 753e 7008 3abf 0187 48be 3290 95be

fc2.bias f4 [150]
0.287987 0.8248778 -0.034040753 0.2555207 -0.007125529 0.3325077 0.6441724 0.20429201
0.32359388 0.30913186 0.0071499497 -0.044724196 0.28792763 -0.017465267 -0.021476967 0.62903893
-0.35305393 -0.008367594 0.0034705454 -0.027718589 0.22197612 -0.03557176 0.12957448 -0.009480421
1.0237197 -0.0107975295 -0.006631522 0.7735399 -0.00978498 -0.07184314 0.67778486 0.79360783
-0.04699911 -0.044599347 0.0029559054 0.36849618 0.9733041 -0.031234374 0.55534947 0.3297954
-0.04508672 -0.02728574 0.57075614 0.39259592 0.5184827 -0.035353664 0.005006936 -0.004784516
0.61730987 0.307583 -0.028551351 -0.007074966 0.0052346825 0.14951883 0.005344299 0.0025248362
-0.008243866 0.3186105 -0.044352446 -0.051117875 0.93893164 0.45120695 0.011065412 0.313372
-0.07564131 -0.033886816 0.19899721 -0.032828033 0.00053817796 -0.041513916 0.75129586 -0.092160605
-0.013576815 -0.044618744 0.48293024 -0.023989629 -0.05106017 -0.01659086 -0.005232697 0.00269197
-0.023453515 0.4390159 -0.11839111 0.5055183 0.013499258 0.30817345 0.72090906 0.17520395
0.32104182 -0.04341752 0.8365464 -0.00958951 -0.038390495 -0.009388913 0.030323762 0.15674584
0.39872715 -0.062309504 0.9255132 0.35138643 0.41904166 -0.036647733 0.42751902 -0.0154848285
0.31714875 0.37512192 -0.041019887 0.53821146 -0.0042256685 0.8306862 -0.012778312 0.9410748
0.73942065 -0.049834695 0.011715919 0.8789421 0.11102455 0.35775256 0.4367541 0.9768551
-0.005359504 0.71446997 0.37485382 0.41815278 -0.025055362 -0.03080804 0.20615861 -0.007410367
-0.050694767 0.07467355 0.010121152 -0.028266696 0.4729113 -0.015956573 -0.0058707455 0.00341975
0.061999522 -0.036168125 0.0090672625 0.01074654 -0.005158907 0.55318326 0.009577563 -0.02382226
0.013591274 -0.008123402 -0.041552354 0.20282984 -0.016871614 -0.018363817
00000000: 0873 933e 312b 533f 516e 0bbd 9cd3 823e
00000010: 457d e9bb 733e aa3e 7be8 243f ed31 513e
00000020: 19ae a53e 8846 9e3e 204a ea3b b830 37bd
00000030: 406b 933e 5213 8fbc 77f0 afbc b208 213f
00000040: 7cc3 b4be 3c18 09bc 1772 633b 1812 e3bc
00000050: b54d 633e b2b3 11bd 2caf 043e c553 1bbc
00000060: 3f09 833f 1fe8 30bc 3d4d d9bb b606 463f
00000070: 2e51 20bc 7f22 93bd 4f83 2d3f e229 4b3f
00000080: 2482 40bd cead 36bd ddb7 413b 88ab bc3e
00000090: 752a 793f 3bdf ffbc 622b 0e3f f1da a83e
000000a0: daac 38bd 5886 dfbc 131d 123f 5502 c93e
000000b0: 48bb 043f 01cf 10bd 3911 a43b 6ec7 9cbb
000000c0: 0508 1e3f 857b 9d3e 86e4 e9bc 1ed5 e7bb
000000d0: b387 ab3b 771b 193e 3b1f af3b b977 253b
000000e0: 4811 07bc ea20 a33e e9aa 35bd fa60 51bd
000000f0: d35d 703f 9904 e73e b44b 353c 4b72 a03e
00000100: d5e9 9abd e7cc 0abd edc5 4b3e b076 06bd
00000110: 8314 0d3a 7f0a 2abd ed54 403f b3be bcbd
00000120: 4a71 5ebc 25c2 36bd a242 f73e e685 c4bc
00000130: 7824 51bd 8ee9 87bc 0b77 abbb c36b 303b
00000140: 9621 c0bc b1c6 e03e 0a77 f2bd a669 013f
00000150: fe2b 5d3c e9c8 9d3e 7f8d 383f aa68 333e
00000160: 985f a43e 92d6 31bd e827 563f 521d 1dbc
00000170: 5a3f 1dbd f5d3 19bc 8a69 f83c fb81 203e
00000180: f725 cc3e 4038 7fbd 6fee 6c3f ece8 b33e
00000190: a18c d63e ef1b 16bd c6e3 da3e 14b4 7dbc
000001a0: 5261 a23e fb0f c03e 7804 28bd 3ac8 093f
000001b0: 7a77 8abb daa7 543f 205c 51bc 47ea 703f
000001c0: ac4a 3d3f 771f 4cbd 20f4 3f3c 5902 613f
000001d0: d760 e33d 582b b73e 3c9e df3e 2d13 7a3f
000001e0: c79e afbb 81e7 363f d7ec bf3e 1f18 d63e
000001f0: e740 cdbc 2561 fcbc 3e1b 533e aad2 f2bb
00000200: 51a5 4fbd 72ee 983d 30d3 253c 8f8f e7bc
00000210: 6e21 f23e 5cb7 82bc 625f c0bb e21d 603b
00000220: 36f3 7d3d 0725 14bd db8e 143c 4112 303c
00000230: 0c0c a9bb 6b9d 0d3f 36eb 1c3c e626 c3bc
00000240: efad 5e3c 0418 05bc cd32 2abd a0b2 4f3e
00000250: 5736 8abc b76f 96bc

state_value.weight f4 [1, 150]
-0.14881049 -0.029510917 0.015182979 -0.12653463 0.023927674 -0.21795627 -0.012611912 -0.14080158
-0.04545347 -0.05334606 0.052306723 -0.005749493 -0.14619108 0.056751292 0.0045183133 -0.1899278
0.1626943 0.016063778 0.05063915 0.03219463 0.30020508 -0.0009662138 0.2467761 0.05636921
-0.124821626 0.02359195 0.0017475539 -0.1029519 0.035031803 0.47980413 -0.011472298 -0.10181775
0.0077722506 0.013012133 -0.009165391 -0.4659543 -0.117300875 0.03034795 -0.012571933 -0.5648662
0.03509691 0.004170866 -0.03550258 -0.07297968 -0.09975118 0.00021444484 0.17622401 -0.0059615658
-0.1858428 -0.03990888 0.00363901 0.059066392 -0.013798756 -0.2753273 0.03337524 0.060015544
0.06148748 -0.14601426 0.20663498 0.02916139 -0.087019615 -0.14937992 0.057115503 -0.22773673
0.37478068 0.03570977 0.16878548 0.021935567 0.050357975 0.06038481 -0.2113976 0.32166648
-0.005622282 -0.0039098943 -0.022425815 0.019055344 0.030665865 -0.010159487 0.03978036 0.060371168
-0.011538471 -0.15476605 0.11627941 -0.22557463 0.0006775956 -0.2643271 -0.0783807 -0.025704708
-0.022875456 0.018645406 -0.04546591 0.045605093 0.023620198 -0.014541667 0.18494685 0.12207749
-0.33627316 0.13220945 -0.09032322 -0.039357606 -0.71409214 0.060882635 -0.02187677 0.020123346
0.15223886 -0.03646284 0.037297092 -0.37809578 0.05462247 -0.049855065 0.017706012 -0.113969624
-0.22847281 0.060268518 0.06212369 -0.058191266 -0.1631321 0.12047896 -0.06951345 -0.104772516
0.059903346 -0.12929288 -0.040729705 -0.028459508 0.035898663 0.0360281 -0.14633748 -0.0077433484
0.008495038 0.1313602 0.033396192 -0.013546615 -0.024962606 0.0062489435 0.034014285 0.06060747
-0.71196675 0.061027374 -0.011591506 -0.011950911 0.013030988 -0.3359877 -0.0061911163 0.06015378
-0.016099071 0.041972224 0.044074733 -0.17087333 0.08649869 0.009180967
00000000: c761 18be e1c0 f1bc 08c2 783c 4b92 01be
00000010: f803 c43c ee2f 5fbe 31a2 4ebc 4a2e 10be
00000020: 6b2d 3abd 6681 5abd 933f 563d 3e66 bcbb
00000030: 1db3 15be 0b74 683d 5c0e 943b 6f7c 42be
00000040: 5699 263e 2f98 833c ff6a 4f3d 84de 033d
00000050: 7bb4 993e 8349 7dba e0b2 7c3e 67e3 663d
00000060: 7ba2 ffbd e843 c13c 2e0e e53a 72d8 d2bd
00000070: 827d 0f3d e3a8 f53e 4ef6 3bbc d385 d0bd
00000080: 5dae fe3b d730 553c 702a 16bc 9091 eebe
00000090: 713b f0bd 449c f83c 82fa 4dbc 129b 10bf
000000a0: c7c1 0f3d c3ab 883b 276b 11bd 5f76 95bd
000000b0: 594a ccbd 99dc 6039 1174 343e 3d59 c3bb
000000c0: 934d 3ebe 7e77 23bd 757c 6e3b 9aef 713d
000000d0: 2d14 62bc b3f7 8cbe 7ab4 083d dcd2 753d
000000e0: 4cda 7b3d c384 15be 1f98 533e dee3 ee3c
000000f0: 5737 b2bd 0df7 18be f2f1 693d d133 69be
00000100: 41e3 bf3e 6844 123d 1ad6 2c3e 38b2 b33c
00000110: 2a44 4e3d 1056 773d 9d78 58be 78b1 a43e
00000120: 1f3b b8bb 921e 80bb 58b6 b7bc f419 9c3c
00000130: fb36 fb3c fa73 26bc bbf0 223d c247 773d
00000140: db0b 3dbc fe7a 1ebe e623 ee3d 09fd 66be
00000150: aca0 313a e255 87be 0f86 a0bd ae92 d2bc
00000160: 4f65 bbbc 40be 983c 763a 3abd 68cc 3a3d
00000170: 257f c13c 2c40 6ebc b562 3d3e c303 fa3d
00000180: ff2b acbe ea61 073e 61fb b8bd 7135 21bd
00000190: bece 36bf 1260 793d e936 b3bc b7d9 a43c
000001a0: 81e4 1b3e 0f5a 15bd d6c4 183d c595 c1be
000001b0: d0bb 5f3d d334 4cbd 330c 913c e868 e9bd
000001c0: c7f4 69be 1fdc 763d 6975 7e3d f759 6ebd
000001d0: 1a0c 27be acbd f63d 115d 8ebd f992 d6bd
000001e0: 365d 753d 5a65 04be 31d4 26bd ea23 e9bc
000001f0: 7a0a 133d 3392 133d 7ed9 15be eabb fdbb
00000200: c62e 0b3c 4a83 063e 72ca 083d 9ff2 5dbc
00000210: 617e ccbc f0c3 cc3b 9052 0b3d 8a3f 783d
00000220: 7443 36bf d7f7 793d 4dea 3dbc c1cd 43bc
00000230: ed7f 553c 9406 acbe d9de cabb cf63 763d
00000240: 33e2 83bc 11eb 2b3d b587 343d 6bf9 2ebe
00000250: 3a26 b13d c46b 163c
