text_cnn/param/net_param/la28_actor_net.model (torch, 969495 bytes, 6 tensors)

feature1.0.weight f4 [6, 3, 5, 5]
00000000: 7448 21be 4516 7bbe 4f40 303f 2554 74be
00000010: a6be eabd 1de8 a3be 0452 18bd 68c9 d4be
00000020: 763b 23be 717c f1bd baab 91be d68d ce3e
00000030: 42ed a6be 098f 2fbe 0e71 b7bd 9a52 76be
00000040: 9ac2 483e 0d56 6ebe 035d 5dbe 9b36 67bd
00000050: 91cd 4abe b033 bfbe 711f 01be 996a 97bd
00000060: 5e13 e0bc 6da5 0d3c 8164 2bbe 4967 dc3d
00000070: 3cd0 32be 255b 323c 0c40 d7bd 855e f6bd
00000080: b66e 3bbe 2319 80bd 8ebc edbd db7b 89be
00000090: 7983 2abd b5b9 21bf f3c0 35be d0cb e63b
000000a0: 9b66 b8be 09a0 153d 8b72 08bf d874 c9be
000000b0: 826f 5139 b58b 05bc 868b b9be 5b9f 133c
000000c0: f4f4 c2bc e702 393d 944b b23d 1fda 1b3d
000000d0: 0f7e 553d 7122 1bbe 973f 85bd cde6 32be
000000e0: f246 e33b 3b09 0abe 1029 d63c 6ee4 30be
000000f0: 328c 0c3c d1f9 5d3e 68ad 30bd 46fd 22bd
00000100: 765a b53c 8777 96bd a6de 4f3e 7f85 2c3b
00000110: f054 80be a542 05be 5f13 fc3d 5013 213e
00000120: 223d efbd d51c 5fbe c004 abbc c34f b03c
00000130: ebcd 80bd e983 cbbd 139c 68be 5d52 00bd
00000140: 2946 273d 8956 563b 9c80 e93d 3184 89bc
00000150: 6c5d dbbc a7c1 893e 1bcc 9bbd 4fbc bbbc
00000160: 61f0 5bbe 3f4c 47bd ddb9 bcbd e250 76be
00000170: f727 7e3e ff54 54be bf25 68bb 3d57 d7bc
00000180: 8df3 b2bc 86a7 2cbd b0c9 c0bd ca9b babd
00000190: 0f10 a7be 1186 89be 3dcd 6ebd 37d6 edbe
000001a0: 93d6 2b3d b998 e2bd dcd9 51be 82df c0be
000001b0: f502 77be 0799 99be cc8a 1f3d a0c3 77bd
000001c0: 9087 c93d 7029 0f3d c5db ab3d 269b 99be
000001d0: 700b e8be 2db1 fa3c 5c20 3abe f9d1 8ebe
000001e0: d5ed a9bc b222 0e3d e1f7 88be a637 d73c
000001f0: 2b22 be3c 9408 e53c 1d62 833d d21c d03d
00000200: ad4b 8f3b 4345 703d 5e00 c23d f1a5 69bd
00000210: 4345 263c 54e7 e0bc 9b46 0fbe e138 113e
00000220: 2279 c63c 7a37 aa3d 5220 09be b0b4 863c
00000230: e338 90bd 421f 29be 9609 3c3e 1d32 18be
00000240: 0cc5 e0bc 044b 48be 0abf a5bb c53d 1dbe
00000250: 417f 06be 6cc5 10be 37e6 f9bc 6eba 15bd
00000260: 676d 95be be9f 32bd 4657 a43d 9416 7fbe
00000270: 7013 9abe f772 cebe bf09 4ebe 11be e0bd
00000280: 4723 a8bd e8fe 44be c445 3dbe 3f6e 8e3d
00000290: dc4a ddbc eca8 61be 14f2 97be 319c 74be
000002a0: 3ac2 8ebe e4e6 a2be 1b5d f2bd 4f02 263e
000002b0: a435 93bd 070a 00be 7faf 803b 864b 12bc
000002c0: 0d08 643d 8ff4 52be bad7 5e3d 6e2d 253d
000002d0: 66d4 36be 84bc 1bbf fd98 c0bd 9468 153d
000002e0: 0190 963d 4f61 95be d4e3 35bd 98f6 d23c
000002f0: 96f9 1ebe 2455 9ebe ab06 873b 1feb ba3c
00000300: 9e53 f33c 5559 a0be 03b1 2bbe 9604 f8bc
00000310: 2b93 b7be 2707 66be 5cd9 e9bd 1618 01be
00000320: adfc e8bd 2c47 c0bb dbe7 02bc 22aa 1cbe
00000330: 2cf2 ce3c fba5 14be 9461 31be be10 6d3b
00000340: 3a45 543c 67e0 7d3c 6b33 4ebe b6ba 14bd
00000350: 33a7 953c 149c f73d dfd7 24be 8204 6c3c
00000360: 3359 843d 0961 503d 5fb8 b8be 364e 7cbe
00000370: e198 9fbd 7f72 da3d 3064 49bd 93ad abbd
00000380: f132 e13d 33bd 31be 5194 333e 334b 893e
00000390: 5083 cebc 3ae9 22be 68f3 a0bd ac0d 16be
000003a0: aa71 733e 05f0 abbd 86c4 083e ca04 24bd
000003b0: 5a83 8fbd 089e aebc 92fa 43be ab45 2dbe
000003c0: 814f 3dbc 6f64 dcbc 7156 c63d 2958 4abe
000003d0: c08a 8bbe c459 0b3b ed67 2e3e e6c8 f03d
000003e0: ac73 34be d391 a3be 64ff 9bbe 788f a1bb
000003f0: bfa5 acbe 74d3 7ebe a837 cdbd 1265 97bd
-0.15750295 -0.24520214 0.6884813 -0.23860224 -0.114621446 -0.32013026 -0.03718759 -0.4155991
-0.15940651 -0.117913134 -0.2845133 0.40342587 -0.32602888 -0.17144407 -0.0895711 -0.24054947
0.19605485 -0.23275013 -0.21617512 -0.05644856 -0.1980498 -0.37344122 -0.1260965 -0.07393379
-0.027352985 0.008645398 -0.16737558 0.107618876 -0.17462248 0.010885988 -0.10510263 -0.12029747
-0.18303952 -0.062547944 -0.116082296 -0.26852307 -0.04162929 -0.6317399 -0.17749386 0.0070433393
-0.36015782 0.036529575 -0.5329978 -0.39346957 0.00019973333 -0.0081509845 -0.3623926 0.009010161
-0.023798443 0.045168784 0.08705822 0.038049813 0.052122172 -0.15149857 -0.065062694 -0.17470856
0.0069359476 -0.13480084 0.026142627 -0.17274639 0.008578347 0.21677329 -0.043134123 -0.03979232
0.022137862 -0.07347017 0.20299777 0.0026324687 -0.25064802 -0.13013704 0.12308382 0.15730023
-0.11681582 -0.21788342 -0.020876288 0.021522408 -0.06289276 -0.09937269 -0.22715788 -0.031328548
0.040838394 0.0032705388 0.114014834 -0.016786667 -0.026777945 0.26905558 -0.076072894 -0.022916941
-0.21478416 -0.0486567 -0.09215138 -0.24054292 0.24819933 -0.20735548 -0.003542289 -0.026286716
-0.02184465 -0.04215195 -0.09413469 -0.09111746 -0.3262944 -0.26860097 -0.0583012 -0.46452495
0.04195268 -0.11064286 -0.20493263 -0.37670523 -0.24122222 -0.29999563 0.038950726 -0.060489297
0.098403096 0.034951627 0.08391527 -0.3000118 -0.45321226 0.030602062 -0.18176407 -0.2789457
-0.02074329 0.034701057 -0.26751617 0.026271652 0.023209652 0.027958192 0.06415198 0.10161747
0.004373035 0.058659803 0.09472726 -0.05704302 0.010148349 -0.027454056 -0.13991778 0.14181854
0.024227683 0.083113626 -0.13391235 0.01644358 -0.070421 -0.1651583 0.18363032 -0.14862867
-0.02743771 -0.19559866 -0.005058174 -0.15355594 -0.13134481 -0.1413781 -0.030505283 -0.036554746
-0.2918503 -0.043609373 0.080244586 -0.24910957 -0.30092955 -0.40322086 -0.20120905 -0.10973752
-0.082098536 -0.19237864 -0.18483645 0.069546215 -0.027013235 -0.22037095 -0.29676878 -0.23887707
-0.27882558 -0.3181678 -0.11834165 0.16211818 -0.071879655 -0.12503825 0.0039271708 -0.008929139
0.05567174 -0.20601104 0.05440495 0.04032653 -0.17854461 -0.60834527 -0.0940418 0.036476687
0.07351685 -0.29175803 -0.044406727 0.02575235 -0.15524897 -0.30924332 0.004120668 0.022817193
0.029702958 -0.31318155 -0.16766743 -0.030275624 -0.35854468 -0.22463666 -0.11418411 -0.12606844
-0.11376319 -0.0058678593 -0.007989849 -0.15299276 0.02526196 -0.14516442 -0.1732238 0.003617331
0.012955958 0.015495396 -0.20136802 -0.036310874 0.018268203 0.120903164 -0.16097973 0.014405372
0.06462326 0.05087379 -0.36078164 -0.2463921 -0.07792831 0.1066637 -0.049167812 -0.08382716
0.109960444 -0.1735733 0.17537047 0.26815185 -0.025209099 -0.15909281 -0.07858926 -0.14653653
0.23773828 -0.083953895 0.13356218 -0.04004363 -0.07007475 -0.02131559 -0.19138554 -0.16921107
-0.0115546 -0.02690336 0.09684456 -0.19760193 -0.27254295 0.0021263221 0.17031832 0.11757068
-0.1762225 -0.31947193 -0.30468285 -0.004930433 -0.33720204 -0.2488535 -0.10020381 -0.073923245

feature1.0.bias f4 [6]
00000000: 9957 4f3e 0465 14bb 866a c7be eb9e 86bc
00000010: 159e 6b3c dea8 6ebc
0.2024826 -0.0022643218 -0.38948458 -0.0164332 0.014380951 -0.014566628

fc2.weight f4 [200, 1200]
00000000: 64e9 583d 6947 9abb b085 e3bd 7bb6 983d
00000010: 2cb7 84bd a190 d8bc ea07 c33b aa67 ebbd
00000020: 1ce7 f8bd 53bb bb3d d362 943d ae9c af3d
00000030: b7d0 db3c 9b6e 85bb 0547 f4bc f04f 4b3d
00000040: 4e16 d8bd e306 273b 24e8 51bd eb12 21be
00000050: be59 5ebe 02cd 913c c614 5cbe c3d2 ca3c
00000060: 4d3c ffbc 721a f4bc 9bda d93c 188f 673d
00000070: 3694 703d c4b0 d13d e72d 78be fd15 49be
00000080: e345 bf3d 9355 5bbe 7685 60bc 878a 66bc
00000090: ffd8 cb3b 220c 45bd 8683 f93d b9ac 39bd
000000a0: a22a cfbc 1df7 cc3d e87e 36be 827f 34be
000000b0: 3ef0 173d c300 f3bd 738b b53d fb4d 35bd
000000c0: 4ab5 51bd 1790 f4bc 5701 67bd b9ed 3fbe
000000d0: c2af febc 19d6 b83d 0386 0bbd 0ff5 10be
000000e0: bb84 2d3d f36a 46bc f5fe f93c 9083 2c3e
000000f0: 5bc5 83be bfb3 283d 0ede de3c 8059 583d
00000100: dc1f f3bd 9464 6cbd 61e1 0fbe db10 aebd
00000110: 170d 97bc 9c0f b83d cda3 c1bd 9a4b 08be
00000120: c754 0a3e f0c1 6abd 7a65 11be 41f1 67bc
00000130: 8db7 85bc bf24 c2b9 d8e6 cd3d f3ad 75bd
00000140: ed1a ab3c 7da9 a63c 61eb 883d 6406 6bbd
00000150: d7cd d53d 80b3 62bc 706b 0fbe 6a90 b3bc
00000160: 192d 083e fa30 bebd 79c0 23bd 510c bd3d
00000170: d52e 8ebe ebcc f2bd dbb1 7ebc b1ba 0ebe
00000180: 36b4 6339 9314 7ebd edd1 bcbd 163c ffbc
00000190: 790a d23c d065 fbbc 70b7 9dbe 63ed c43d
000001a0: 546d febb 3359 eebc 0a7d 85b9 6aaf 9f3b
000001b0: 4e65 fe3d 0aaf bbbb 953a 113e f121 30be
000001c0: c3fd 0cbd f2de b83d b5ed 72be 292b c5bd
000001d0: 641e a1bd 64b7 a03c e4e6 84bb 8a03 0f3b
000001e0: 4df5 423d f865 08be c8d9 f33d b187 84bd
000001f0: a535 febd fbda 663e 4539 3d3d db6d 16be
00000200: ab2d d7bd a123 c8bc b9fa 3cbd 5346 44bd
00000210: 7d29 753e d4e6 64be 4224 533e 47ab 4d3d
00000220: a428 2ebd 92c7 8abd d0d7 703d 3478 19bd
00000230: 7d7e f0bd a292 0f38 c509 ebbb 2d70 ffbd
00000240: 336f 613d 67ab 13bd c19f 77be cc6a c9bc
00000250: 4d20 58be 2d6e 0ebd 1edb b0bd a567 683e
00000260: a2e2 3dbe a97e c63d 79fc 26be 5920 d5bd
00000270: 53e9 19bc 67a3 edbd 0e0d 27be 46b4 29be
00000280: 9d9a 71be 14d9 8c3d 9ad0 6bbe 37ab 393e
00000290: 1bab 9abd 77ae 5bbc 2859 013e 8bf2 5abd
000002a0: 5ed4 0b3b 83c3 1e3e 9079 7e3d a638 fb3c
000002b0: 3544 2e3d b7ec 67bc 82a7 e5bd 77e2 123d
000002c0: 00f0 953d 9be9 d0bd f634 1cba d6c5 98bc
000002d0: b489 3bbe b9d6 4dbd 1182 24bd 49df b1bd
000002e0: 45c0 a0bd 99fa 9e3c a5e1 de3d 5851 fcbd
000002f0: c85a 7abe 16c0 2fbd 7b13 da3c 7a53 b5bd
00000300: 113d 183d 38e6 b7bd f491 993d a777 d0bd
00000310: ea41 e53b ff8c 0cbd 2c5e d23d 400b 9dbd
00000320: 7fae 803c 3af2 26bd f6da 093d 45b2 013d
00000330: 5afc 00be 5434 603b 4eb9 f9bc b914 86bd
00000340: da1e 553d ac5e 4ebe 74a3 f7bc 034d 6f3d
00000350: 142d 3d3d 2d12 2abd 5e9d 6d3d c00b e6bd
00000360: 2c04 85bd 8744 31be 4d2e 8f3c 025f 6ebe
00000370: 03fe f93d 6398 aa3d 2cfe 003e b8a2 913d
00000380: 6a2e f2bd 748b 2dbe 25ef 58be dd94 f4bd
00000390: bc22 b53d 409a 90bb 9b20 653d a389 413e
000003a0: f845 67be a5f8 90bd 9714 c1bd 20ac 1bbe
000003b0: e5cf 71bd d798 0bbd 2109 8fbd 8acb 203e
000003c0: 3479 383e 898e 163e 6bf7 3cbd 25a7 fc3d
000003d0: 2664 96bd 5fd1 7ebd 26c7 49be 8695 5d3e
000003e0: 143b 8bbe fbb6 2e3d 336c 8bbd 8b36 72be
000003f0: 4ca1 bd3d 4bf8 4bbd ccd5 07be 2b48 c1bd
0.052956954 -0.00470822 -0.11109483 0.074566804 -0.0648025 -0.026436152 0.005951871 -0.11494382
-0.121534556 0.09166589 0.07245412 0.08574806 0.026832921 -0.004072023 -0.029819021 0.04963678
-0.10551129 0.0025486283 -0.051246777 -0.15729873 -0.21713921 0.01779795 -0.214923 0.024758702
-0.031156683 -0.029797766 0.026593497 0.05653295 0.058735095 0.102387935 -0.2423626 -0.19637294
0.09339502 -0.21419363 -0.013703695 -0.014071113 0.0062209363 -0.048107274 0.12183289 -0.045330737
-0.025288884 0.100080706 -0.17821848 -0.17626765 0.037094347 -0.1186538 0.088644885 -0.04426382
-0.05119828 -0.029853864 -0.056397762 -0.18743028 -0.031089667 0.09025211 -0.03406335 -0.14155982
0.04236291 -0.01211046 0.03051708 0.16847062 -0.25736508 0.041187044 0.027205493 0.05281973
-0.11871311 -0.057713106 -0.14050819 -0.08499309 -0.018438859 0.08987352 -0.09455071 -0.1331009
0.13508902 -0.05731386 -0.14198866 -0.0141566405 -0.016322875 -0.0003702994 0.100537956 -0.059980344
0.020886863 0.02034449 0.0668552 -0.05737914 0.104396515 -0.013836741 -0.14005828 -0.021919448
0.13298453 -0.09286685 -0.039978478 0.09230865 -0.27770105 -0.11855491 -0.015545334 -0.13938405
0.00021715541 -0.06203134 -0.09219728 -0.03115658 0.02563976 -0.030688196 -0.30804014 0.096155904
-0.007764498 -0.029095268 -0.00025460898 0.004873206 0.12421666 -0.0057276534 0.14182504 -0.17200448
-0.034421694 0.090268984 -0.2372349 -0.09627373 -0.07867125 0.019618697 -0.0040558446 0.0021822178
0.04759722 -0.13320148 0.11906773 -0.064711936 -0.12412576 0.22544472 0.046197195 -0.14690344
-0.10506757 -0.024431052 -0.046137545 -0.04791863 0.23941608 -0.22353679 0.206193 0.05021217
-0.042519227 -0.06776346 0.058799565 -0.03746815 -0.11742876 3.423042e-05 -0.0071727955 -0.12472568
0.05503769 -0.036052134 -0.24182035 -0.024587058 -0.21106072 -0.03477304 -0.08635543 0.22695787
-0.18543485 0.09692127 -0.16307248 -0.104065605 -0.009394008 -0.11603432 -0.16313574 -0.16572675
-0.23594137 0.06877342 -0.23028794 0.1813172 -0.07552167 -0.013408295 0.12631667 -0.053453963
0.0021336298 0.1550427 0.06212765 0.03066666 0.042545516 -0.014155558 -0.1121359 0.035860505
0.07321167 -0.10200807 -0.00059588195 -0.018649023 -0.18314248 -0.050253604 -0.040163103 -0.086851664
-0.078491725 0.019406604 0.10882882 -0.123202026 -0.24448693 -0.042907797 0.026620617 -0.088538125
0.037167612 -0.089794576 0.074985415 -0.10179072 0.006996383 -0.03431415 0.10271868 -0.076681614
0.015708206 -0.04075835 0.033656083 0.03166415 -0.12596264 0.0034210877 -0.030483868 -0.06546921
0.052031375 -0.20153302 -0.030229308 0.058423053 0.046185568 -0.04152124 0.058011405 -0.1123271
-0.06494936 -0.17311297 0.017478133 -0.2327843 0.12206652 0.08329847 0.12596959 0.07111114
-0.11825259 -0.16947728 -0.21184976 -0.11942456 0.08844516 -0.0044129193 0.055939298 0.1890016
-0.22585285 -0.07078675 -0.09427755 -0.15202379 -0.059036154 -0.034081306 -0.06984163 0.15702644
0.18014985 0.1470281 -0.046134394 0.12336568 -0.073433205 -0.06221139 -0.19704875 0.2163907
-0.2719351 0.042654973 -0.06807747 -0.23653619 0.092592806 -0.049797338 -0.13265151 -0.09437593

fc2.bias f4 [200]
00000000: e037 8f3d 88c5 83bd 2960 313d b082 74bc
00000010: df08 543e 3394 cfbd 1a7a f83c ea78 b5bd
00000020: e3c7 093c 4721 863d bb1f a33d f7db 16bd
00000030: 81a8 de3d 29a7 8abd 9855 ccbb f4e5 0bbe
00000040: a1ca adbd 797d d8bd 8ee2 cbbc e1c5 e8bc
00000050: afd2 84bd 0e03 d7bc 7e71 7d3d 0106 85bd
00000060: f6a6 94bc a338 04be ecbe cdbc a31b 4dbd
00000070: 5a57 68bd cc03 85bc 8ffb ccbd deb6 febc
00000080: b60e 61bd 4eb7 a7bc 0533 18bd ee36 b2bb
00000090: e799 c4bd e1ee 3cbd 1344 d3bd 0bea eebd
000000a0: 9503 1e3d fa34 5a3d fcd2 ba3d e03d 3cbe
000000b0: 1b9e 733d cac1 933d 8c46 95bc ef10 5b3e
000000c0: 6604 cdba 61f9 413d 25dc 3cbd c761 f0bd
000000d0: 2fd2 b1bc 3560 65bc acdc 4f3e 8542 d5bb
000000e0: 0fca c3bd 7bda a23d f41c 663a eb32 f8bd
000000f0: 357a cebb 4532 033d c88d aebd dc7f da3d
00000100: 1566 c4bc 7d47 a0bd 5707 45bd 31d8 e9bc
00000110: c3e3 b1bd 05b3 a1bd cbd5 9f3d d13e 0ebd
00000120: 08d7 1d3d d0ec 36bd 0a9a 343d f118 06be
00000130: 5092 ab3d 98b4 beb9 884f f83d b246 b6bd
00000140: 8065 d7bd 0546 b2bc a60d 3a3c c9b9 9abd
00000150: 9881 ff3d 4e33 72bc 02f5 74bd c957 07bd
00000160: a38d 863c 1af7 9e3d c8bd a63c d58d 80bd
00000170: 31f1 36bc 40ea a63c fdd2 993d acdc 54bd
00000180: f34b b33d 3a08 ffbd 4dbe 5b3c d07d 96bd
00000190: b91d dabd 7134 a9bd db85 6a3e 1dbc 8b3c
000001a0: 9627 043b 1538 883c 5d07 213e 7e53 7fbd
000001b0: 8491 94bd 7106 08bd e6b1 b4bd 1caa 053d
000001c0: 108b 5238 9b16 30b9 b1f1 88bd eeb1 02be
000001d0: 55ff 493d 2127 8ebd 9374 afbd df34 81bd
000001e0: 88c1 4dbd b153 35bd df38 ebbd 440b 81bd
000001f0: 27a0 88bd fbaa cc3d 6596 883d 6092 00bd
00000200: f1e4 c63d ab0c d53c 201f 3abd 8e01 fc3b
00000210: a7f6 1b3d bfe2 76bd e150 063e dfd0 883d
00000220: 73ee b0bd 9dac 57bc 153e f9bb 6516 32bd
00000230: 0720 063d cce1 813d c05d a83c 8763 c9bc
00000240: 2470 0cbd 8620 9e3d f2da cebd f1d4 003d
00000250: 46ce ec3c 2841 a2bd 4eef a2bc edc6 553d
00000260: fe70 a5bd 3a93 dc3d 7d9a 81bd f9b1 a8bd
00000270: e2a2 113d ce3e 11be 915b 763c 7682 a6bb
00000280: de9e 8ebb 06db d13d ff59 1abd db8d bbbd
00000290: 8a30 3dbd d75a 7a3d 961c 86bd 4661 38bc
000002a0: ad97 6c3d c160 14bd f13e 90bd eae2 5ebd
000002b0: 3a3a c23c a4e6 da3c 5149 02be 3d9d 11bd
000002c0: a7e4 0a3d dfa0 a73d 839e 91bd a4ec 393e
000002d0: 377e 84bd 1d16 bfbd de7e 36bd 3553 483d
000002e0: cedc 90bd 40ae 7b3d 0d80 07bd 1002 8d3d
000002f0: a74f 2cbd 3f46 98bd 8d63 613e d980 05be
00000300: 74c3 91bd ef7c 91bd 5327 a13d 52e0 963b
00000310: 55c7 c23d 6323 0abe de09 12bd 757c 5a3d
0.06993079 -0.064341605 0.043304596 -0.014923736 0.20706509 -0.10135689 0.03033166 -0.08860953
0.008409473 0.06549316 0.079650365 -0.03683087 0.10871983 -0.067701645 -0.0062357895 -0.13661939
-0.08485914 -0.10570807 -0.024888303 -0.028414669 -0.06485497 -0.026246574 0.061875813 -0.06495286
-0.01814602 -0.1291223 -0.025115453 -0.050075185 -0.05672393 -0.016237162 -0.100089185 -0.031093057
-0.05494567 -0.020473149 -0.03715803 -0.005438677 -0.09599667 -0.04612625 -0.103157185 -0.11665734
0.038577635 0.05327318 0.09122273 -0.18382978 0.059476953 0.07214697 -0.018222116 0.21393178
-0.001564157 0.047356967 -0.046108384 -0.117373995 -0.021706669 -0.013999988 0.20299023 -0.006508174
-0.09560024 0.07951828 0.0008778118 -0.12119087 -0.0063011893 0.032030363 -0.085231364 0.106689185
-0.023974458 -0.07826135 -0.048102703 -0.02854547 -0.0868602 -0.078954734 0.0780445 -0.034727875
0.038535148 -0.044659436 0.044092216 -0.13095452 0.08377516 -0.00036374177 0.121245444 -0.08900203
-0.105174065 -0.021761904 0.011355793 -0.07554967 0.1247589 -0.01478274 -0.05980397 -0.033042703
0.01642496 0.07761975 0.020354167 -0.06277052 -0.011165903 0.020375371 0.07510946 -0.05196826
0.087547205 -0.12452741 0.01341207 -0.073482156 -0.106502004 -0.082619555 0.22902624 0.017057473
0.0020165197 0.016628304 0.15725465 -0.062335484 -0.072543174 -0.033209268 -0.08822994 0.032632932
5.0197414e-05 -0.00016793089 -0.06686724 -0.12763187 0.04931577 -0.06941057 -0.08567157 -0.063089125
-0.050233394 -0.044269267 -0.11485457 -0.06300977 -0.06671172 0.099935494 0.066693105 -0.031389594
0.09711636 0.026007017 -0.04543984 0.007690615 0.038077023 -0.060274836 0.1311679 0.06680464
-0.086392306 -0.013163713 -0.0076062777 -0.04347839 0.032745387 0.063418955 0.020552516 -0.024583591
-0.034286633 0.07721047 -0.10100354 0.031453077 0.028906953 -0.07922584 -0.0198895 0.052191664
-0.08078192 0.10770269 -0.063282944 -0.082370706 0.035555728 -0.14184114 0.01503648 -0.00508147
-0.0043524345 0.102468535 -0.037683483 -0.09157916 -0.04618887 0.061121788 -0.06548421 -0.011253661
0.057761837 -0.036225084 -0.07043255 -0.05441562 0.023709405 0.026721306 -0.1272328 -0.035550345
0.033909466 0.081849806 -0.07110312 0.18156677 -0.06469386 -0.0933039 -0.044554584 0.048907477
-0.07073365 0.061445475 -0.033081103 0.06885159 -0.04206815 -0.074352734 0.22010632 -0.13037433
-0.07117358 -0.07103907 0.078688286 0.004604378 0.09510676 -0.13490061 -0.03565394 0.053341348

action_head.weight f4 [6, 200]
00000000: ff98 0a3e 3dd7 eb3d 14e0 aabd 260f 8a3d
00000010: 3a6d 743d 5aec e5bc 3599 123e 264f 4fbb
00000020: 460a 81bd d735 7d3d 63b2 773d c7ef 4fbe
00000030: 3377 54be 20a8 01be be93 80bd 16d6 d8bd
00000040: 30df 183d a85b ce3d 032c a3bc 3709 853c
00000050: e8c7 393d be31 87bd d156 45bd 0acb 933c
00000060: b0f5 263e 2c89 b8bc 448e 4dbe bdbc 31be
00000070: 4237 af3d fbaa bfbd 6207 893d 6bf1 f93d
00000080: c051 d7bc e2c4 9b3c 97ff d4bb 6c87 a83c
00000090: e7d4 dabd fde8 463d 1d28 0ebe b4b2 f33d
000000a0: fad2 94bc 197f b63d 1315 9cbd 1fd7 aa3d
000000b0: a297 0bbe aae2 f93d 32c4 e4bd a02d 97bd
000000c0: bda7 acbd adb4 19bc d85e 20be 444b f73d
000000d0: ab68 f1bc dfe8 c33b 8ca5 4fbe bb15 563d
000000e0: 87ea 34bd e86c 16be d96e 6ebd b92f 243d
000000f0: 055e 92bc 42ad 17bd c89d b4bc c73f b43d
00000100: 7fd8 cb3b 4085 603d 82cc f83b 2cde 7f3d
00000110: cdc6 ef3c abdf 1a3e be81 63bd a840 37be
00000120: c85e 0abe 68c4 34be a66e 243e 81ad 99ba
00000130: 7a28 5abd 2bac 393d f4da b23d 692c 36be
00000140: 8649 0cbe fd00 813d 2619 79bd 5eef c13d
00000150: 0a17 7fbc a708 7bbd c5cb f2bd d2ea ae3d
00000160: 669a 8d3d 7f1a 8abd e515 d9bd 47aa 413e
00000170: 85e0 c93d 39e5 95bc e2f9 923d b24f e93d
00000180: 025b 05bd b631 6e3c 9fd2 9d3d ed5a 6abc
00000190: d330 763d eaf8 b43d cb07 20be 03ab b53d
000001a0: 4fa2 f4bd ce9a cabd d261 a1bd 143a a1bd
000001b0: bccd 153e 7285 97bd c2af 243c 2ec5 5ebe
000001c0: 21ae 4f3e 36dd 743c a674 da3d 050f a13d
000001d0: 9017 b9bd 1817 90bd 2838 10be 2bbf 813d
000001e0: 401d 0a3e a0a0 aabc fa34 25bd 1b9d f33c
000001f0: 80a7 a63b 2b41 c53d dd09 433c e928 e63c
00000200: 6b56 253d c82c 97bb 47e6 0f3e 1a4b 2b3d
00000210: ee9e a93d 321a 88bc db9e c43d 7b10 4cbe
00000220: c205 b6bc 5ac8 46bd c8fd 67be e1f3 a93d
00000230: e980 96bd 6c5e 1a3e 4ed1 f43d da7d 703c
00000240: cede 64bd 38d1 033e 4503 9c3d 01f2 ea3c
00000250: 4c0a 4b3d 5404 0f3e c04f 333d 9cdf aa3d
00000260: 872b 183e 144e ab3d f395 b43d 6163 10be
00000270: 555d 74bd 5f7d aa3d 6f6b f7bc f3a1 d73d
00000280: cd8b f5bd 7787 0ebd 48d4 03bd 30cc 2f3e
00000290: b8fd 223e d508 823c 4830 39ba 7aa9 8ebd
000002a0: c681 953e 7d1b 62bc bc9c c73d 293e 223e
000002b0: 3d4d 50be 3b78 3fbd c81a 15be 6eb8 0ebd
000002c0: a356 84be 37dd 5ebd b4aa 3bbd c8ba fa3d
000002d0: 6219 0e3e 503b bb3d 7727 cbbd f186 b23d
000002e0: 9c81 83be cfe1 82bb 3735 943d 975c ee3d
000002f0: 77b9 a33b a36d 963c 4e93 bdbc 18d0 0abd
00000300: 7276 9f3d ee2b cc3c 1a0a 10bd fbd6 b63d
00000310: e660 3cbe 670f e63c 6731 c13d 64ea 0e3d
00000320: 24c7 273e 8a32 e53c d983 eebd a656 dd3a
00000330: ef53 09be 0ee2 373d ac33 78bd 47e0 bc3d
00000340: 6771 af3d f1de e8bd d3e6 973d a929 c2bd
00000350: ff2e bc3d 9bdb 823d 6f98 ad3c 8ec6 38bd
00000360: f94e 87bd c046 5f3d 61c9 1c3d ced8 1f3e
00000370: ad5d 62bd 6f16 d3bb 43da 053e 4623 e13c
00000380: 9d05 073e 528a 1bbd a743 043d 5384 d1bc
00000390: 15d1 0d3e 1431 123d db28 88bc 6268 d63b
000003a0: 427e 803d b52f 0fbd 1eb2 af3d 9530 f53d
000003b0: 511b 3d3d ff74 28bc 1ca0 2f3e a60c a7bd
000003c0: d4d5 efbc fb51 8fbe ac6f 903c 9ef0 28be
000003d0: 8d45 143e be2f ad3c 15c2 ac3d 6578 1ebe
000003e0: f231 1f3e 8112 923c 0943 74bd b40d 1a3a
000003f0: 1a76 e33d 988a 403e 081e 30bd ed6e 47be
0.13534926 0.11515663 -0.08343521 0.067411706 0.05967448 -0.028066803 0.14316256 -0.003163287
-0.06300788 0.061818924 0.060472857 -0.20306312 -0.20748596 -0.12661791 -0.062781796 -0.10587709
0.037322223 0.10076076 -0.019918447 0.016239746 0.04535666 -0.066012844 -0.048178498 0.018041153
0.1630466 -0.022526346 -0.20073801 -0.17357154 0.085554615 -0.09358784 0.06690861 0.1220425
-0.026284099 0.01901478 -0.0065001952 0.020572387 -0.10685139 0.04856204 -0.1388249 0.11899319
-0.018167008 0.08910961 -0.07621207 0.08341812 -0.13632062 0.12201436 -0.11170234 -0.07381749
-0.08430431 -0.009381455 -0.1566118 0.12074903 -0.029468855 0.005978688 -0.20277995 0.052266818
-0.044168975 -0.14689982 -0.05821118 0.040084574 -0.017867098 -0.037030466 -0.022047892 0.08801227
0.0062208767 0.054814577 0.0075927386 0.06246774 0.0292696 0.15124385 -0.055543654 -0.17895758
-0.13512719 -0.17653048 0.16057834 -0.0011724682 -0.053261258 0.045330208 0.08733168 -0.17790379
-0.13699922 0.062990166 -0.060815 0.09469484 -0.015569458 -0.06128755 -0.11855272 0.08540882
0.06914215 -0.06743335 -0.10599879 0.18912612 0.09857277 -0.018297778 0.071765676 0.11392154
-0.032557495 0.014538219 0.077061884 -0.014303905 0.060105156 0.08836539 -0.15627973 0.088705085
-0.119450204 -0.09892808 -0.07879986 -0.07872406 0.14629263 -0.073984995 0.01005167 -0.21754906
0.20281269 0.014945319 0.1066678 0.07864193 -0.09037697 -0.07035655 -0.14083922 0.063352905
0.1348772 -0.020828545 -0.040333726 0.029738 0.0050858855 0.096315704 0.011904207 0.02809568
0.040365618 -0.0046134926 0.14052688 0.04181967 0.082822666 -0.016614053 0.09600612 -0.19928162
-0.022219542 -0.048530914 -0.22655404 0.08298469 -0.073488064 0.15075082 0.11953984 0.014678443
-0.055876546 0.1287278 0.07617811 0.02867985 0.049570367 0.13966495 0.043777227 0.08343431
0.14860354 0.083645016 0.08817663 -0.1410041 -0.05965932 0.08324694 -0.030202596 0.10528936
-0.119895555 -0.034797158 -0.03218487 0.17167735 0.15917099 0.015873352 -0.00070643844 -0.06965919
0.29200572 -0.013800499 0.097466916 0.15844025 -0.20341964 -0.04674552 -0.14560997 -0.034843855
-0.2584735 -0.054410186 -0.045817092 0.12242657 0.1387687 0.09142172 -0.09919637 0.08717144
-0.25684822 -0.0039942036 0.072367124 0.11638754 0.0049964744 0.018362826 -0.02314153 -0.03388986
0.077862635 0.024923291 -0.035165884 0.08927723 -0.18396339 0.028083516 0.09433251 0.0348915
0.1638456 0.0279782 -0.11646242 0.0016886785 -0.13410924 0.044893317 -0.060596153 0.09222465
0.08566552 -0.11370648 0.07417073 -0.09480602 0.09188651 0.06389543 0.02119085 -0.04511123
-0.0660686 0.05451083 0.038277987 0.15610048 -0.055265117 -0.0064418833 0.13071541 0.02748264
0.13185735 -0.03797371 0.03229108 -0.025575792 0.1384929 0.035691336 -0.016621044 0.006543205
0.06274082 -0.034957606 0.08578895 0.11972157 0.04616863 -0.0102818 0.1715092 -0.081567094
-0.029276766 -0.27992234 0.017631374 -0.16498038 0.14479657 0.02114093 0.08435456 -0.15475614
0.15546396 0.017831089 -0.059634242 0.0005876676 0.111065105 0.1880287 -0.04299739 -0.19475909

action_head.bias f4 [6]
00000000: 1b24 e4bd 49a7 463c 0a32 3fbc 5673 26bc
00000010: 5f20 553d 923a 353d
-0.11139699 0.012124845 -0.011669645 -0.010159334 0.052032825 0.04424531
