text_cnn/param/net_param/la28_critic_net.model (torch, 965527 bytes, 5 tensors)

feature1.0.weight f4 [6, 3, 5, 5]
00000000: 0b06 c2be 42e2 13bf 0c77 1abf d76a c23c
00000010: 527f 7d3e 0bbe 303f f665 bebd 2f0e 3c3e
00000020: dc8a 0f3e a649 d8be a8c5 ee3e 380f 113e
00000030: d1e1 8d3d 4652 ab3d 6016 093e 35f5 b23d
00000040: 5aee 3ebf 928a 3abe b17b fdbd 33aa 733c
00000050: b4cb 1ebf 8b4f 15bf bd4c d7be e7a0 e0be
00000060: e73c 033c 6211 07be 4f10 3cbe 289c b9bd
00000070: 29f7 dfbe e51a 34bf 9400 00be ecd5 d6bd
00000080: e100 45be 06b6 f2bd db98 2cbd d3d0 a9bc
00000090: a6cb 24bd e1bb 9fbe cd67 80bd 4656 02be
000000a0: 4ec5 fe3c 4249 debd c15f c2bd 2a57 dbbd
000000b0: e574 38be 4bf4 d7be 0ded dfbd 86e9 45bd
000000c0: 6fe7 b53c ddf8 2cbe 6e54 43bf 7925 a7be
000000d0: 8274 01bf 3d98 d9be 5883 9b3e 0727 ebbe
000000e0: 87b7 89be 5973 9dbe e5b9 76be 01c0 26bf
000000f0: 03b1 253d 3bf1 cfbe 541a a53e ffa4 773f
00000100: fa2e e03f 620f 8b3e edfc 08bf 8d89 2fbe
00000110: cd58 b9be 695d a83d 3890 8ebf e369 59bf
00000120: 400d 5ebf 885b 95be ac07 443f ffc6 ddbf
00000130: 84f2 cdbe 93dd 323e 4f00 fbbc e326 723d
00000140: cbc1 05be 84a8 b3be 9530 2e3e 26c3 f63d
00000150: 2604 993e c34d 40be 30ad e9be 3c26 b43d
00000160: 7509 853e 2eb0 a53e 476f 82be bf1b e5be
00000170: 18d0 9a3d 4906 933e 0fad 993e 33f7 09bf
00000180: e1e7 f4be d071 0c3e af65 533e 1039 393e
00000190: 049b 0abe 91f3 53bd d21f 71bd dc25 edbe
000001a0: de84 5fbf 3820 843c 978e cabd 4f10 ecbd
000001b0: ab00 12bd 7a80 bfbc f257 f6ba c1ae 8dbd
000001c0: 2bcc 77bd f17d 7dbb c3ab 3f3b 8b83 a5bd
000001d0: ec49 17be 5107 3ebd 59f2 0abe 6736 92bc
000001e0: be71 66bd de87 753d e8d7 32be 65bf 94bd
000001f0: 7a12 0d3d 9724 30c0 a291 07c0 e5b4 3fbe
00000200: 74ac 6bbe 5797 613d 1f05 743e 6e73 64bf
00000210: c5c0 13bf 4169 55be f395 25be f449 a8bf
00000220: be2f a3bf 84e1 03bf 3194 c9be 1c37 0a3d
00000230: 4357 f23d c709 02be 8977 123e be04 3dbd
00000240: b37b 823e 7a8d b1bf 6c1f 35bf d39b 14bf
00000250: e12f 9ebe 497b ff3c 6137 3c3e 42e5 0b3e
00000260: 9710 8ebd 3415 b5be 1c92 6c3e fe65 8abe
00000270: b39a 023f eef9 ba3e 10bb 6bbd 76e0 2d3d
00000280: 19f1 95bf 8054 01be 785b 073d 2d60 21be
00000290: 1fc5 6f3e b512 b9be 49f1 b3bc 958f 043d
000002a0: eb51 0ebd a1ce 773e 6418 b8bd d020 fd3e
000002b0: a178 2cbe c2e0 45bd e811 1a3e 3af5 bcbd
000002c0: cda2 f4bd bb5f 85bd 59e8 7ebf 0834 14bf
000002d0: b476 25bd 7d7b 02be c17a 2a3d 66f8 84be
000002e0: d394 93bd b9d7 aebd d44d 96be 3062 92bd
000002f0: ff93 21be 15a8 c7bd 56ca 07be f48f adbc
00000300: 6e13 e9bd bf81 05bd 25eb b8bd b491 a4be
00000310: dc18 37bd 6c30 88bd 22f2 37be a4c3 a1bd
00000320: 7c2a 92be 4093 51bf 463f babe fff8 f6be
00000330: 4dfd b9bd e669 cdbe 2cc9 233f 1fbc bc3e
00000340: 86b0 013e 27dc 193e ddc4 8ebf c726 45bd
00000350: 6fe7 f6be 1fe6 0bbf c409 b7be 75a0 c5be
00000360: 245d cfbe c645 93be fca3 233e dc71 d7be
00000370: 6374 a3be 6eac 2c3f 0272 82be 737b a03e
00000380: a0dc 5e3f faf2 4dbe eb3d 07be 1818 c53c
00000390: cf31 6e3e a035 00bd 9096 573f 5787 37be
000003a0: 3ee3 ed3e a0ae 353e a0d1 0abe 1516 cb3d
000003b0: 74ae bcbe 8319 083e 0407 cebd f16f 6f3e
000003c0: 9c53 d63e 82f1 72be 4470 6d3e be27 153e
000003d0: 93ba d53e c713 fbbe 5942 853e bb91 043e
000003e0: 5d94 ca3e a186 223f c504 8dbd ecd2 85be
000003f0: 08d1 cabe e573 06be 48bb 0bbd a69a 3dbe
-0.37895235 -0.5776712 -0.603379 0.023732586 0.247556 0.6903998 -0.09296791 0.18364786
0.14017814 -0.4224369 0.46635175 0.14165962 0.06927837 0.08365302 0.13387442 0.08738176
-0.74582446 -0.18216923 -0.12377108 0.014872122 -0.62029576 -0.583245 -0.42050734 -0.4387276
0.008010126 -0.13190225 -0.18365596 -0.090629876 -0.43743256 -0.7035354 -0.1250022 -0.10490021
-0.19238617 -0.118511245 -0.04213796 -0.020729458 -0.040233277 -0.31198028 -0.062697984 -0.12728223
0.031099942 -0.108538166 -0.0949092 -0.107099846 -0.18013342 -0.42178568 -0.10933886 -0.04831841
0.022205083 -0.16891809 -0.76300704 -0.32645777 -0.505684 -0.4249896 0.30373645 -0.45928213
-0.26897833 -0.30752066 -0.2409435 -0.65136725 0.040452015 -0.40613732 0.3224665 0.9673614
1.7514336 0.27160174 -0.53510934 -0.17142315 -0.36200562 0.082209416 -1.1137762 -0.84927195
-0.8673897 -0.29171395 0.76574206 -1.7326354 -0.40224087 0.17467336 -0.030639796 0.059119117
-0.13062207 -0.35089505 0.1701072 0.1204894 0.29885978 -0.18779664 -0.45639944 0.08796355
0.25983778 0.32360977 -0.25475523 -0.4474773 0.07559222 0.28715733 0.30014846 -0.5389282
-0.4783316 0.13715291 0.20644258 0.18088174 -0.13535696 -0.051745955 -0.058868237 -0.46317947
-0.87312114 0.016128644 -0.09890478 -0.11526548 -0.03564517 -0.023376692 -0.001879452 -0.06918097
-0.060497444 -0.0038679803 0.0029246665 -0.080817305 -0.14774293 -0.046393696 -0.13569011 -0.017848207
-0.056260817 0.059944026 -0.17465174 -0.07263068 0.03444145 -2.7522333 -2.1182637 -0.1872135
-0.23015004 0.05507597 0.23830079 -0.8923863 -0.5771602 -0.20840932 -0.16170482 -1.3147569
-1.2748945 -0.51515985 -0.39370874 0.033743963 0.1183305 -0.12699042 0.14303412 -0.0461471
0.25485 -1.38713 -0.7075107 -0.5805027 -0.30895904 0.031186717 0.183805 0.13661674
-0.06936758 -0.3536774 0.23102611 -0.2703094 0.510173 0.36518806 -0.057551444 0.04245039
-1.1714202 -0.1262989 0.033046216 -0.15759344 0.2341504 -0.36147085 -0.02196564 0.032363493
-0.03474609 0.24199916 -0.08989027 0.49439096 -0.16842891 -0.04831005 0.15045893 -0.09226461
-0.11945114 -0.065124 -0.99573284 -0.57891893 -0.040396407 -0.1274242 0.041620973 -0.25970763
-0.0720612 -0.085372396 -0.29356253 -0.07147634 -0.15779112 -0.09748856 -0.13260779 -0.021186806
-0.11380659 -0.03259444 -0.09029225 -0.32142413 -0.044701442 -0.06649861 -0.1796346 -0.078986436
-0.28548038 -0.8186531 -0.363764 -0.48236844 -0.090815164 -0.40119857 0.6397884 0.36862275
0.12664995 0.15025388 -1.1153828 -0.048132684 -0.48223445 -0.5464801 -0.35749638 -0.38598981
-0.40500748 -0.2876417 0.15980524 -0.42079055 -0.31924734 0.67450607 -0.25477606 0.31344184
0.870554 -0.2011222 -0.13207214 0.02405934 0.23261188 -0.03130114 0.84214115 -0.17922722
0.46462435 0.17742395 -0.13556528 0.09916321 -0.36851847 0.13290982 -0.10059932 0.23382546
0.41860664 -0.2372494 0.23187357 0.14565942 0.41743907 -0.49038526 0.26027182 0.12946217
0.39566317 0.6348668 -0.06885675 -0.26137483 -0.39612603 -0.13130148 -0.034114152 -0.18516025

feature1.0.bias f4 [6]
00000000: 86c0 373e 7809 ba3e 3559 893e 4aef 78bc
00000010: b879 743e 6fcf b63c
0.17944536 0.3633535 0.26825872 -0.01519377 0.23874557 0.022315709

fc2.weight f4 [200, 1200]
00000000: 81e6 c7bc bd72 28bc a400 f4bc b5c1 33bc
00000010: 80b4 3fbd 4a51 a3bc 6860 7dbc 2fef cfbb
00000020: 78f5 203c 8b9a 2abc 2fbe d0bc 977f 853b
00000030: b5b9 a6bc d330 2c3c d4b2 fdbc 88a5 6bbc
00000040: d0cf 5fbb 57d5 11bd d19a b8bb 7580 4bbc
00000050: 3377 d0bb f1b5 1dbd c5f2 3ebc 2cc6 fcbc
00000060: d9d1 20bd 0cd4 92bc 64de 0fbd d58c 12bd
00000070: a09b 99bc 16bc ec3b 3de4 313b 1ece 24bd
00000080: 02bb 2bbd bfdd 9dbc 5556 18bd ca4a c33b
00000090: f778 cdbb 6add 0cbd 404d 3abd 3fd0 29bc
000000a0: bc12 2abd baf5 da3b afae f0bc 95eb 09bd
000000b0: f1bf a5bb 5315 293b d418 f7bc 3116 9bbc
000000c0: 7ff6 3bbd 7e42 26bd 41f0 c8bc e7c9 efbb
000000d0: 7209 d6bc 7655 43bc 954e bcbc 3134 bb3b
000000e0: 7325 84bc f990 5bbc b99a afbb fc2f 3539
000000f0: 7bc2 b9bc c5e3 fabc a546 aebc 5de9 79ba
00000100: 74a9 febc 4325 e53b b778 09bd 002d 05bd
00000110: b81e 9bbb a408 77bc d197 c8bc 3740 d2bc
00000120: 4009 02bc e862 96bc 337e cbbc 0bd1 86bb
00000130: 8211 27bd d522 22bd a4dd 08bb 33e1 a0bc
00000140: a365 a3ba 038a 2fbb 66e6 2e3c d038 183c
00000150: 0eca 183c e1be c3bc b3cd 47bc 53cb 0cbd
00000160: 8499 3cbb b9ac ecbb 1b20 b6bc 0f15 30bd
00000170: f8d9 faba f922 393b 95cd 14bb 0a6b 81bc
00000180: 5e88 23bd 9785 94bb eabb 3fbd 81b1 abbc
00000190: e48f 00bc abde bbbc 8d0a 11bd 7b1a e1bc
000001a0: 753d 68bc 5a67 acbb daa4 04bd 91ce f13b
000001b0: 96d7 f6bc f331 16bd da57 063c 469c 0f3b
000001c0: 170d f6bc ff90 52bc 1b94 10bd a75f 51bc
000001d0: c238 c43b 8f9e 0cbd 3024 73bc 4a40 9cbc
000001e0: 1818 16bc 0f2a d6bb 5d3c 36bd 6007 f2bc
000001f0: 2023 883b 08fb 333b 5684 c53a 163c 8cbc
00000200: b52e 28bd 2611 64bc 0157 9bbb 3dcc 20bd
00000210: cfbe 29bd 8de7 23bd 5aab d3bc 1a63 cebb
00000220: 04e1 1bbc 0236 c0bc 1945 24bd 6a11 6fbc
00000230: bfb2 7fbc d78e 15bd 5b53 9d3b 4566 77b9
00000240: c627 eebc eb3b 17bd 914a f6bb 86aa 1cbb
00000250: b240 71bc 77f8 17bd bf98 32bd 2217 11bd
00000260: 02f7 3bbd 6c76 15bd 3b0e 1fbd f9d8 0abd
00000270: c0b2 06bd eba6 4abc efd6 8bbb 49d2 ccbc
00000280: 6e46 98bc d755 36bd 29a9 f5bc e2cc f2bc
00000290: 9fb3 98bb 4f72 2abd f60e 1a3c 39ef b7bc
000002a0: 9b4b eb3b d2e1 e7bb 31c7 c6bc a34e 17bd
000002b0: dd49 34bd 0c09 1fbd 4a26 acbc b227 0ebd
000002c0: 3dd5 32bd c877 04bd 1177 b7ba ea6b 7ebb
000002d0: f55d c8bc c85a 1dbd b393 b2bc 8104 49ba
000002e0: c0ed 133c 9ba6 9ebc 8899 26bc 6ec9 053b
000002f0: 9c95 22bd ff6c cdbc f143 e7bc 3526 c93b
00000300: 67e4 efbc 857f a5ba d79c e4bc 6582 bd3b
00000310: 6236 9cbc 7509 20bc e01d 36bb 8a2e 1cbd
00000320: 153b 64bc d492 b4bb 76d9 c8bc 7ea6 53bb
00000330: d191 8ebc 8564 c5bc e9e1 f2bc 7661 15bd
00000340: 0c7b 7bbc abfb ffbc ebb9 35bd 8152 5db9
00000350: 4d8f 44ba de51 b8bc 17f4 05bc 6461 e1bc
00000360: 5a3b 40bc 70d4 acbc 57a8 d53b 82ca cc3b
00000370: 1762 61bc 7f21 90bc 17ed 21bd ab18 7abc
00000380: f467 28bd ff94 3bbd bdf2 cbbc 420c 01bc
00000390: 366b c2bc 0414 ac3b 538a 88bc 1bb4 01bd
000003a0: 2d1e 12bc 9c57 e1bc 0978 b13b c7a3 c2bc
000003b0: 6487 a2bc 7be4 28bd 7bba 073c 258f 08bd
000003c0: d6f5 9e3b 6b71 83bc 70c7 243c a254 96bb
000003d0: 4784 27bb e315 193c 404a 01bd 1628 c9bc
000003e0: 3c17 b0bc b8b1 903b 60f6 69bb 8f1c 2fbd
000003f0: e0eb 363b cbd4 3abd bf24 3dbc fae9 1dbb
-0.024401905 -0.010281262 -0.029785462 -0.010971476 -0.046802998 -0.019936223 -0.01546488 -0.0063456516
0.009824149 -0.0104128225 -0.025481312 0.004074048 -0.020352224 0.0105096875 -0.030969061 -0.014382727
-0.0034150966 -0.035603847 -0.00563369 -0.012420763 -0.006361866 -0.03850359 -0.01165456 -0.030856214
-0.039262626 -0.017923377 -0.035124198 -0.03577884 -0.018750966 0.00722457 0.0027144097 -0.04023563
-0.04192639 -0.019270776 -0.037191708 0.0059598433 -0.0062705236 -0.034390844 -0.045483828 -0.010364591
-0.041521773 0.006682125 -0.02938017 -0.033671934 -0.0050582816 0.0025800064 -0.030163206 -0.01893148
-0.045889374 -0.040590756 -0.024528624 -0.00731777 -0.02612755 -0.011922231 -0.02298669 0.005713009
-0.016131138 -0.013401263 -0.0053590205 0.0001727938 -0.022675743 -0.030626187 -0.02127392 -0.000953337
-0.03108666 0.0069929673 -0.03356239 -0.03251362 -0.0047338866 -0.015077744 -0.024486454 -0.025665386
-0.007936776 -0.018357709 -0.02484045 -0.0041142753 -0.04078818 -0.039584 -0.0020884061 -0.019638633
-0.0012466203 -0.0026785142 0.010675048 0.009290889 0.009325517 -0.02389473 -0.012195039 -0.034373593
-0.0028778026 -0.0072227386 -0.022232106 -0.042988833 -0.0019138446 0.0028249605 -0.0022705544 -0.01579811
-0.03992497 -0.0045325267 -0.04681007 -0.020958664 -0.007846806 -0.022933325 -0.035410453 -0.027478447
-0.014174809 -0.005261344 -0.032383777 0.007379361 -0.030132096 -0.03666873 0.008199656 0.0021913215
-0.030035539 -0.012851953 -0.035297494 -0.012779153 0.0059882114 -0.0343309 -0.014840171 -0.019073624
-0.009161018 -0.0065357755 -0.04449116 -0.029544532 0.004154578 0.0027462859 0.0015069346 -0.017118495
-0.04106017 -0.013920104 -0.0047405963 -0.039257277 -0.041441735 -0.040015746 -0.025838543 -0.006298435
-0.009514097 -0.023463253 -0.04010496 -0.014591554 -0.015606581 -0.036513176 0.0048011965 -0.00023593854
-0.0290717 -0.036922377 -0.007516213 -0.002390535 -0.014724897 -0.03710219 -0.0436027 -0.03542245
-0.045889862 -0.03648989 -0.03883193 -0.033898327 -0.032885313 -0.012368898 -0.0042675654 -0.025002616
-0.018588271 -0.044515457 -0.029987888 -0.029638711 -0.0046600844 -0.04161292 0.009402981 -0.022452937
0.0071806437 -0.0070764804 -0.024264904 -0.03694023 -0.044015754 -0.038826987 -0.021014351 -0.034705825
-0.04366039 -0.032340795 -0.0013997277 -0.0038821646 -0.024458865 -0.038416654 -0.021798944 -0.00076682126
0.009028852 -0.019366553 -0.010168441 0.002041425 -0.03969346 -0.025076387 -0.02823064 0.006138588
-0.029283715 -0.0012626505 -0.027906818 0.0057833665 -0.0190689 -0.00976788 -0.0027788803 -0.03813032
-0.013930102 -0.0055106673 -0.024517756 -0.0032295282 -0.017403515 -0.024095783 -0.029648738 -0.0364699
-0.015349161 -0.031247934 -0.04436676 -0.00021106937 -0.000749816 -0.022499975 -0.008175871 -0.02751226
-0.0117329005 -0.021097392 0.006520312 0.0062497267 -0.013756297 -0.017594097 -0.039532747 -0.01526467
-0.041114762 -0.04579639 -0.02489602 -0.007876458 -0.023732763 0.0052514095 -0.01666752 -0.031665903
-0.008918327 -0.027507596 0.0054159206 -0.023759736 -0.01983995 -0.04123352 0.0082842065 -0.03333964
0.0048510833 -0.016045293 0.010057315 -0.0045877257 -0.0025561021 0.009343597 -0.03156495 -0.024555247
-0.021495454 0.004415717 -0.003569983 -0.042751845 0.0027911589 -0.04561309 -0.0115444055 -0.002409576

fc2.bias f4 [200]
00000000: 1c69 5bbc f0ab 1dbd 0377 fcbb b8f0 623f
00000010: e2cc 2fbd 8304 d13d 114a 3a3f 904c c2be
00000020: a742 273e 51c5 433a 96e1 953e ba5e 283e
00000030: f085 373e faae e03d 6e5d 793e 2233 2e3e
00000040: 2432 e93d 6cb4 2fbd d068 cfbc 5af7 cb3c
00000050: 2af1 42bc 5983 18bd b8c4 29bc 8363 663e
00000060: a79f cd3a 0bf6 08bb 8d15 253e 2765 043e
00000070: 7db4 813e b25c 073f 311b f8bc 6694 debc
00000080: 1301 ecbc cf68 15bd d6d2 263c 2583 103f
00000090: 6e71 4a3e 2452 773d 1b51 b63d 577e e8bb
000000a0: 5eba 3ebb 6ce8 173c 7379 563e fe78 99bb
000000b0: 2671 7bbc 4208 fd3d cf3f b4bc 0166 d8bc
000000c0: f32a 963d e98f 5a3e 2046 f13b fa43 6a3e
000000d0: d9df f63e 34ba 94bb 5d6f 243c 37bd ebbb
000000e0: e3af 013e 4107 bfbc ff92 2fba 7f8a 853b
000000f0: 8df9 e53d 1f31 20bd 73f3 223e a469 e7bc
00000100: 6355 89bc ad89 033e b0c5 403f 108b 64bc
00000110: 5f65 34bd b048 34bc d77c b53e d43b 983e
00000120: 8960 273e 33c3 aa3d d12c 2b3e 0ce0 c73b
00000130: e3d6 7a3e 9211 61b9 90b3 0b3d 1c9b 6cbb
00000140: a43b f73b bfe0 cabc c592 7cbc 3bec 6c3e
00000150: 1bf7 0f3e 3d12 cb39 6145 633f 1efe 2f3e
00000160: 5a07 473f c065 96bc 7f44 9d3b 6d30 30bd
00000170: 618b e33d 8c16 a13b 6882 7cbc 96c3 98bc
00000180: 903c 183e 5283 e9bc 7a15 dfbb 137b 25bd
00000190: e0ae c3bc d3ef b43d cb90 e63d 49e8 243e
000001a0: aacf 263e 15ea 45bc 5284 26bd 5451 9ebc
000001b0: ad25 29bc 6a16 623f ef72 1dbd 10f5 373e
000001c0: d8ae 453e c47a fbbc 5b59 d8bb fa49 663e
000001d0: 1e8f 923e f650 44bc a425 923d 190c 46bb
000001e0: 8e14 793d 56f1 f03d 4c1b 1f3e 489f 1b3e
000001f0: bf02 b33e 787c 3dbc fc7e 34bd 5cae 00bd
00000200: 53ed 1c3e 7c84 b83d b71b 343f 48fe 82bc
00000210: 9790 2f3f 6be0 2c3e 80c4 dd3d 3c19 583e
00000220: de5e 363f 6610 053c 41b3 24bd 9261 2ebc
00000230: 71a9 38bd 1030 353e 97ff 683e 0730 0e3e
00000240: 7a53 86bc 2a5f 79bc b960 97bc ee2a fabc
00000250: ec60 dcbb 2e3e e1bb 5d01 083f 0eca 753d
00000260: c3da 553e ef2b 9ebc 0a5f 06bb b11f 5e3e
00000270: 2c2a 77bb dd29 34bd 0166 143c 0b66 cf3d
00000280: 67ee 71bc b396 c33d 2729 7e3e bcb4 0339
00000290: c698 f2bc 9c4b 163c dc17 463e 2394 e43d
000002a0: 8b29 583e 2e8b 083f 6592 373e 47ba 833e
000002b0: b738 bfbc 934c 4e3e 4ed9 d2bd 5d68 3c3f
000002c0: 4cd2 33bc 087f 493e ec66 dcbc 5d4e 0e3e
000002d0: 2435 fd3e 7d2a 00bd 49cd d23d 51c0 1d3e
000002e0: f4da e83d e851 04be 087f 3e3a ad21 3bbc
000002f0: 64b8 84bc c294 09bd 6837 3b3e d758 90bc
00000300: 9b8f 593c 73e8 8fbc cb76 d6bc af8c 393f
00000310: 0e01 2cbe 569f cbbc 1972 0c3e f1f6 2dbd
-0.013391759 -0.03849405 -0.007704617 0.8864856 -0.04292 0.10205939 0.72769266 -0.37949038
0.1633402 0.0007468062 0.2927367 0.16442385 0.17922187 0.10970874 0.24352047 0.17011693
0.11386517 -0.042896673 -0.025318533 0.02489822 -0.011898318 -0.037234638 -0.010361843 0.22498898
0.0015687839 -0.0020898606 0.16121502 0.12929212 0.25333014 0.52875817 -0.030286403 -0.027170371
-0.028809106 -0.036476906 0.010182103 0.5645011 0.19769832 0.06038107 0.089021884 -0.007095139
-0.0029102783 0.009271722 0.20944767 -0.004683613 -0.015346801 0.12355091 -0.022003083 -0.026415827
0.07332411 0.2134396 0.007363096 0.22877494 0.48217657 -0.0045387987 0.010036317 -0.007194187
0.12664752 -0.023318889 -0.00066976243 0.004075348 0.11229239 -0.039109346 0.15913181 -0.028248616
-0.016764348 0.12845488 0.7530165 -0.013949171 -0.044041988 -0.011003658 0.35446808 0.29733145
0.16345419 0.083380125 0.16716315 0.0060997065 0.24496035 -0.00021464218 0.03410679 -0.0036103195
0.0075449515 -0.02476537 -0.015415852 0.2313699 0.14059107 0.00038732766 0.8877774 0.17186782
0.7774559 -0.018359065 0.004799425 -0.043014932 0.11110569 0.004916018 -0.015411951 -0.01864795
0.14866853 -0.028505001 -0.00680798 -0.040400576 -0.023887098 0.08834805 0.11258086 0.16104235
0.16290155 -0.012079735 -0.040653534 -0.01932589 -0.010323924 0.8831545 -0.038439687 0.17964578
0.19304979 -0.030698188 -0.006602449 0.22489157 0.28624815 -0.011982193 0.07136086 -0.0030219613
0.060810618 0.11764781 0.15537757 0.1519748 0.34963033 -0.01156532 -0.044066414 -0.031416282
0.15324907 0.090096444 0.7035479 -0.015990391 0.6858 0.16882484 0.10828495 0.21103376
0.71238506 0.0081215855 -0.040210012 -0.01064338 -0.045083467 0.17694116 0.2275375 0.13885508
-0.016397227 -0.015220443 -0.018478738 -0.030538049 -0.006725421 -0.0068738675 0.5312708 0.060007147
0.20884232 -0.019308059 -0.0020503425 0.21691777 -0.0037714345 -0.043985236 0.009057523 0.10126885
-0.014766312 0.09550228 0.24820386 0.00012560462 -0.029613864 0.0091733 0.19345039 0.11161067
0.21109597 0.5333737 0.17926939 0.25728056 -0.023342473 0.20146398 -0.10295354 0.73596746
-0.010975432 0.19677365 -0.026904546 0.1389708 0.49454606 -0.03129052 0.10293061 0.15405394
0.11369887 -0.1292187 0.0007266854 -0.011421603 -0.016201206 -0.033589132 0.18282855 -0.017620487
0.013278867 -0.017566895 -0.026179692 0.7248029 -0.16797277 -0.02485625 0.137154 -0.04247183

state_value.weight f4 [1, 200]
00000000: 7d26 1d3d 8a64 4c3e 5d06 c3bb 4912 c1bd
00000010: 9493 d53c 0ec2 62bd 6c5f cabc 3139 653e
00000020: c5ad bcbd 6c86 193d aff3 14be c515 163e
00000030: 84f4 c03c b486 b7be 826c 53bd 9b38 5f3d
00000040: fba5 0ebe fb87 383c 771b 013d 0da0 b13d
00000050: aeca a5ba 6f5c d83b eaa6 283d 75f1 65be
00000060: cafc db3c 3deb 06bb 7ad9 27b8 b601 4b3d
00000070: e931 05be b391 c3be 105e 28bc 6d98 563c
00000080: b22d 6c3a 1a1e 83bc 1690 a6bb 5d27 7ebe
00000090: f42e 49be 00f6 a93d 9401 c6be 1dc5 09bc
000000a0: 8eb1 1f3d d28c 183d 8296 00bf e7db 933e
000000b0: 716a 4e3d ffa3 95be c732 f83c 1838 363d
000000c0: d367 af3c 9c75 babd 97dd b2bb a4b9 d8bc
000000d0: 6f1a b7bc ff68 c93c 0cd0 6ebc a326 2a3d
000000e0: df57 d53d 5a84 60bc 3611 113d 7581 5ebc
000000f0: bee8 873e 5329 d03c 6f37 e3be 6035 593c
00000100: ed3f 173d 6022 e5be 9c2d 00bd a716 12bc
00000110: 20d5 7a3c 2f53 6c3c feea 80bd dc83 f53c
00000120: 53a5 cf3c 4414 6a3d 57a4 603d db88 183d
00000130: bb08 5ebe 2710 063d ff57 413e 38ec 293d
00000140: d81e 813c 9169 dd3c 1ebd e4bb 14fe a0bd
00000150: 4700 94bd 771e 25bb 87f9 bebd f541 eabd
00000160: 5c1f 0fbd 3702 17bc e395 0e3d 6757 c33b
00000170: 6474 083e b502 2d3d 727d 77bc d1a2 253d
00000180: c287 24be f5af 4a3d cc2f 0a3b 449b 5f3c
00000190: bab7 49bc 3dac 2d3e 8a57 783e fb93 9b3c
000001a0: ceb0 fe3c e154 8bba e6b7 0b3d ebc0 c53c
000001b0: 9d8e 3a3d 9be6 aabd 38f4 623c 28fb b6bd
000001c0: 2830 d73d ff48 343d 0746 4e3c 5f70 fe3d
000001d0: 2ff6 f4bd 25d7 063d d791 bb3c 2350 48bc
000001e0: 0a55 063e d348 b1be 09f7 4ebe 6bac 17bd
000001f0: 30e3 bb3b 5ba4 df3c 2e3a f83c 738e 783c
00000200: d25a c1bd 77e0 e33d 5d2b d3bc 2056 773c
00000210: 4ac2 aabc 9764 c43d 58f5 443d 32e1 3cbe
00000220: 40dd bbbc b766 db3c 5f55 043d 76d6 21bb
00000230: 01ff 8e3c 20fc 55bf 982c 803d b9c4 233d
00000240: 355b 953c 0e9c 0c3c 04c8 213d 2719 a4b9
00000250: f875 bb3c 48e6 063d f2e4 e63b 34ba 3b3e
00000260: d6c1 1bbe 38ee 91bc 84a3 ddba ac70 5fbe
00000270: 5195 72bc a715 dc3c cd6c 60bc 6e92 10be
00000280: 4aeb 08bc 0bd4 d0bd 9d34 9abe 82a6 9b3c
00000290: 1f4a 783c b28a 183e 2ec1 80be de2f 28be
000002a0: 78f6 80bd a182 21be 35b4 6e3d 022a 3abd
000002b0: fa4b e23b 07b1 59be 4482 343e 49c2 23bd
000002c0: 8994 e7be 6631 933c 2f0b 80bc ecfc 1cbc
000002d0: 691c 49be e852 973c 6c3e 24be a213 4abf
000002e0: 7c91 9bbe d807 433e cbbe d5b9 62e8 1e3d
000002f0: 5f16 c73b c895 2e3d 0fd2 babd f0e1 32bc
00000300: a002 e33d d4d4 a23c be9f 193d 9bef 12bd
00000310: 977c 283b 0ac8 4e3d 38d6 ac3d 8b6d 2b3d
0.038366783 0.19960228 -0.0059516863 -0.09427316 0.026071347 -0.055360846 -0.024703704 0.22385098
-0.092128314 0.03748171 -0.14546083 0.14656742 0.023554094 -0.35844958 -0.051617153 0.054497343
-0.13930504 0.011262889 0.031520333 0.086731054 -0.0012648904 0.006602816 0.041174807 -0.2245539
0.026853938 -0.002058699 -4.0018444e-05 0.04956218 -0.1300732 -0.38197097 -0.0102763325 0.013097865
0.00090094947 -0.016005564 -0.0050830944 -0.24819703 -0.19646817 0.08298874 -0.3867308 -0.008408812
0.03898769 0.03724367 -0.50229657 0.2887871 0.05039448 -0.29226682 0.03029765 0.04448709
0.021411812 -0.091044635 -0.0054585445 -0.026455708 -0.022351472 0.024586199 -0.014575969 0.041540753
0.10417151 -0.01370343 0.035416804 -0.01358067 0.26544756 0.02541033 -0.4437823 0.0132573545
0.0369262 -0.4475279 -0.031293496 -0.008916534 0.015309602 0.014424129 -0.06294821 0.029970102
0.025347387 0.057148233 0.054844227 0.03723989 -0.21683018 0.032730248 0.18881224 0.04148504
0.015761778 0.027027877 -0.0069805523 -0.078609616 -0.072266154 -0.002519516 -0.09324937 -0.114383616
-0.034942016 -0.009216837 0.034810912 0.005961347 0.1332565 0.04223891 -0.015105592 0.040438477
-0.16067412 0.049484212 0.0021085618 0.013647858 -0.01231187 0.16960235 0.24252144 0.018991461
0.031090166 -0.0010630154 0.034110926 0.024139842 0.045546163 -0.08344766 0.013852172 -0.08934623
0.10507232 0.044014927 0.012589938 0.12423777 -0.11961018 0.03292002 0.02289669 -0.012226137
0.13118377 -0.34625873 -0.20211424 -0.037029665 0.00573387 0.02730005 0.03030118 0.015170681
-0.09441151 0.11126798 -0.025777513 0.015096217 -0.020844597 0.095894985 0.04808554 -0.1844528
-0.022932649 0.026782377 0.03230798 -0.002469448 0.01745558 -0.8358784 0.062585056 0.03998253
0.018231967 0.008582128 0.03949739 -0.00031299258 0.0228834 0.032934457 0.0070463354 0.1833275
-0.15210661 -0.017813787 -0.0016909693 -0.21820325 -0.014806108 0.026865793 -0.013697815 -0.14118358
-0.0083568785 -0.10196694 -0.30118266 0.019000296 0.015154391 0.14896658 -0.25147384 -0.1642451
-0.0629701 -0.15772487 0.058277328 -0.045450218 0.00690603 -0.21258937 0.17627817 -0.039980207
-0.4523051 0.017967891 -0.015630333 -0.009581786 -0.19639744 0.01847215 -0.16039437 -0.7893621
-0.30384433 0.19045961 -0.00040768678 0.038795836 0.006075665 0.04262331 -0.09122097 -0.0109181255
0.11084485 0.019876875 0.037505858 -0.035873037 0.0025709027 0.05048374 0.084392965 0.041852515
