text_cnn/param/net_param/la29_critic_net.model (torch, 965527 bytes, 5 tensors)

feature1.0.weight f4 [6, 3, 5, 5]
0	0x3e182c96	0.14860758
1	0x3dea5bf3	0.11443319
2	0xbc574aaf	-0.013140365
3	0x3d960fd3	0.07327237
4	0xbdad7532	-0.08469619
5	0xbdac84de	-0.0842378
6	0xbb96c632	-0.0046012634
7	0x3d2e4979	0.042550538
8	0x3d5046cb	0.050848763
9	0xbcd9029f	-0.026490508
10	0x3df7bff8	0.12097162
11	0x3dbf2603	0.09333422
12	0xbc93ff32	-0.018066023
13	0xbda7f125	-0.082002915
14	0xbd90a7f8	-0.070632875
15	0xbdad307c	-0.08456513
16	0x3da876fb	0.08225819
17	0x3d8a4156	0.06750743
18	0xbd47902e	-0.048721485
19	0xbd0dadd7	-0.034589615
20	0x3d3df2fe	0.046374314
21	0x3b2035f7	0.0024446228
22	0xbccca720	-0.024982035
23	0x3d406b52	0.04697735
24	0xbbf06d77	-0.007337268
25	0xbdcb8cb0	-0.099389434
26	0xbc8b1188	-0.016976133
27	0x3d8208a3	0.063493036
28	0xbe03bb9a	-0.12864533
29	0xbe14f5e2	-0.14546922
30	0xbdae6cc5	-0.0851684
31	0x3d8469b8	0.06465477
32	0xbcbb3fb5	-0.022857526
33	0xbbf44259	-0.0074541983
34	0xbe2650ab	-0.1624171
35	0xbce6c2d9	-0.028169082
36	0xbe01f690	-0.12691712
37	0x3ce6fc71	0.028196545
38	0xbc5eabe2	-0.013590785
39	0xbc932fce	-0.017967131
40	0x3cdf9ac4	0.027295478
41	0x3d27a511	0.040928904
42	0xbcaf34af	-0.021387426
43	0x3d782480	0.060581684
44	0x3c8ec85e	0.017429527
45	0xbc564004	-0.013076786
46	0x3d9850e8	0.07437307
47	0xbc2b8dd8	-0.01047083
48	0xbe23a305	-0.15980156
49	0xbdca902c	-0.0989078
50	0xbdc0b3c8	-0.094092906
51	0x3d3149f5	0.04328342
52	0x3d16777e	0.03673505
53	0x3d8557fa	0.06510921
54	0xbde48938	-0.11158985
55	0x3dceef34	0.10104218
56	0xbddaf271	-0.10690773
57	0x3c4dd052	0.012561874
58	0xbe0afacc	-0.13572234
59	0x3cd80e92	0.026374135
60	0xbd1ac0db	-0.037781578
61	0x3d7e7370	0.06212181
62	0xbd9d7b15	-0.07689492
63	0xbda667c8	-0.081252635
64	0xbe15ad47	-0.14616881
65	0x3c902a89	0.017598407
66	0x3cd9545a	0.02652948
67	0x3da42f7e	0.08016871
68	0xbb54db8d	-0.0032479495
69	0xbd7de967	-0.061990168
70	0x3ca81c72	0.020521376
71	0xbde0ab5c	-0.10970184
72	0x3cf5888d	0.029972339
73	0xbc503f3a	-0.012710387
74	0xbd7ea011	-0.06216437
75	0x3e134b46	0.14384183
76	0x3dc218c0	0.09477377
77	0xbccc072c	-0.024905764
78	0xbd434f64	-0.047683135
79	0x3ca422c6	0.020036113
80	0x3b2976c3	0.002585814
81	0x3de932ba	0.113866284
82	0x3d265ff5	0.040618856
83	0x3d9a9b4c	0.07549152
84	0xbd0ed4d1	-0.034870926
85	0xbd6624f9	-0.056187604
86	0x3db136fb	0.08653065
87	0x3d5aeae1	0.053446654
88	0x3da22eda	0.079190925
89	0xbcf56423	-0.029954975
90	0xbb6556bc	-0.0034994325
91	0xbc8e05c9	-0.017336743
92	0xbdb5cf69	-0.08877451
93	0x3d01e30e	0.031710677
94	0x3cbb73c5	0.022882352
95	0x3e19f424	0.15034539
96	0x3d9c7626	0.076397225
97	0x3d85b3bd	0.06528423
98	0xbd533f9a	-0.051574327
99	0xbe037519	-0.12837638
100	0xbcdc3bd3	-0.026883995
101	0x3d3d5322	0.04622186
102	0xbc437892	-0.011930602
103	0xbd452564	-0.04813136
104	0xbbdeee70	-0.0068033263
105	0x39d6a9c4	0.00040943746
106	0x3d047932	0.032342143
107	0xbd8db3aa	-0.06919034
108	0xbc8fde8b	-0.017562171
109	0xbdb07252	-0.08615555
110	0xbbe32fca	-0.006933187
111	0xbca0598f	-0.019573955
112	0xbc846b10	-0.016164333
113	0x3c8c824a	0.01715197
114	0xbdf3633e	-0.11884163
115	0xbd3824f2	-0.04495711
116	0xbcb42f52	-0.02199522
117	0xbd0699cd	-0.03286152
118	0xbdef9b5b	-0.116995536
119	0xbc22d35c	-0.009938087
120	0xbd7c8464	-0.061649695
121	0xbdcef0f7	-0.10104554
122	0x3bde8ec6	0.0067919223
123	0x3c94205c	0.018081836
124	0xbdb9d38a	-0.09073551
125	0xbb453922	-0.0030093868
126	0x3b15402d	0.0022773847
127	0xbd8c1dd6	-0.06841628
128	0xbcc8d840	-0.024517179
129	0xbdb89b54	-0.090140015
130	0x3d1a5584	0.03767921
131	0x3d63653e	0.055516474
132	0xbde169fa	-0.110065416
133	0xbdecfbea	-0.11571486
134	0xbd5a1fe7	-0.05325308
135	0x3d28e32b	0.04123227
136	0xbdcc7d51	-0.0998484
137	0x3d868a1d	0.06569312
138	0xbd882ec2	-0.06649543
139	0xbd70c503	-0.058781635
140	0xbd0ce2cc	-0.034395978
141	0xbdaac59c	-0.08338472
142	0x3ca42cf2	0.020040963
143	0xbe12e4fd	-0.14345165
144	0xbdd6581a	-0.10466023
145	0xbd657330	-0.056018054
146	0x3d9d6799	0.07685775
147	0x3ad36182	0.0016127082
148	0xbe1aa5da	-0.1510233
149	0xbc2f4368	-0.010697223
150	0x3db4930d	0.0881711
151	0xbdd961d0	-0.106143594
152	0x3e0ac7aa	0.13552728
153	0x3c8259b6	0.015911918
154	0xbb89440f	-0.0041890214
155	0x3de72b3a	0.11287542
156	0x3d38f044	0.04515101
157	0x3de32ee2	0.110929266
158	0x3dad2aac	0.08455405
159	0xbdc5e911	-0.096635945
160	0xbd2723ae	-0.04080551
161	0x3dc4591b	0.09587308
162	0xbd802790	-0.06257546
163	0xbd07e5c3	-0.033178102
164	0x3c86c15d	0.016449625
165	0xbd995647	-0.07487159
166	0xbd24fcf2	-0.04028029
167	0x3c8feef9	0.017570006
168	0xbdcc0905	-0.09962658
169	0xbdc3e532	-0.095652
170	0x3daf0dda	0.08547564
171	0xbbccc644	-0.006249221
172	0x3d727167	0.05919018
173	0x3d88c4f6	0.06678192
174	0xbd888643	-0.066662334
175	0xbd65aa99	-0.056070898
176	0xbd80ba5e	-0.06285547
177	0xbc25f8e8	-0.010130145
178	0xbc3dfcf7	-0.011595956
179	0xbd269201	-0.040666584
180	0x3cabe11a	0.02098136
181	0xbdd61209	-0.10452659
182	0xbda8e698	-0.08247107
183	0xbc5d2afb	-0.013499017
184	0x3c5d7bca	0.013518283
185	0xbd4eea51	-0.05051643
186	0xbbe51a87	-0.0069916877
187	0x3cb2851d	0.021791989
188	0xbc83735f	-0.016046224
189	0xbe156d09	-0.14592375
190	0xbd5a2161	-0.05325449
191	0xbdb0b9d3	-0.08629193
192	0x3c6b5b80	0.014365077
193	0xbdae11ed	-0.08499513
194	0xbdbe424c	-0.09289989
195	0x3c56c5d6	0.013108691
196	0x3d9b1cd3	0.07573857
197	0x3d81c99c	0.06337282
198	0xbd84be1f	-0.06481575
199	0xbc17187b	-0.009222145
200	0x3ced5d0a	0.028975029
201	0x3d5ff61c	0.054678068
202	0x3dac5436	0.084144995
203	0xbdfaa1f2	-0.1223792
204	0xbc252ef6	-0.010081997
205	0x3d85f534	0.065409094
206	0x3d638d47	0.055554654
207	0xbdc0742f	-0.0939716
208	0xbdad9541	-0.084757335
209	0xbd3832ee	-0.044970445
210	0xbdaa0402	-0.08301546
211	0xbd3409da	-0.043954708
212	0xbd5be40f	-0.05368429
213	0xbc87c6ef	-0.016574351
214	0xbd6671ee	-0.056260996
215	0x3d43fc4f	0.047848042
216	0xbda007ba	-0.07813974
217	0xbe076bc7	-0.13224708
218	0x3d13ed4e	0.036114983
219	0xbc50aa00	-0.012735844
220	0xbe0c7e3a	-0.13720027
221	0x3dacb442	0.08432819
222	0xbbeabfa4	-0.0071639586
223	0x3c4a3865	0.012342547
224	0x3d68461a	0.05670748
225	0xbb4872bb	-0.0030585963
226	0x3df9bf2a	0.12194665
227	0xbd8c4dac	-0.06850752
228	0x3dc45c70	0.095879436
229	0x3dae7a3a	0.085194066
230	0x397f4496	0.00024344245
231	0x3cf95655	0.030436674
232	0x3e01316b	0.12616508
233	0x3d3c722b	0.046007317
234	0x3deaca3f	0.11464357
235	0x3db6886c	0.08912739
236	0xbd5b835e	-0.05359208
237	0xbd5e014c	-0.054200456
238	0xbdc339fa	-0.095325425
239	0xbd28dfb6	-0.041228972
240	0xbdb7ff3e	-0.089842305
241	0x3cd1bc19	0.025602387
242	0xbd879779	-0.06620688
243	0x3d84187d	0.06449983
244	0x3c2aa7c4	0.010415975
245	0x3da2a9de	0.07942556
246	0xbd80b7b4	-0.062850386
247	0x3e009db3	0.12560157
248	0x3e03626d	0.12830515
249	0x3d6c82c0	0.05774188
250	0x3dac588a	0.08415325
251	0x3c710112	0.014709728
252	0x3db55076	0.08853237
253	0x3d8ef433	0.06980171
254	0x3d867a14	0.06566253
255	0x3d3dd744	0.04634787

feature1.0.bias f4 [6]
0	0x3e2826ba	0.16421023
1	0x3e30df63	0.17272715
2	0x3e52aea8	0.20574439
3	0xbd49d045	-0.049270887
4	0x3de20f40	0.11038065
5	0x3e34587b	0.17611878

fc2.weight f4 [200, 1200]
0	0xbb93a9e0	-0.0045063347
1	0xbd24042f	-0.040043052
2	0xbd081da8	-0.033231407
3	0x3c10df0e	0.008842243
4	0xbd16e87c	-0.036842808
5	0xbd00ce24	-0.03144659
6	0xbd023b88	-0.031795055
7	0xbd0777f3	-0.033073377
8	0xbc47134e	-0.012150599
9	0x3c18f112	0.009334819
10	0x3bf90a95	0.0076001384
11	0xbc5b9f30	-0.0134046525
12	0x3bd1bd9d	0.0064007775
13	0xbd0960ac	-0.03353946
14	0x3ba497e3	0.005022989
15	0xbd12eae8	-0.035868555
16	0xbd116b33	-0.035502624
17	0xbd3ea866	-0.046547316
18	0xbd1d1c98	-0.038357347
19	0x3bbfae25	0.005849617
20	0x3b1a0aee	0.002350505
21	0x3c2cf281	0.010555864
22	0xbc1e9610	-0.009679332
23	0xbb898a23	-0.0041973754
24	0xbcf9063f	-0.030398486
25	0xbd365984	-0.044518963
26	0xbbb87012	-0.005628594
27	0xbc82e3e8	-0.015977815
28	0x3be69ba8	0.0070375986
29	0xbd224bc1	-0.039623026
30	0xbcbf6605	-0.023364076
31	0xbd2bbcf9	-0.041928265
32	0xbbc61e41	-0.006046087
33	0xbd0895df	-0.033346053
34	0xbcfe7145	-0.03105987
35	0x3be60454	0.007019559
36	0x3c25cd25	0.010119711
37	0xbd34f660	-0.044180274
38	0xbd207a70	-0.039179265
39	0xbaa8f8b7	-0.0012891506
40	0xbce90cb0	-0.028448433
41	0xbc455133	-0.012043285
42	0xbcd40e5b	-0.025885751
43	0xbcc56b95	-0.02409915
44	0xbcefe391	-0.029283317
45	0xbc7640de	-0.015030114
46	0x3c1eabea	0.009684542
47	0xbd275a85	-0.04085781
48	0xbc640c5c	-0.013918962
49	0xbd3c9287	-0.046038177
50	0xbc390012	-0.011291521
51	0xbc92ebfd	-0.017934794
52	0xbcecb458	-0.028894588
53	0xbcb904bb	-0.022585263
54	0xbd0572f8	-0.032580346
55	0xbc412528	-0.011788644
56	0x3bda5638	0.00666311
57	0xbd0c96d6	-0.034323536
58	0xbd004b37	-0.03132173
59	0xbba2779d	-0.0049581067
60	0xbc8e6d7b	-0.017386189
61	0xbd25207f	-0.040314194
62	0xbc7720ac	-0.015083473
63	0xbd081a59	-0.033228252
64	0x3b82725e	0.003980919
65	0x3ab8eace	0.0014108063
66	0xbc029552	-0.007970171
67	0x3bb9e404	0.0056729335
68	0xbd1dd8fc	-0.03853701
69	0xbcc376bc	-0.023860328
70	0xbd3d7b67	-0.046260264
71	0xb9b1032f	-0.00033762443
72	0xbca33325	-0.019921849
73	0xbd220217	-0.039552774
74	0xbcd40455	-0.025880972
75	0x3c18b5bc	0.009320673
76	0xbd2a58a4	-0.04158844
77	0xbd0ed695	-0.03487261
78	0xbd05f5af	-0.032705005
79	0xbc33781b	-0.010953928
80	0xbcce130c	-0.025155567
81	0xbd045603	-0.03230859
82	0xbab9728c	-0.0014148518
83	0xbc07319d	-0.008251575
84	0x3bdc4b4e	0.006722844
85	0xbccc0957	-0.024906797
86	0xbd264bad	-0.040599514
87	0xbd3bf76c	-0.045890257
88	0xbc71c706	-0.014756924
89	0xbcac44ee	-0.021028962
90	0xbcbeeb77	-0.023305638
91	0xbb38076a	-0.002808059
92	0xbd010399	-0.03149757
93	0xbd0f4dc7	-0.034986284
94	0xbd0d8d8f	-0.03455883
95	0xbd0c6987	-0.034280326
96	0xbc84ff9d	-0.016235167
97	0xbd3a2cb5	-0.045452792
98	0x3c105ead	0.008811635
99	0x3b14f3b6	0.002272827
100	0xbc4a67c1	-0.012353838
101	0xbc73a4f1	-0.014870868
102	0x3b8b4efa	0.004251358
103	0xbc932514	-0.017962016
104	0xbb8dfb6b	-0.00433295
105	0xbd39d72f	-0.04537123
106	0xbcc1afc3	-0.02364338
107	0xbb398694	-0.0028308975
108	0xbd2366d4	-0.039892986
109	0xbcf6e4b2	-0.030138347
110	0xbd1a8982	-0.037728794
111	0xbd0dc1f1	-0.034608785
112	0xbd3f0366	-0.0466341
113	0xbc992522	-0.018694464
114	0xbd0fb78f	-0.035087164
115	0x3c26d683	0.0101829795
116	0xbcaabeca	-0.020842928
117	0xbc2ee963	-0.010675761
118	0xbcc81304	-0.02442313
119	0xbca0b3ac	-0.019616924
120	0xbc42c75c	-0.011888351
121	0xbcd73eac	-0.026275001
122	0xbab8628b	-0.0014067454
123	0xbc35d209	-0.01109744
124	0xbbc44e9f	-0.0059908177
125	0xbc75fe93	-0.0150143085
126	0xbc51097f	-0.012758612
127	0xbcdef344	-0.027215607
128	0xbc5e33cb	-0.013562153
129	0xbcdcc0d4	-0.026947416
130	0xbbb76f82	-0.0055980096
131	0xbd12e6d5	-0.03586467
132	0xbc163d86	-0.009169942
133	0xbccf9c9d	-0.025343234
134	0xbd1a29fb	-0.037637692
135	0x3b97c2a6	0.004631358
136	0xbca306fc	-0.019900791
137	0xbcc93fbf	-0.02456653
138	0xbd078e57	-0.03309473
139	0xbd2ee0a7	-0.042694714
140	0xbcf44e5f	-0.029822526
141	0xbcb2b855	-0.021816412
142	0xbbc8023d	-0.0061037824
143	0x3c26d3b6	0.010182312
144	0xbce889aa	-0.028385956
145	0xbca2d6c6	-0.019877803
146	0xbd3468b2	-0.044045158
147	0xbc32d040	-0.0109139085
148	0xbd00020d	-0.031251956
149	0xbd30830b	-0.043093722
150	0xbc56e66c	-0.01311646
151	0x3b8efe4d	0.004363811
152	0xbc1f584a	-0.00972564
153	0xbd33e7a4	-0.04392208
154	0xbd077f97	-0.033080664
155	0x3b35301e	0.0027647088
156	0x3bd82279	0.0065959063
157	0xbcaf3b46	-0.021390568
158	0xbbe3d952	-0.006953397
159	0xbc8e3e5e	-0.017363723
160	0xbd202dcf	-0.039106186
161	0xbc1470e1	-0.009060116
162	0xbcf1ffc1	-0.029540898
163	0xbd214ec8	-0.039381772
164	0xbcf9ba76	-0.03048442
165	0xbd041ec5	-0.032255907
166	0xbabcf413	-0.0014416002
167	0x3a81023c	0.0009842585
168	0xbcbf0518	-0.023317859
169	0xbcdf1d48	-0.027235642
170	0xbc3ff19d	-0.01171532
171	0xbcfb44cf	-0.030672459
172	0x3912142d	0.00013931161
173	0xbc836ad9	-0.01604216
174	0xbd070f6b	-0.032973688
175	0xbbc07756	-0.005873601
176	0xbce51417	-0.027963681
177	0xbcaa5534	-0.020792581
178	0xbae3eb4a	-0.0017388847
179	0xbd1661a6	-0.03671422
180	0xbcd88e68	-0.026435092
181	0xbc647197	-0.013943098
182	0xbae8d85c	-0.0017764675
183	0xbbdb307d	-0.00668913
184	0x3c0653cc	0.00819869
185	0xbc16db18	-0.009207509
186	0x3c243f1c	0.010024812
187	0xbc8089ac	-0.015690647
188	0x3bed5f50	0.007244028
189	0xbc86dc1a	-0.016462374
190	0xbd1bda7c	-0.03805016
191	0xbd2bee04	-0.041975036
192	0xbc8d4bc1	-0.017248036
193	0xbca1a6d2	-0.019732866
194	0xbd0cc955	-0.034371693
195	0xbd03a090	-0.032135546
196	0xbb3fdacb	-0.0029274698
197	0xbd01624c	-0.031587884
198	0xbd32a938	-0.04361841
199	0xbd00a5c1	-0.031408075
200	0x3bdd4ac5	0.006753298
201	0xbcd8e1ed	-0.026474917
202	0xbc1f737e	-0.009732125
203	0xbd04ad49	-0.03239182
204	0x3b2e6fc0	0.00266169
205	0xbc8443b9	-0.016145574
206	0xba9ccf26	-0.001196359
207	0x3bf34d7c	0.0074250083
208	0xbd23c48c	-0.039982364
209	0xbcb298dc	-0.021801405
210	0xbd071f8d	-0.032989074
211	0xbd2f0bdf	-0.04273593
212	0x3b866e61	0.0041025137
213	0xbd160b58	-0.036631912
214	0xbca53561	-0.020167055
215	0xbd12d5b6	-0.035848342
216	0xbd231799	-0.039817426
217	0xbd2748c1	-0.040840868
218	0xbd397d35	-0.045285422
219	0xbd2f7584	-0.04283668
220	0x3b2afafb	0.0026089537
221	0xbcd8ca9b	-0.026463797
222	0x3b819125	0.00395407
223	0xbb1aa02a	-0.0023594
224	0xb9911741	-0.0002767388
225	0xbc1c97e9	-0.009557703
226	0xbd29177d	-0.041282166
227	0xbd2d9f2a	-0.04238812
228	0x3b80686f	0.0039186995
229	0x38823fad	6.2107436e-05
230	0xbc3453ca	-0.011006305
231	0xbd0f18b7	-0.03493568
232	0xbadee553	-0.00170056
233	0xbcb5ae57	-0.022177858
234	0xbc8bc420	-0.017061293
235	0xbca533ae	-0.020166244
236	0xbcca8b3b	-0.024724593
237	0xbab274d8	-0.0013615144
238	0xbd2437a2	-0.040092118
239	0xbd314188	-0.043275386
240	0x3acbe83e	0.0015556884
241	0x3b1d6ff4	0.0024023028
242	0xbcd0a626	-0.02546985
243	0xbce48148	-0.027893677
244	0xbd0d6748	-0.034522325
245	0xbcbf6260	-0.023362339
246	0x3bad9b9c	0.005298091
247	0xbc1eb986	-0.009687787
248	0xbc27807e	-0.010223506
249	0xbba964f0	-0.0051695034
250	0xbd2e7de1	-0.042600516
251	0x3bd15195	0.006387899
252	0xbcb30d3d	-0.021856898
253	0xbc92ecd3	-0.017935192
254	0xbc93046d	-0.017946446
255	0xbc9b63f4	-0.01896856

fc2.bias f4 [200]
0	0xbc5979df	-0.013273685
1	0xbcaad3b2	-0.020852897
2	0x3e181df0	0.1485517
3	0xbd2ad716	-0.04170903
4	0x3bdfbab9	0.006827679
5	0x3dce4c85	0.10073189
6	0x3bd33692	0.0064457143
7	0x3d8b5cc3	0.06804802
8	0x3bff32c5	0.0077880346
9	0x3e01a14b	0.12659185
10	0xbd03bc29	-0.032161865
11	0xbd3cfdf6	-0.046140634
12	0x3df3b49f	0.11899685
13	0xbcacdb7a	-0.021100748
14	0x3df6177f	0.120162
15	0x3dcd357d	0.10019968
16	0xbc4a1317	-0.012333653
17	0x3dfeb581	0.12436963
18	0xbd39710c	-0.045273826
19	0x3e0c753f	0.13716601
20	0xbc8236e2	-0.01589531
21	0x3de6c312	0.112676755
22	0x3dc9f045	0.09860281
23	0x3c18b033	0.009319353
24	0x3dfa5ebf	0.12225103
25	0x3ddb845c	0.10718605
26	0xbc3b5e70	-0.01143609
27	0x3e10de98	0.14147413
28	0xbcc11d53	-0.023573553
29	0xbce9a5f8	-0.028521523
30	0xbcf46383	-0.029832607
31	0x3e0197be	0.12655541
32	0x3e0a10f1	0.13483025
33	0xbc04c5b5	-0.008103778
34	0x3e0da520	0.13832521
35	0xbce5261e	-0.027972277
36	0x3bc6802c	0.0060577597
37	0x3ddb961c	0.107219905
38	0x3dc027c8	0.09382588
39	0x3c2ecf5c	0.0106695555
40	0x3e090d87	0.13384067
41	0xbd107900	-0.035271645
42	0x3e197ea7	0.1498972
43	0x3e101849	0.14071764
44	0x3ce68575	0.02813981
45	0x3e16cb10	0.147259
46	0x3dcacf0c	0.09902772
47	0x3e0bbec9	0.13646998
48	0xbc9cbcaf	-0.01913294
49	0xbc583e2f	-0.0131984195
50	0x3dda2de0	0.10653281
51	0x3e1c2bac	0.15251034
52	0xbcb4874d	-0.022037173
53	0x3df4430d	0.119268514
54	0xbcd1668a	-0.02556159
55	0xbc833db9	-0.016020643
56	0xbc11a95c	-0.008890476
57	0xbd24da0a	-0.040247
58	0x3e141fc6	0.14465246
59	0xbc5dc7dd	-0.013536421
60	0x3e02ada7	0.12761556
61	0xbc55c01d	-0.013046292
62	0x3e12d26e	0.14338085
63	0x3df161e3	0.117862485
64	0xbce4bb2f	-0.027921287
65	0xbc3cc871	-0.011522398
66	0x3e035474	0.12825185
67	0x3ddbeafc	0.10738179
68	0x3c2d4834	0.010576297
69	0x3b47804c	0.003044146
70	0x3e036f75	0.12835486
71	0x3df386e3	0.11890962
72	0xbc903dec	-0.017607652
73	0xbcabccec	-0.020971738
74	0x3df4350f	0.119241826
75	0x3e12d6e4	0.14339787
76	0xbbc86dd9	-0.0061166105
77	0xbcdcdedc	-0.026961736
78	0xbd0e0e77	-0.034681763
79	0xbcea4896	-0.028599065
80	0x3ddbee23	0.1073878
81	0xbd06c3af	-0.032901462
82	0xbd3e4e8d	-0.04646163
83	0x3deafadd	0.114736296
84	0xbcf1ba53	-0.029507792
85	0x3e194b5c	0.14970154
86	0x3dec8439	0.11548657
87	0xbd149cb3	-0.036282253
88	0xbc45c995	-0.012071987
89	0x3bb22462	0.005436466
90	0x3bec5b97	0.007213067
91	0x3c337b1a	0.010954643
92	0xbc03c756	-0.008043131
93	0xbc9cdf86	-0.019149553
94	0x3bc70157	0.006073158
95	0x3afbd2d3	0.0019212611
96	0x3e0e5bb0	0.13902164
97	0x3de4beef	0.1116923
98	0xbcbf93ee	-0.023385968
99	0xbcacf7b7	-0.021114213
100	0xbcd869c3	-0.026417619
101	0x3e0fb683	0.14034466
102	0x3e25bbe7	0.1618496
103	0x3e0fab3a	0.14030161
104	0x3e026796	0.12734827
105	0x3e0c239b	0.13685457
106	0xbbc2f8ea	-0.005950083
107	0xbcccdd3d	-0.025007838
108	0x3df5e4af	0.120065086
109	0x3e284016	0.16430697
110	0xbbfd1683	-0.007723631
111	0xbd2181d0	-0.03943044
112	0x3dd488c5	0.10377649
113	0x3bc6fa36	0.006072308
114	0xbbe81644	-0.0070827324
115	0x3e0fe10d	0.14050694
116	0xbcb1e89f	-0.021717368
117	0x3de58984	0.1120787
118	0x3c0201cf	0.0079350015
119	0x3e0b5517	0.13606678
120	0x3df02607	0.11726003
121	0xbcea6b08	-0.02861549
122	0x3dded12e	0.108797416
123	0xbb9d3d28	-0.00479855
124	0xbd23c998	-0.039987177
125	0x3dffd33c	0.12491462
126	0xbd24eb27	-0.04026332
127	0x3cfbe4ca	0.030748744
128	0xbc6f7d22	-0.014617236
129	0xbd2995f5	-0.041402776
130	0xbc44a003	-0.01200104
131	0x3df345fe	0.11878584
132	0x3d13d7d5	0.036094505
133	0x3df1d1d7	0.11807602
134	0x3e0b7081	0.13617136
135	0x3df3c467	0.11902695
136	0xbd0ee7a6	-0.034888886
137	0xbcda1054	-0.026619114
138	0x3c011663	0.007878873
139	0x3e0eed6f	0.13957761
140	0x3e210f8c	0.15728587
141	0xbc49d2cd	-0.012318325
142	0x3d9002ca	0.07031782
143	0x3e07f789	0.13278021
144	0xbcac9f3e	-0.021072026
145	0x3e028d32	0.12749174
146	0x3df3be56	0.11901538
147	0xbd070d8e	-0.03297191
148	0xbc993f4a	-0.018706936
149	0xbcf806fa	-0.030276764
150	0xbcfee64f	-0.03111568
151	0xbcd98d0d	-0.026556516
152	0x3e11bfb5	0.14233287
153	0xbbfc4ca7	-0.0076995674
154	0x3df2174d	0.118208505
155	0xbc83f912	-0.016109977
156	0x3df8e240	0.12152529
157	0xbc226ace	-0.0099131595
158	0x3df625ec	0.12018952
159	0x3df07f27	0.117430024
160	0xbd341d08	-0.043973
161	0xbca78b4c	-0.020452164
162	0x3e03e77d	0.12881275
163	0x3df444c8	0.119271815
164	0x3e02312d	0.12714072
165	0x3de154cf	0.11002504
166	0x3e0508f0	0.1299169
167	0xbc8db76d	-0.017299378
168	0xbd1a4a72	-0.037668653
169	0x3c1e40ef	0.009659036
170	0x3e140bb2	0.14457586
171	0x3db63afe	0.088979706
172	0x3dca35db	0.09873553
173	0x3de20db6	0.110377714
174	0x3c684885	0.014177446
175	0x3a842fae	0.001008501
176	0x3dd957af	0.106124274
177	0x3dd9bd80	0.106318474
178	0xbcceae18	-0.025229499
179	0x3e0d96c0	0.13827038
180	0xbc7fa4cd	-0.015603256
181	0xbb1e5886	-0.002416165
182	0x3e139a28	0.14414275
183	0x3d8e862e	0.069591865
184	0x3e13f69c	0.14449543
185	0x3df23957	0.11827343
186	0x3e161028	0.146546
187	0x3e024307	0.12720881
188	0x3df452fb	0.1192989
189	0xbb99e86c	-0.0046968963
190	0x3e053c6b	0.13011329
191	0x3e0bb970	0.13644958
192	0x3be8b13e	0.007101207
193	0x3dea3403	0.11435702
194	0x3e1244fd	0.1428413
195	0xbcc5db0a	-0.024152298
196	0x3df595d3	0.11991467
197	0xbccffda0	-0.025389493
198	0x3dedace7	0.11605244
199	0xbaa36bec	-0.0012468076

state_value.weight f4 [1, 200]
0	0x3d154a65	0.0364479
1	0x3b8ed986	0.004359427
2	0xbd177cf4	-0.0369844
3	0x3d50fcb5	0.05102225
4	0xbbde5da5	-0.0067860656
5	0xbd8c2ee8	-0.06844884
6	0x3d46aaf3	0.048502874
7	0xbc820c55	-0.015875021
8	0x3d41b751	0.047293965
9	0xbd927115	-0.07150475
10	0x38c94cb7	9.598716e-05
11	0x3c911fd6	0.017715376
12	0xbd777e90	-0.060423434
13	0x3bb9bb16	0.0056680543
14	0xbd8f29b9	-0.0699038
15	0xbd9fa6f6	-0.07795517
16	0x3cbe0e20	0.023200095
17	0xbd8b8344	-0.06812146
18	0xbb28d559	-0.002576193
19	0xbd53a629	-0.051672135
20	0x3d10d4ca	0.03535918
21	0xbd816a1c	-0.06319067
22	0xbd98ebcc	-0.0746685
23	0x3c838ce0	0.016058385
24	0xbd31a6bf	-0.043371912
25	0xbd1bd4de	-0.038044803
26	0xbc7bbfbe	-0.015365539
27	0xbd828067	-0.06372147
28	0x3d2f0c35	0.04273625
29	0x3d385cfc	0.04501055
30	0x3d17cc95	0.03706034
31	0xbd997609	-0.074932165
32	0xbd7fd575	-0.062459428
33	0x3d1ce88f	0.038307723
34	0xbd2dec1a	-0.042461492
35	0x3c1b9ce0	0.009497851
36	0x3cf97c0f	0.030454664
37	0xbd73b4cd	-0.059498597
38	0xbc6eec36	-0.014582684
39	0xbc6bf3f9	-0.014401429
40	0xbd7bcd87	-0.061475303
41	0xbc38e76e	-0.011285646
42	0xbdbe6a4c	-0.09297618
43	0xbd46653b	-0.048436385
44	0x3b129016	0.0022363714
45	0xbd35d93d	-0.044396628
46	0xbd611fdd	-0.054962028
47	0xbd858892	-0.06520189
48	0x3d445230	0.047929943
49	0x3d4cdb44	0.050013795
50	0xbdaa4162	-0.08313252
51	0xbd284e54	-0.041090325
52	0x3c15662c	0.009118598
53	0xbd1cf91e	-0.038323514
54	0xbc84c1ad	-0.016205633
55	0x3b1fd0c1	0.0024385902
56	0xbc90f083	-0.01769281
57	0xbc156298	-0.009117745
58	0xbd38df8d	-0.04513507
59	0x3d414b28	0.047190815
60	0xbd367a80	-0.04455042
61	0x3a303911	0.0006722371
62	0xbd1cd5fd	-0.038290013
63	0xbdb62ce2	-0.088952795
64	0x3d23a5fe	0.039953224
65	0x3cad0673	0.02112124
66	0xbd10735c	-0.035266265
67	0xbd0d1302	-0.034441955
68	0x3cae37e0	0.021266878
69	0x3d3fc863	0.046821963
70	0xbd78721f	-0.06065571
71	0xbd30a0d0	-0.043122113
72	0xbc5874d4	-0.013211448
73	0xbb15e5e8	-0.002287263
74	0xbd852b17	-0.06502359
75	0xbd8a5225	-0.06753949
76	0x3bda7685	0.0066669607
77	0xbc228d82	-0.009921433
78	0x3d427f28	0.047484547
79	0xbbf293d2	-0.0074028755
80	0xbd1b46f3	-0.03790946
81	0xbc5165fe	-0.0127806645
82	0x3c160c6f	0.009158238
83	0xbd23c986	-0.03998711
84	0x3d253fb8	0.04034397
85	0xbd261539	-0.040547583
86	0xbdbb3e40	-0.091427326
87	0x3d2620f4	0.04055877
88	0x3d412dd7	0.047162857
89	0xbc80b598	-0.01571159
90	0x3d230c1f	0.03980648
91	0x3cef68b4	0.029224731
92	0x3cf4e488	0.029894128
93	0x3ce86e48	0.028372899
94	0x3d1d6ab8	0.038431853
95	0x3b8000b1	0.0039063324
96	0xbd086531	-0.03329963
97	0xbdc5f2f3	-0.096654795
98	0x3cd3de5a	0.025862861
99	0x3d42e9b2	0.04758615
100	0x3d353156	0.044236504
101	0xbd335821	-0.04378522
102	0xbd75602d	-0.059906173
103	0xbd23f011	-0.040023867
104	0xbd8d4632	-0.06898154
105	0xbd27403c	-0.040832743
106	0x3d20ec44	0.03928782
107	0x3cd26f98	0.025687978
108	0xbd18d17d	-0.03730916
109	0xbd2e3a0b	-0.042535823
110	0x3d4e92b5	0.05043288
111	0xbc38e256	-0.011284431
112	0xbda4d54c	-0.08048496
113	0x3cbf977b	0.023387661
114	0x3d1b010f	0.037842806
115	0xbdc61519	-0.09671993
116	0x3d4f532a	0.05061642
117	0xbcc92cdf	-0.024557529
118	0x3c371c25	0.011176144
119	0xbd496b47	-0.049174573
120	0xbd3324ce	-0.04373627
121	0x3d4b11b3	0.049577426
122	0xbd8ec869	-0.06971819
123	0x3d0cdeb1	0.034392063
124	0x3b94b2d8	0.0045379214
125	0xbda83fb6	-0.08215277
126	0xbc865bb2	-0.016401146
127	0x3c2f3721	0.010694296
128	0x3bac9144	0.0052663404
129	0x3ba5dc62	0.005061672
130	0x3cb54251	0.022126349
131	0xbdb2e317	-0.0873472
132	0x3cb09873	0.021557068
133	0xbda7fb6a	-0.0820225
134	0xbd819fc6	-0.063293025
135	0xbdb2915d	-0.08719132
136	0xbc798db6	-0.01523154
137	0x3cc82924	0.02443368
138	0x3bbb8c13	0.0057234853
139	0xbd61edd0	-0.055158436
140	0xbcfa3cab	-0.030546507
141	0x3c641522	0.013921054
142	0x3a589939	0.0008262578
143	0xbd3ebd91	-0.046567503
144	0x3cf6d8ad	0.030132616
145	0xbd5536d7	-0.052054252
146	0xbd836d7c	-0.06417367
147	0x3d278d7f	0.040906426
148	0x3c86f526	0.016474318
149	0x3ccbc718	0.024875209
150	0x3c3d0405	0.011536603
151	0x3bf61786	0.0075101284
152	0xbd085d5b	-0.033292156
153	0x3c9e2089	0.019302623
154	0xbda8030c	-0.08203706
155	0x3d04dddc	0.032438144
156	0xbd3e5a6b	-0.046472948
157	0x3c55b315	0.013043185
158	0xbd0e8418	-0.034793943
159	0xbd93d082	-0.07217504
160	0x3cbcb5f2	0.023035977
161	0x3cf07af4	0.029355504
162	0xbdb64855	-0.08900515
163	0xbdba3daa	-0.09093793
164	0xbd99032c	-0.07471308
165	0xbda6d347	-0.08145767
166	0xbd882793	-0.06648173
167	0x3d01a8a7	0.03165498
168	0x3d1b4045	0.03790309
169	0x3c9a5b03	0.018842226
170	0xbd31988e	-0.043358378
171	0xbc481207	-0.012211329
172	0xbd87d78e	-0.06632911
173	0xbdb20f7d	-0.086943604
174	0x3c714ef0	0.014728293
175	0x3c3b7bed	0.01144312
176	0xbd90bcac	-0.07067236
177	0xbd1d015d	-0.03833138
178	0x3ca4960c	0.02009108
179	0xbd94eaf0	-0.07271373
180	0x3c56c4c0	0.013108432
181	0x3d175295	0.03694399
182	0xbd48cc2e	-0.049022846
183	0x3c12ec6a	0.008967498
184	0xbd34a8f8	-0.044106454
185	0xbd93ddf4	-0.072200686
186	0xbdb1f3b1	-0.086890586
187	0xbd85fc46	-0.06542258
188	0xbd52dc0b	-0.05147938
189	0x3d27459e	0.040837876
190	0xbd3c529e	-0.045977227
191	0xbd880647	-0.06641822
192	0x3aa8f694	0.0012890869
193	0xbd860f4b	-0.06545886
194	0xbd4ab8a8	-0.04949251
195	0x3d090074	0.033447698
196	0xbd05142e	-0.032489948
197	0x3c89cb08	0.016820446
198	0xbd592da2	-0.053022034
199	0x3d3c3c82	0.045956142
