text_cnn/param/la16_actor_net.model (torch, 246743 bytes, 6 tensors)

feature1.0.weight f4 [6, 3, 5, 5]
000000 ee 17 9a 3e dd c0 9d 3e 3e 42 88 3d a8 f6 87 3d
       0.30096382 0.30811206 0.0665326 0.06638843
000010 45 29 8e be 6c 2f 5c 3c 60 96 50 3e 4f 2d 1f be
       -0.2776586 0.013439041 0.20369864 -0.15544628
000020 44 53 16 3c a0 73 9c be a8 ca e0 3d 8f 02 a1 3d
       0.0091751255 -0.30556965 0.109761536 0.07861816
000030 7b 0e 0d be 5f a4 92 3d 02 e5 8f be c9 30 09 3e
       -0.13775055 0.071602575 -0.28104407 0.13397516
000040 a9 6b 1f 3e fa 57 04 be eb 44 18 be 0d b6 7e be
       0.15568413 -0.12924185 -0.1487004 -0.24874134
000050 05 65 99 3e 52 bf 89 bd 42 77 2f bd 3f cd ff bc
       0.29959884 -0.067259446 -0.042838342 -0.031225799
000060 35 5d 5c be 47 c1 13 be 46 c3 54 be 27 5d 98 bd
       -0.2151993 -0.14429198 -0.20777616 -0.074396424
000070 32 5d 2b be 6d 8c 69 be 8b 06 0f bf 47 26 23 bd
       -0.1673477 -0.22807474 -0.5586936 -0.039831426
000080 14 38 98 be a5 6e 05 bf 3e d0 bf bc a2 0f 72 be
       -0.29730284 -0.52121955 -0.023414727 -0.23638776
000090 4e a0 bc be 32 d4 26 ba f4 5b f9 be d7 3f 6a be
       -0.36841053 -0.0006364017 -0.48702967 -0.22875915
0000a0 9f 20 d5 be d5 99 14 bf f5 2c 8b 3c a3 8a fc bd
       -0.4162645 -0.5804723 0.01698921 -0.1233113
0000b0 9d e2 64 be e9 4f 90 3d 2e a2 5a 3d 9c 81 c8 be
       -0.22352071 0.07046492 0.053377323 -0.39161384
0000c0 e2 1f 9c bc 9f d3 a5 3b d6 0f 53 3e f3 a3 73 3e
       -0.019058172 0.0050606276 0.2061151 0.2379301
0000d0 da 28 15 3e 06 41 f7 3d 56 85 c9 bd 75 c8 59 bd
       0.14566365 0.12072949 -0.09839885 -0.053169686
0000e0 75 1a 76 3d 28 77 85 bd 08 30 dc bc f4 0d 46 be
       0.060083825 -0.06516868 -0.026878372 -0.1934126
0000f0 65 3f 43 3e fe e0 b4 3d 64 3a 9f 3c f2 0d c0 bd
       0.19067152 0.08831976 0.019437023 -0.0937766
000100 d7 82 69 be 49 f4 84 3d fc a1 39 3e f0 2a 3e 3d
       -0.22803818 0.06491906 0.18128198 0.046427667
000110 1f 26 41 be 70 8f f5 bd 7c 00 6a 3e 90 eb 81 3d
       -0.18862198 -0.11990249 0.22851747 0.06343758
000120 25 09 2b 3e f0 97 b9 3c 9f d3 fc bd 86 e9 f9 3d
       0.16702707 0.022655457 -0.12345051 0.12202744
000130 d9 dd ac 3d 7d 21 6e bd da 7f 93 3d fa 74 1d 3c
       0.084407516 -0.058137406 0.0720212 0.009610409
000140 01 72 95 be 39 fe 5f be 08 b3 23 be 02 46 14 bd
       -0.2918854 -0.21874322 -0.15986264 -0.036199577
000150 37 69 98 bd f3 2e 86 be 68 c8 0d bd 18 4f 83 bd
       -0.07441943 -0.26207694 -0.03461495 -0.0641157
000160 4a 93 89 3d 79 05 43 be 7c 6e 1a 3e ba 71 27 3d
       0.06717546 -0.19045056 0.15081209 0.040879942
000170 fb 65 ed bd 42 28 f1 bd 3d 1c 1a 3d c5 95 c2 3d
       -0.11591717 -0.11775257 0.037624586 0.095012225
000180 6a 7e 1b 3e 7a 15 99 3e ae 19 b7 bd 8d fd a2 bd
       0.15184942 0.29899198 -0.08940445 -0.07958517
000190 2e 9e bd bd cd e1 f9 be 07 64 39 be 93 1e c5 bd
       -0.09258686 -0.48805085 -0.18104564 -0.09624972
0001a0 31 4b fa bb 65 ff af bd 25 2d 8c be 48 db 7d be
       -0.007638358 -0.085936345 -0.27378193 -0.2479068
0001b0 05 9a 8f 3c 3e 9a d6 bd 00 9b 2e bd 57 bc f9 3d
       0.017529497 -0.10478638 -0.04262829 0.12194126
0001c0 13 8c ca 3d cd a4 a7 be fd d3 b4 be a8 e0 89 be
       0.09889998 -0.3274292 -0.35317984 -0.26929212
0001d0 91 93 3d 3b 97 af 14 be 4a 20 05 bd d8 c3 3b 3d
       0.0028927068 -0.14520107 -0.032501496 0.045841068
0001e0 e8 82 4d bd 3a 0f a3 bc 46 01 91 bd e6 13 04 3c
       -0.05017367 -0.019904722 -0.07080321 0.008061385
0001f0 c4 e1 22 be cb 4e 28 3e ab fb c4 3b cb 60 46 bd
       -0.15906435 0.16436307 0.0060114465 -0.048432153
000200 65 63 24 bd 67 bd 6b bc 58 6c ec bd 53 fe bd bd
       -0.040133853 -0.014388419 -0.115441024 -0.09277024
000210 3d 82 f6 3d a9 c3 d1 bc 47 b9 17 bd 27 e4 ed bb
       0.1203656 -0.025605993 -0.03704193 -0.007259864
000220 0c 54 fe bc 49 55 68 3e df 47 6a bd 3e f8 60 be
       -0.031045936 0.22688784 -0.057197448 -0.21969697
000230 c3 92 67 3e 04 5e b6 3d 2c 4b 40 3d 27 7d 2c be
       0.22614579 0.08904651 0.04694669 -0.16844617
000240 f0 cf 8a bd 78 39 d6 3d e9 0a 6b bd c2 23 05 3e
       -0.06777942 0.1046018 -0.05738345 0.13001922
000250 b8 04 9a 3d 59 11 e5 bd 33 54 82 be a0 7e 65 3e
       0.07520431 -0.111849494 -0.25454864 0.22411585
000260 45 8e 22 be 01 5a 54 3c ab 6e 20 be cd a8 76 be
       -0.15874584 0.012960912 -0.15667216 -0.2408783
000270 e0 48 fb bd 3e 5d 87 3c 09 41 fb bd ae 42 9a bd
       -0.12269759 0.016523954 -0.12268264 -0.075322494
000280 b4 43 71 be 7f a4 ab be 51 29 b7 be 8f 6c 8f be
       -0.23560983 -0.33523938 -0.3577371 -0.2801251
000290 b4 42 c5 be 1e 0d d3 3e 10 71 b6 be 3f aa 21 bf
       -0.38527453 0.41220945 -0.35633135 -0.631504
0002a0 d4 0e 57 be 77 11 4d be 52 6b d6 be 49 95 39 be
       -0.2100175 -0.20026194 -0.41878754 -0.18123354
0002b0 e9 2d 97 bd 21 52 82 be a3 7e b6 3c 09 0a 6c bd
       -0.073818035 -0.25453284 0.022277182 -0.057626758
0002c0 a1 68 75 bd 30 2b db be 1f 0a 1d bd d8 40 83 3d
       -0.059914235 -0.42806387 -0.03833973 0.06408852
0002d0 1c 91 0a be 08 1a a3 be 53 82 bc 3c b7 84 22 bd
       -0.13531917 -0.31855798 0.023011362 -0.039677348
0002e0 7c 10 aa be 87 74 11 bf 9b 55 8a be 3c ba d2 bc
       -0.33215702 -0.5681843 -0.27018437 -0.02572357
0002f0 27 38 84 be 6f 32 b1 bd 89 7a cc bd a7 f3 dc be
       -0.2582409 -0.086521976 -0.09984309 -0.43154642
000300 00 65 3d be ed 7c 2c be 5f 5a 7a be 8b 76 2a bd
       -0.1849556 -0.1684453 -0.24448536 -0.041616958
000310 e2 70 48 3c 12 3d a8 3d a9 6e 26 bd 1d 77 c4 bd
       0.012233945 0.08214773 -0.040632877 -0.095930316
000320 ca 72 b1 bd ca 76 81 bd 49 34 5f 3d 8b 07 64 3c
       -0.086644724 -0.06321485 0.054493222 0.013917814
000330 5a fc 9c be e7 72 12 bd a5 32 81 3d c1 54 59 3d
       -0.3066128 -0.03575411 0.06308488 0.053059343
000340 88 95 00 be 17 47 22 be 3d 47 5d be 54 3e 46 be
       -0.12557042 -0.15847431 -0.21609206 -0.19359714
000350 6f 55 a5 be 0e af 5a be d5 72 0b be 16 b0 71 bd
       -0.32291743 -0.2135584 -0.13618024 -0.05900582
000360 bf 07 9f be b6 a1 3e be 72 9e 43 be 05 59 9a be
       -0.31060597 -0.18616375 -0.19103411 -0.30146042
000370 d7 d6 de bd 5a 72 75 be 8a 32 f5 bd 48 78 d5 be
       -0.10880821 -0.23969403 -0.1197253 -0.4169333
000380 40 ff e0 bd 86 b8 a4 3d 20 37 67 3c 20 40 c0 bc
       -0.10986185 0.080430076 0.014112264 -0.023468077
000390 d8 95 0d 3d 89 2f ef 3d a3 84 b4 3d 7e 00 a6 bd
       0.03456673 0.116789885 0.08814361 -0.081055626
0003a0 31 66 93 bc 9a 7b 60 be a4 d7 df bd 3b c3 33 3e
       -0.017993065 -0.2192215 -0.10929802 0.17554943
0003b0 73 7a 3e 3d f6 18 15 bc f4 98 c1 bd bf 53 7a be
       0.046503495 -0.009100189 -0.094530016 -0.24446009
0003c0 99 92 f4 bd 28 f0 39 3b 16 91 ae bd b1 2e b2 be
       -0.11942024 0.0028371904 -0.08523767 -0.34801248
0003d0 04 fd 62 be 0b c6 a4 3d d8 4c df bc 4a 69 af 3e
       -0.2216683 0.08045586 -0.027258322 0.34260017
0003e0 96 60 58 3d 01 79 21 3e 92 8c 84 3c ae 81 38 be
       0.052826487 0.15768816 0.01618031 -0.18018219
0003f0 dd 35 83 3d 1c c6 44 3a 0d dc 5d 3d 83 cf 9b bd
       0.06406758 0.0007506327 0.054164935 -0.07607939

feature1.0.bias f4 [6]
000000 13 7d 31 3e c2 4a 20 3e 0a ab 50 3e c9 bc b6 bd
       0.17332868 0.15653518 0.20377746 -0.08922727
000010 05 ec f2 3d 36 5b 78 bd
       0.118614234 -0.06063386

fc2.weight f4 [100, 600]
000000 c9 59 98 bb ac 19 69 3e c5 5d 0f 3d 78 af 2f bd
       -0.004649375 0.227637 0.035001535 -0.04289195
000010 d0 2b 8d bc bc 32 dd 3c 46 ed 02 be 4e 84 02 3e
       -0.017232805 0.027001731 -0.12785825 0.12745783
000020 fc 73 14 3e 15 a6 f3 3c 7b 0f a4 3d ba b8 0a 3e
       0.1449737 0.02974228 0.08010765 0.1354703
000030 b6 5d 0f 3d 2f d4 ca 3d a8 9e b5 bd 65 77 20 be
       0.03500148 0.09903752 -0.08868152 -0.15670545
000040 72 74 67 3e a0 2b e2 3c 2b 1b 24 be 12 83 3b 3d
       0.22603014 0.027608693 -0.16025989 0.045779295
000050 d9 f9 c8 bc 56 a7 bf bd d5 d3 dd bd 9f 79 0a 3c
       -0.0245332 -0.09358089 -0.108314194 0.008451848
000060 c4 81 83 bd c8 dd d0 bd fd 69 12 3e fe a3 85 bd
       -0.06421235 -0.101985514 0.14298244 -0.0652542
000070 58 48 8a 3d da 70 ea 3e b3 37 8d bd f8 54 07 3e
       0.0675208 0.45789224 -0.068953894 0.13216007
000080 ae 32 a1 3c d6 21 9d bd aa 9f 46 bd bb 84 47 be
       0.019677486 -0.07672469 -0.04849211 -0.19484226
000090 8e 1e 2e 3c f5 45 29 bd a4 86 8b be f5 0d b0 3d
       0.010627402 -0.04132648 -0.2725116 0.08596412
0000a0 4c 06 b0 3c b3 10 8a bc c4 24 af 3d 41 43 10 be
       0.021487378 -0.016853666 0.08551934 -0.14088155
0000b0 5d 39 2e 3d 0b 59 21 3d 02 f5 23 3c f5 65 34 3e
       0.042535175 0.03939156 0.010007145 0.17617019
0000c0 60 7d 11 be 97 c9 bb bd c7 60 9b bd 51 e3 6e be
       -0.14207983 -0.091693096 -0.07586818 -0.23328902
0000d0 fb e9 29 bd 79 79 bf bc cc 96 b4 3d 26 07 02 be
       -0.041482907 -0.023373352 0.08817825 -0.1269804
0000e0 e8 28 0d be a0 2e f0 bd 2c 03 90 bd 33 70 2d be
       -0.13785136 -0.11727643 -0.07031855 -0.16937332
0000f0 de 37 58 3d 87 85 0d be 51 55 35 bd f8 26 b6 bc
       0.052787654 -0.13820468 -0.044270817 -0.022235379
000100 18 8f 46 3d 7a 63 0d be ec 89 2e bd 24 7a 6c bd
       0.04847631 -0.13807479 -0.042612 -0.05773367
000110 86 1b 5f bc b2 18 9b bd 27 b2 8a 3e e0 06 85 be
       -0.013617402 -0.0757307 0.27089044 -0.25981808
000120 84 9c 09 be 4a 3e a7 3d 47 65 30 be 20 0b 32 be
       -0.13438612 0.081661776 -0.17226134 -0.17387056
000130 0f a7 92 3b cf 46 81 3d 9e 6a 00 bd cb 2d 54 be
       0.0044754813 0.06312334 -0.031351678 -0.20720594
000140 0b 4a 69 bd 60 d0 fe bc 5f 1a eb 3b b3 c8 47 be
       -0.05695538 -0.03110522 0.0071747745 -0.19510154
000150 53 13 61 3e dd 83 e3 bd 8e 84 1a be 73 59 95 3d
       0.21980028 -0.11109135 -0.15089628 0.07292452
000160 03 ed 03 be 69 12 ee bd 94 58 19 be d4 cd a1 bc
       -0.12883382 -0.11624605 -0.14975196 -0.019751467
000170 c4 a4 05 be d3 6c 01 be c8 2a 55 3e fb 61 9c bd
       -0.13051134 -0.1263917 0.20817101 -0.07635876
000180 ab 5b 36 be 9c 62 03 be 16 ce 8a 3c ef c7 43 bd
       -0.17808406 -0.12830585 0.016943973 -0.047798093
000190 d5 a3 51 3d bd f3 0a 3e 88 22 5b 3e 17 2c bd bd
       0.051181633 0.13569541 0.21399891 -0.09236925
0001a0 ce 1e 93 3c 58 0b 8f bd 93 14 55 be 37 f2 88 be
       0.017959025 -0.069845855 -0.2080863 -0.26747295
0001b0 d2 3a 1f be 2b 72 e3 3c 69 60 a2 bc 35 8f 41 bd
       -0.15549782 0.0277644 -0.019821363 -0.047255713
0001c0 4f 3a c9 bc 1a 74 39 3c 4e 18 f1 3d ec ba fc bd
       -0.024563937 0.011319185 0.11772214 -0.1234034
0001d0 a0 4c ee bd 05 1a cb bc 96 b9 9e bd 67 20 86 be
       -0.11635709 -0.02479268 -0.077502415 -0.26196596
0001e0 a8 68 da bd e5 a5 be bd f1 58 71 bc 10 06 d6 bd
       -0.10664493 -0.093089856 -0.014730678 -0.10450375
0001f0 69 e3 2e 3c e4 39 58 bd b5 cc d6 3d 3f cd 37 3e
       0.010674336 -0.052789584 0.104882635 0.17949389
000200 d7 f5 ba 3d 90 a0 61 3c 03 9f 44 3d 1a e7 0f 3e
       0.091289215 0.013771191 0.048003208 0.14053002
000210 27 93 ff 3d ca ee 12 bd 73 21 ad 3b f4 bc 50 3c
       0.12479239 -0.03587226 0.0052835285 0.012740362
000220 e4 dc ea bd de a8 6f 3d 75 b1 01 3d b3 1f 5d be
       -0.11467913 0.058510654 0.031663377 -0.21594124
000230 17 1b 89 be 48 de 7e be e1 91 10 bd 0e 03 15 3c
       -0.2677848 -0.24889481 -0.03529537 0.009094967
000240 c2 6d fc bd f8 11 f2 bd bf 70 9a bc 45 bf 04 3e
       -0.12325622 -0.118198335 -0.01885259 0.12963589
000250 79 1f a5 3e 18 b3 5d 3e 45 2c 2a 3d 8f 93 e8 bd
       0.32250574 0.2165035 0.041546125 -0.113562696
000260 7d 3f 52 bd a5 43 f9 bd fe fc 30 3c df aa 11 be
       -0.05133008 -0.12171105 0.010802506 -0.14225338
000270 51 0d 8e bb 14 7f c9 bd cc 86 96 bd d1 41 04 be
       -0.0043350835 -0.09838691 -0.07349929 -0.12915732
000280 da fc 05 3e b3 2f e1 bd 9b 17 df bd 1a 2f 6c bd
       0.13084736 -0.10995426 -0.10893174 -0.057662107
000290 41 cb 19 3d 3a 67 e8 bd 45 ad 7f be 03 bc 81 be
       0.037547354 -0.11347814 -0.24968441 -0.25338754
0002a0 85 f9 fe bd 95 7e 57 3d f8 c6 88 3e b1 3d 7b 3e
       -0.12449936 0.052610952 0.267143 0.24535252
0002b0 eb 68 42 3e 42 b9 30 be c1 a9 05 bd 02 24 70 be
       0.18985336 -0.1725817 -0.032632593 -0.23451236
0002c0 55 9f 3e be 1e 50 e7 bd 0a c4 36 3b 04 bd 0d 3d
       -0.18615468 -0.11294578 0.0027887844 0.034604087
0002d0 d4 f4 60 b9 77 de 3f be 88 22 d2 3b 17 6a 6c be
       -0.0002145351 -0.18737207 0.006412808 -0.23087345
0002e0 7e d0 6c bc 93 1e f9 bb b0 ba 55 bd a0 bb 28 bc
       -0.014454005 -0.0076025217 -0.052179992 -0.01029864
0002f0 b4 96 7a be 50 05 83 be b3 c3 5d be 15 b5 26 be
       -0.24471551 -0.2558999 -0.21656685 -0.16280015
000300 e8 c3 45 bd 93 49 d7 bd f3 8a a7 bd d5 12 33 bc
       -0.048282534 -0.1051208 -0.08180799 -0.010929783
000310 37 0d 3f bd f7 57 0b be 7c 50 1c be ae 39 48 bd
       -0.046643462 -0.13607775 -0.15265077 -0.048883133
000320 97 fc a5 bd 50 ea bf bd 85 99 87 bd d9 88 f0 3d
       -0.08104818 -0.093708634 -0.066210784 0.117448516
000330 78 db 34 3d 52 a4 64 3d 7b f1 b4 3d 49 be 32 bc
       0.044154614 0.05582077 0.08835121 -0.010909625
000340 b1 1c ba bc 64 28 65 bd 0a db 13 3e 59 cc cb 3d
       -0.02271876 -0.055946723 0.14439026 0.099510856
000350 26 ef f8 3d 34 18 c4 3d 18 40 3e 3c 84 9f 30 bd
       0.12154989 0.09574929 0.011611961 -0.043120876
000360 65 61 93 bd dc 80 9d bd 58 76 68 be a8 a6 02 3d
       -0.07196311 -0.076905936 -0.22701395 0.031897217
000370 01 6c 0a be 03 78 dc bc 67 f5 49 bc e6 23 d4 3d
       -0.13517763 -0.026912695 -0.012326575 0.103584096
000380 e8 6c 03 bc fc 51 93 bd cb fd 93 3d 38 08 dc 3d
       -0.008021571 -0.07193372 0.072261415 0.10743755
000390 a4 35 23 bd 2a b6 fe 3d e2 76 33 bd c5 80 a5 bb
       -0.039846078 0.12437089 -0.043814547 -0.005050751
0003a0 8a a1 e1 bd 3d c3 da bb 08 59 7e 3d 9e bd 2b be
       -0.11017139 -0.0066761062 0.062096626 -0.16771552
0003b0 55 51 4d bd 8c fd fd bd 23 ae 0c be 70 a1 23 be
       -0.050126392 -0.12401876 -0.13738303 -0.15979552
0003c0 da 50 d2 3d 7e 7c 7c 3e d9 08 66 3d f6 31 1b 3d
       0.102693275 0.24656865 0.05616078 0.037889443
0003d0 4a c9 72 3c 4d 53 3d bd e8 30 80 bd f7 cc 18 3c
       0.014818499 -0.04622202 -0.06259328 0.009326211
0003e0 71 4b 2f bd 3c 8d bd bd e2 41 8f 3b 0e 5b 09 be
       -0.042796556 -0.09255454 0.0043718675 -0.13413641
0003f0 f2 81 8b 3c fa 19 54 3d 84 95 a3 bc db 12 e5 bd
       0.017029736 0.051782586 -0.019968756 -0.11185237

fc2.bias f4 [100]
000000 7a ea 4b bd cf 95 60 bd e6 1a 13 3e 00 45 e4 3c
       -0.04978416 -0.05483037 0.1436573 0.027864933
000010 76 29 97 3d c7 09 73 3b 31 f9 8e bd 41 8d 84 3d
       0.07380955 0.0037084685 -0.06981123 0.064722545
000020 57 f4 0e be 0d ec b6 bd d3 3b 07 3e e4 e8 eb bd
       -0.13960396 -0.08931742 0.13206415 -0.1151903
000030 95 7b 3b bb fc 8e d1 bd 20 85 14 bc ef d5 15 be
       -0.0028607596 -0.1023235 -0.009064943 -0.1463239
000040 ee 44 0e 3d be c8 22 3c 7d b6 96 bd 64 86 36 be
       0.034733705 0.009935556 -0.073590256 -0.17824703
000050 11 37 16 3c 65 4f 96 3b b3 4f 08 bd a5 ea 3e 3e
       0.009168402 0.0045871013 -0.033279132 0.18644197
000060 15 1a 74 bd 2d 49 0f 3e c7 c1 c8 bd 64 38 d6 3d
       -0.059595186 0.13992758 -0.09802585 0.104599744
000070 e3 3b 13 be 87 21 03 3e 5b cf 69 3d 00 df d4 bd
       -0.14378314 0.12805758 0.057082515 -0.103940964
000080 af 04 3d 3d 01 b9 be bc 07 83 4e 3e 39 7d 1f 3d
       0.046147045 -0.023281576 0.2016717 0.03893778
000090 7e a4 c0 bb fa 90 35 3c a3 36 aa bd e3 6a 0f 3e
       -0.005878984 0.011081928 -0.083112024 0.14005618
0000a0 4d 01 97 bd 27 bf 52 3d 7a 2d 00 3e 84 3b 86 bb
       -0.07373295 0.05145183 0.12517348 -0.0040964503
0000b0 66 e4 77 bd e9 89 60 3c 7c 9c df 3a 17 50 c1 bd
       -0.060520552 0.013704755 0.0017060186 -0.09439104
0000c0 ae df 05 bb f8 4d 5c bd f1 29 8f bd 0c 02 98 3d
       -0.0020427513 -0.053785294 -0.069904216 0.074222654
0000d0 40 5d 04 3d a2 8e c4 bd b2 0a f4 3d 7f 14 ba bd
       0.032315493 -0.095975175 0.119161025 -0.090859406
0000e0 6a 00 63 bc e4 01 82 bc 84 de 6e bd aa d4 b1 3c
       -0.013855079 -0.015870042 -0.058317676 0.021707851
0000f0 a6 11 9e 3d 40 ba cf bd 3e 7d b0 bd cf 47 ed bc
       0.0771821 -0.10142946 -0.08617638 -0.028964905
000100 83 f0 7a bd dd 21 ee 3d 46 b8 72 bd 24 38 22 bd
       -0.061264526 0.11627553 -0.059257768 -0.03960432
000110 00 e6 e0 3b 31 36 24 bd 40 b1 51 bd 63 d9 03 3e
       0.0068633556 -0.040090743 -0.05119443 0.12875895
000120 55 4a 6c bb 32 94 c0 3a 1c a5 8b bd 41 04 44 3d
       -0.0036055048 0.0014692603 -0.068186015 0.04785562
000130 5d 27 e0 bd 87 4e 93 bc c8 bd 97 3c 77 04 a7 bd
       -0.10945008 -0.01798178 0.018523112 -0.081551485
000140 d3 29 a7 3d 49 b6 ae bc 36 e9 6d 3d 8e 1b 8c bb
       0.08162274 -0.021327155 0.058083735 -0.0042757457
000150 f6 24 1b be 8d ef 86 bd 05 33 82 3d e9 fa b5 bd
       -0.15150818 -0.065886594 0.063573875 -0.08885748
000160 61 6c b6 bd 1e 81 47 be bc 6a 00 3d 09 90 7e bd
       -0.089073904 -0.19482848 0.03135179 -0.06214908
000170 25 4b 9b ba ee a2 cd 3d 33 d1 1c be c8 8c 91 3d
       -0.0011847956 0.10040842 -0.15314178 0.0710693
000180 f1 bf ff 3d 27 c9 87 bb dd af 24 bd ca ca 9c 3c
       0.12487782 -0.0041438523 -0.04020678 0.019139666

action_head.weight f4 [6, 100]
000000 81 89 72 bd 86 59 46 bc a6 4c 9a 3d 01 32 c3 3d
       -0.059213165 -0.012106305 0.07534151 0.09531022
000010 9f 3d 97 be 74 42 89 be 4d dc 02 3e 5a 26 9d bd
       -0.295392 -0.26808512 0.1277935 -0.076733306
000020 4b da 77 3c 20 5c 86 3d e6 36 ca be 53 44 9b bd
       0.015127729 0.0656054 -0.3949501 -0.07581391
000030 ba fa ee bd 51 d5 55 bd 55 f1 5b 3c 81 67 58 3c
       -0.11668916 -0.052205388 0.013424237 0.013208271
000040 ac 80 5d be f5 39 4d 3c b3 4d 48 bd 4b 54 22 3d
       -0.21631116 0.012526025 -0.048902225 0.03963117
000050 63 7e e3 3d 59 af e8 3d ac 2d be bd 8d bf 25 be
       0.11108091 0.1136157 -0.09286055 -0.16186352
000060 9c 49 53 be fc 88 d2 3d b2 cb 7d 3d 70 88 9e be
       -0.20633548 0.10280034 0.061961837 -0.3096347
000070 72 f0 6d 3e ed 06 0e 3d 30 9e 9c 3d fe 13 1d 3e
       0.23236254 0.034674574 0.07647359 0.15339658
000080 1d 20 75 3c 76 22 1b be de 9c 0c bf 30 a1 79 3d
       0.01496127 -0.15149865 -0.5492686 0.060944736
000090 29 41 1e be c2 40 86 be 50 7c fe 3d 5a 6f c3 3c
       -0.15454544 -0.2622128 0.124260545 0.023856808
0000a0 e1 aa c9 3d 9e ef 0c bd fd 77 07 bc 08 cd 1a be
       0.09847046 -0.034408204 -0.0082683535 -0.15117276
0000b0 26 a2 99 bc 7f ad 5b 3d ee c5 34 3d 32 90 42 3d
       -0.018754076 0.053632256 0.044134073 0.047500797
0000c0 35 b3 08 3e f5 96 37 3d 1e 07 55 bd f7 64 13 3e
       0.13349612 0.0448217 -0.05200874 0.14393984
0000d0 34 90 ea bd 25 e9 9a 3d a8 5c 90 be e5 4f e0 3d
       -0.11453286 0.07564 -0.2819569 0.10952739
0000e0 ea 65 4b bd f3 b9 96 3b 8c 05 68 bd de 8f 16 3e
       -0.04965774 0.0045998036 -0.056645915 0.14703318
0000f0 be 68 77 be da 92 9f bd c6 78 3c bd 0a d9 2d 3e
       -0.2416105 -0.077916816 -0.046013616 0.16977325
000100 47 98 5f 3d a7 06 be bd 34 9c bd bd 3d 97 2b bd
       0.054588582 -0.092786126 -0.09258309 -0.04189228
000110 a2 a9 91 3c 73 b2 e8 3c 24 bb f7 3d de 83 6b be
       0.017781083 0.028405404 0.12096241 -0.22999522
000120 c0 0e 9b bc 79 9a bb bd 86 d2 7c 3c 41 f7 b8 bd
       -0.018927932 -0.09160323 0.015431052 -0.09031535
000130 0c 37 a0 bc 4f ad bf 3d d4 06 90 3c c4 3a 0b be
       -0.019557498 0.09359228 0.01758138 -0.13596636
000140 0e b6 7a be 69 48 07 be da cf bc 3d 52 2b 9e 3d
       -0.24483511 -0.13211216 0.09219332 0.077231064
000150 18 58 03 3b df da 32 3d ce b9 49 be e6 c1 f1 bc
       0.0020041522 0.043665763 -0.19699785 -0.029511403
000160 35 27 03 3d 8f d7 ba bc 21 10 8c 3d ae f9 1e 3e
       0.032019813 -0.022807864 0.06839014 0.15524933
000170 96 02 35 bd 02 b3 df 3d 64 77 73 bd 3a d5 9b be
       -0.04419192 0.10922815 -0.05944003 -0.30436116
000180 6a 4e 2b 3e a2 cb f0 3d 78 84 2f be 75 f0 85 bd
       0.16729131 0.1175759 -0.17140377 -0.06540004
000190 52 8c 87 be d3 d0 80 3b 7b 6f da 3d 17 65 77 3e
       -0.26474243 0.003931144 0.106657945 0.24159656
0001a0 74 3c 33 3c 9d 15 4f be 22 0d af bb a8 64 a3 3d
       0.010939706 -0.20223089 -0.0053421417 0.07978183
0001b0 66 cc 4c 3c 86 45 2b 3d 68 37 e5 3d ee 70 df 3d
       0.012499904 0.04181435 0.111922085 0.109102115
0001c0 80 1f 41 bd 6a 28 30 3d 8c 77 65 bd 3b 32 c9 bd
       -0.04714918 0.04300729 -0.056022212 -0.09824034
0001d0 ce af 2f be 53 ea 2e bc 84 d1 06 be 18 75 48 be
       -0.17156908 -0.010675984 -0.13165861 -0.19575918
0001e0 53 39 70 3c 96 e7 17 3e 72 50 b5 bd 03 23 7c 3d
       0.014662105 0.14834437 -0.08853234 0.061556827
0001f0 1f de c3 bd 57 88 07 be b8 59 7b 3d c4 d5 1d 3d
       -0.095638506 -0.13235603 0.06136486 0.03853394
000200 7e 63 3b be 63 ac 20 3d e6 8a 5c 3e e1 f4 11 be
       -0.18299672 0.0392269 0.2153736 -0.1425357
000210 15 f4 da 3d 15 41 ee 3c 55 c9 27 3e ec 55 36 be
       0.10691086 0.029083768 0.16385396 -0.17806214
000220 57 92 32 bc b6 7e 9a 3e 71 ee a4 3d c8 f3 f9 bd
       -0.010899148 0.30174798 0.080532916 -0.12204701
000230 83 c0 44 bd 20 ea c1 3d aa ea 71 be 55 71 4a 3e
       -0.048035156 0.09468484 -0.23624673 0.19769795
000240 e4 81 8e 3c de 28 fa 3d 5d 40 4a 3c 24 bd 91 bd
       0.017395921 0.12214826 0.012344447 -0.07116154
000250 4d 86 bb bd 25 8f b2 bd 1d d1 7b be a4 db 55 3e
       -0.09156475 -0.08718709 -0.24591489 0.20884567
000260 e1 c3 1c be 47 db 35 3d e7 a6 ab 3d 93 f9 a4 3d
       -0.15309097 0.044398572 0.083814435 0.08055415
000270 04 a8 2e bc 99 c8 eb 3d 63 e1 c1 bb 08 7e f5 3d
       -0.010660175 0.1151287 -0.005916761 0.11986929
000280 a8 86 1f 3c 99 a7 92 3d e1 72 2c 3b ed 6c 30 be
       0.009736694 0.07160873 0.002631359 -0.17229052
000290 70 a9 c2 3d 60 78 f2 bd cf f9 8d bd 5a cb 7d 3d
       0.09504974 -0.11839366 -0.06932413 0.06196151
0002a0 06 df fc 3d af a9 f7 3d 17 0f 84 3d 1e 5b 30 3e
       0.12347226 0.120929115 0.06448191 0.17222258
0002b0 79 c1 89 bd 7d 6f ab bd 8b 46 ad bd c3 46 9b be
       -0.06726355 -0.08370874 -0.08460721 -0.30327424
0002c0 ad 04 09 be 9c 60 e1 bb 68 aa 89 3c ed 6b 47 bd
       -0.1338069 -0.006877972 0.016804889 -0.04868691
0002d0 52 31 a8 3d 65 2e 99 3d e0 96 5e 3d 2f 18 45 3d
       0.08212532 0.07479552 0.054343104 0.048118766
0002e0 b3 01 5c 3d 74 dd a4 3d d2 18 8b be f2 f4 2b bd
       0.053712558 0.08050051 -0.27167374 -0.041981645
0002f0 f7 8a bb bb f8 bc c7 bb 93 7d 72 3b 75 01 3e 3e
       -0.005723353 -0.006095525 0.0037001118 0.18555243
000300 f9 95 0e be 2b 78 0b bc 81 ca 08 3d 5c dd 10 3e
       -0.13924398 -0.008512537 0.033396248 0.14146942
000310 7b e3 02 3c 12 03 00 be c1 04 14 3e a4 f7 c8 3d
       0.007988806 -0.12501171 0.14454938 0.09812859
000320 48 20 4d bd 76 3a bc 3d 70 79 40 bc 8a 07 45 be
       -0.050079614 0.09190838 -0.011747703 -0.19241157
000330 93 59 bc 3d 1c f6 17 3d fc 1e 02 bb 06 7f 76 3d
       0.091967724 0.037099943 -0.0019854894 0.060179733
000340 67 9d af bd b9 70 7f bd ff 41 99 bd ba b6 b3 bd
       -0.08574944 -0.06236336 -0.07483291 -0.08775087
000350 21 c7 45 3e 22 df 80 3c 71 11 c9 3d 35 f9 50 3d
       0.19314243 0.015731398 0.0981778 0.051018912
000360 ac 70 b0 3d bd cf 93 be 21 3b d0 3b b0 85 ab 3d
       0.086152405 -0.2886943 0.006354705 0.08375108
000370 40 29 4b bd c8 e9 4a be 76 47 de bd 73 10 51 3d
       -0.049599886 -0.19815743 -0.10853474 0.051041078
000380 95 9b 6f 3d 43 d8 01 be 10 e4 34 bc 09 28 46 3e
       0.058497984 -0.12680154 -0.011040702 0.1935121
000390 c0 40 04 3e cc 35 c9 3d 02 d8 03 3e a6 1b 4a bd
       0.12915325 0.09824714 0.12875369 -0.049342774
0003a0 af 9c 62 3d 9d bd 75 3d 53 1f 06 bd 6f e3 87 3d
       0.055325206 0.059995282 -0.032744717 0.066351764
0003b0 e2 9b 10 be a1 67 7a bd 54 e4 d3 bd 74 00 c0 bd
       -0.14121965 -0.061133984 -0.103462845 -0.093750864
0003c0 78 53 2e bd 95 f9 a1 be d7 ae c1 3d 19 4b bf 3c
       -0.04256007 -0.31635728 0.09457176 0.023351239
0003d0 04 5c b5 3c fa 4b 85 3d 7e f1 2c 3d c1 18 43 3e
       0.022138603 0.06508632 0.042222492 0.19052412
0003e0 dd 03 01 3d 63 e2 79 be cb 45 8e bd 6a 55 b1 be
       0.031497825 -0.24402766 -0.06946906 -0.34635478
0003f0 6f 37 52 3e 6f fa 65 3a b7 ee 14 3d 87 70 9f 3d
       0.20528959 0.0008772974 0.03636047 0.07785135

action_head.bias f4 [6]
000000 58 e5 d6 bd 9a 1c a2 3d f9 2d a7 3c 56 e1 a9 bd
       -0.104929626 0.079156116 0.020407664 -0.082949325
000010 80 8b 00 3d cd be 23 3d
       0.031383038 0.039976884
