text_cnn/param/la26_critic_net.model (torch, 965527 bytes, 5 tensors)

feature1.0.weight f4 [6, 3, 5, 5]
00000000: 8bc7 93bf 416c 9bbd b207 22be 3ab5 7a3e
00000010: 4b4c 373d 8b35 88bf e102 6a3d c4a0 0fbd
00000020: 9142 c13d 8b64 513e dcd6 16bf 18b2 0ebf
00000030: b3f1 5dbe f382 1d3e b010 ad3e a47d 5d3f
00000040: 3bb5 46be af3f cb3d 1584 0e3d 4600 04bd
00000050: 6f55 c9bf ea7f babd ec36 bb3d f75c 0f3e
00000060: 28ca e4bd 793b f6bd 96e4 d3be 426a 14be
00000070: 2f56 02be 394c 88bd 7a5e 22be 6d37 a9be
00000080: 1681 43bf b07b e4bd 8045 92bf b6a7 70be
00000090: 0b7e adbe 2590 c6bd 9758 cabe c49b 8ebe
000000a0: 22e7 84ba 00be 6abd c966 f0bd ad81 83be
000000b0: c090 dcbd a2ea cabd c95d b7be 7ab1 bbbd
000000c0: 50e8 9cbd 99d0 42bd 1a51 00c0 6043 57bf
000000d0: cff8 5cbe 34b1 6f3d dd19 c3bd a2f6 bfbf
000000e0: 29ad eebe 4809 f1be 7156 9bbe bceb 18be
000000f0: 00c2 73bf 70d0 2dbf 8608 6ebd a7ad ab3c
00000100: 085f 2a3e 5e1b 023f 7ae3 bfbe 9259 1fbe
00000110: 5a8f 8abc af3c 083f 4ea0 d3bf 369c fd3d
00000120: 21c2 3f3d 4783 27bd f377 b1bd 4680 d3bf
00000130: c88c 0bc0 a6dd 40be 4add a8bd c869 53bf
00000140: 72e0 c5bd c67e 313e 8535 46bf 39c1 a7bf
00000150: 1029 8abf 41d2 c9bd 2f0c 713f b9e4 04bf
00000160: c81d 193e edff 75bf 4936 13be cc27 253f
00000170: 0aa6 61bf c92e 05bf 7fa0 0ebf b395 e23e
00000180: 0e0e 5f3e a152 ddbf df8c 54bf b253 823e
00000190: d13f eabb 09a3 debc 5b6b 9abe 565b 6bbd
000001a0: 3331 08be 8512 33bc 7996 0bbd 44a8 27be
000001b0: 4cdf adbd 4297 25bd 7edc ecbd c9d7 c13c
000001c0: dbf5 9abd c160 f9bd c133 09be 3735 e5bd
000001d0: 8247 083b d728 3abc 597a 0fbe 952c a9bd
000001e0: f42d 8fbd 54b9 0ebe 6c14 04be 998c 12bf
000001f0: 376b 1abc b155 b0bf 2207 2ac0 295f 03bf
00000200: 86a7 163f 374c d9be 4e6a 203e 3d13 f7be
00000210: 6005 71bf ab0d 80bf 880b 4fbf 54ea 093e
00000220: 5141 a83e 1fc8 69bf 5d69 2cbf 118a 93bf
00000230: 9fa7 49bf 2ffd 16be f946 73be 4933 52bf
00000240: 79b3 b4be a888 2d3f b83c b43f 1120 12bf
00000250: 116b 54bf 8b95 cb3e 9f16 683f dce0 db3c
00000260: f26a c6bf 798c 37c0 e12b 4cbf 2c3a f23e
00000270: cb94 97be b188 86bf e77c 20bf 922b 21bf
00000280: b373 403e 6719 8cbe c8b2 31bd 4a1b e0bf
00000290: 7459 28bf 1a13 ffbf 078c 2cc0 0144 0ec0
000002a0: 7343 77bd e0df 7c3e 23c6 71be 4cef e13e
000002b0: 0841 d2be 3af2 a0bf 5132 9f3c 2cd3 87bd
000002c0: 33a2 85bb 7978 02bd 5f9f 65bc 8796 c1bd
000002d0: 6d00 14bc 86fb 8fbc af12 03bd 19f6 fbbd
000002e0: 74b0 c9bd 8001 f5bc 3668 a63a 08a3 403c
000002f0: 03cc 09bd 8cef c1bd da02 cabb c92a 63bc
00000300: 2630 81be 82f3 babd aeb2 9bbd c55e 89bc
00000310: b91b 8ebc 9932 283c a958 d5bd e088 87bc
00000320: 6b3a 60bb 4618 913e f18f 253f 4cfc 42c0
00000330: 6bad 6ebf d9ba 603e 0a37 2f3e e317 b53f
00000340: aba2 053e 5dcc 26bf 252d 0f3f cdee d03e
00000350: f58a 853e c088 d1bf 9150 e2be 3f04 c1bf
00000360: 2420 34bf 176f dfbf 785a 5f3c 535b c8be
00000370: 1ad1 373f e4c1 803f be77 193f dfa0 92bf
00000380: 50c8 663e 95af b0bc d259 0a3c 093b 883c
00000390: 949b e63e cbc7 22bf 2dd4 043e 057d 27be
000003a0: fdcc aabd 7636 473d 0e47 bcbd 4dd4 f53e
000003b0: 1275 73be 5e4a b2bd 510b ee3c d14a 73be
000003c0: 5314 14bf d8a9 79be dd63 1abe 85f0 283e
000003d0: a67e 2c3e 8b68 69be 0544 7fbc 75af b73e
000003e0: 7542 f73e c360 a83f e109 14bd 91d7 71be
000003f0: 745d 84be d726 81bd 09b4 513c 394f 67bd
-1.1545271 -0.07589007 -0.15823248 0.24483195 0.044750493 -1.064134 0.05713165 -0.035065427
0.09436525 0.2044851 -0.589216 -0.557405 -0.21674232 0.15381984 0.33801794 0.8651984
-0.19405071 0.09924256 0.034793932 -0.032226823 -1.5729197 -0.09106429 0.09141335 0.14000307
-0.11171371 -0.12023062 -0.41385335 -0.14493659 -0.12728189 -0.06655163 -0.15856352 -0.330501
-0.76368845 -0.11156404 -1.142746 -0.23501477 -0.33885226 -0.09695462 -0.39520714 -0.27853215
-0.0010139684 -0.057310104 -0.11738355 -0.25684872 -0.10769796 -0.09908034 -0.3581374 -0.0916471
-0.076614976 -0.047562215 -2.00495 -0.8408718 -0.21579288 0.058518603 -0.095264174 -1.4997141
-0.46616486 -0.47077394 -0.30339387 -0.14933676 -0.95217896 -0.67896175 -0.058113597 0.020956827
0.16637814 0.5082301 -0.37478238 -0.15561512 -0.016914058 0.53217596 -1.6533296 0.123833105
0.046815995 -0.04089668 -0.086654566 -1.6523521 -2.1804676 -0.18834552 -0.082453325 -0.82583284
-0.0966195 0.17333516 -0.77425414 -1.3105842 -1.0793781 -0.09854556 0.94159216 -0.51911503
0.14952767 -0.96093637 -0.14376177 0.6451385 -0.8814398 -0.52024513 -0.5571365 0.44254836
0.21782705 -1.7290841 -0.8302745 0.2545448 -0.007148721 -0.02717735 -0.3016003 -0.05746015
-0.13300018 -0.010929708 -0.03407905 -0.16372782 -0.08489856 -0.040427454 -0.11565493 0.023662465
-0.075664245 -0.121766575 -0.13398649 -0.111917906 0.0020794575 -0.011362276 -0.14011516 -0.082604565
-0.06991187 -0.13937885 -0.12898415 -0.57245785 -0.009424976 -1.3776151 -2.6566854 -0.5131708
0.5884937 -0.4244096 0.15665552 -0.48256865 -0.94148827 -1.0004171 -0.8087697 0.13468295
0.32862332 -0.91320986 -0.6734827 -1.152651 -0.78771394 -0.1474502 -0.23757543 -0.82109505
-0.35293177 0.67786646 1.408103 -0.5708018 -0.8297587 0.3976253 0.9065952 0.02684062
-1.5501387 -2.8679488 -0.79754454 0.47310007 -0.29605708 -1.0510465 -0.62690586 -0.6295711
0.18794136 -0.2736313 -0.04338339 -1.7508328 -0.65761495 -1.9927704 -2.6960466 -2.2229006
-0.06036706 0.24694777 -0.2361074 0.44127882 -0.4106524 -1.2573922 0.019433172 -0.06632075
-0.0040781735 -0.031853173 -0.014015048 -0.09452539 -0.009033305 -0.01757599 -0.03200024 -0.12302799
-0.09848109 -0.029907942 0.0012695852 0.01175762 -0.033641826 -0.09469518 -0.0061648907 -0.013865181
-0.25232047 -0.09128477 -0.0760244 -0.016768822 -0.017347204 0.01026597 -0.10417301 -0.01654476
-0.0034214507 0.28338832 0.6467276 -3.046649 -0.93233365 0.21946277 0.1711084 1.4147915
0.13050334 -0.65155584 0.5592826 0.4080719 0.26082578 -1.6369858 -0.44202092 -1.5079421
-0.7036154 -1.7455777 0.013632409 -0.39132175 0.7180344 1.0059171 0.5994834 -1.1455344
0.2253735 -0.021568099 0.008444266 0.016629713 0.45040572 -0.6358611 0.12971564 -0.16356285
-0.0833988 0.048635922 -0.0919324 0.48013535 -0.23775128 -0.08705591 0.02905813 -0.23759009
-0.5784351 -0.24381196 -0.15077157 0.16498001 0.16845188 -0.22793786 -0.015580182 0.3587605
0.4829289 1.3154529 -0.036142234 -0.23617388 -0.2585255 -0.06306236 0.012799271 -0.056472037

feature1.0.bias f4 [6]
00000000: 8647 8f3e 0cba 2e3e 07d4 b83d 2e52 67bd
00000010: bb0f 413e de3c c73d
0.27984256 0.17063159 0.09024816 -0.056474857 0.18853657 0.09728406

fc2.weight f4 [200, 1200]
00000000: d030 ab3e 04f7 55be 3f1e b0bd 495b 8b3d
00000010: 8b89 d73d bebb b5bc 204e 9e3e fd23 133e
00000020: 7dbf 0d3e 26e4 a53d e97c fb3e a58f 2a3e
00000030: df05 103e c4e2 623e 8ea1 8ebd cd5a 383d
00000040: ec6b 4d3e ca1f 063e 56cf b23e 789e 353e
00000050: 70fa 073e 09c9 5ebc d8d9 acbd 5bf7 febd
00000060: b125 093e 9d05 b93c 4682 2d3d 081e 72bd
00000070: 8b76 1a3e 450e 513e 9955 6e3e 0c09 5abd
00000080: 4edb cdbd 4b0b c13c 4f01 103e e083 543e
00000090: c647 6e3d 78ad 9f3d 2561 023f 6b7a 1f3f
000000a0: c798 b53e 5c51 563e 947a 08bd b38d 7c3e
000000b0: a6ee 9fbe 9aef 0abf cf72 cabe 11b9 003e
000000c0: 2312 b03d b9de e53d 1bc4 a33e 4d9b a13d
000000d0: 3e46 21bd 6e9f 1bbe b578 23be 3b45 0f3e
000000e0: 9ff1 6d3e ba10 75bd 9159 303d 5673 6d3e
000000f0: ed61 b33d cd92 41bb 2c0e 4f3e b265 613f
00000100: 1138 dc3e e462 6dbd c5b3 76be fc37 31bf
00000110: 7cd7 23be 1559 b03d ef25 1d3e 148e b5be
00000120: 3c10 11bf a0cf 85be c8e0 18bd 8c05 0a3e
00000130: 77cb 9d3e 3be8 f23d 6bc7 06be a791 febc
00000140: 3a7f b23e 1ca2 86bb 97c5 b0be 43f6 43be
00000150: f273 3bbc ce8c 92bc 2e7b 0b3e 2e9b 843d
00000160: 05b0 20be 1732 eebc 3019 933e 0a7c 2dbe
00000170: 87aa c0be 4d96 9c3e 8e40 3d3e 36c2 23be
00000180: b1ef af3d e245 abbd bd1b 0f3e 7b8e b03e
00000190: b390 953e 502b 24be 6524 15be dbce bebe
000001a0: 0daa 70be fa57 5c3e 3f81 de3d 3c8c 073e
000001b0: e2e0 853d d9f9 833e 45b8 ac3e db7f 9fbe
000001c0: 5a40 83bd 3587 17bf f797 97be 323f b93d
000001d0: 1f01 a63e d214 4c3e 7409 f03e 774f b13e
000001e0: 674e 633e 146b a6be ce4d 44bc 7a11 fe3e
000001f0: 6f71 2c3e cb40 b53e dd08 713e a010 843e
00000200: c6b6 a33e 7f08 133f 1b28 363e c376 c2be
00000210: d079 5e3c 75a6 14be 3f7b cabd dc9d cbbd
00000220: 1fc7 043e 782f ba3e 628c e03e cc80 7c3f
00000230: c06e 5a3e e245 713e ead9 a83e c1eb e03e
00000240: 774d 58bd 7046 36be a91c 013e 5a9c 183e
00000250: c09e d83d 487a af3d 1d35 0e3e 26f0 c13d
00000260: 0e78 653d f6c3 27be e112 02be fdd2 58bd
00000270: 50d7 2c3e 586d 273e 40cf ce3e a377 933e
00000280: eef2 6f3e e205 83be f0fb 9bbe d2f8 68bc
00000290: 8be0 2f3c f085 e23d c307 313e 021b 683e
000002a0: 051d 133e d1d3 0c3e 8172 613e 554c a8be
000002b0: 42f4 a1be d145 8f3d 8d43 f73c 22ee e8bd
000002c0: c09c b93b c78c 453d f402 913e 4976 4d3e
000002d0: 47c1 8f3e a255 89be 0e84 f5bd 62d8 603e
000002e0: 914e e93d 552f 173e 3181 503e d937 723e
000002f0: 1854 14bd d835 133e 5673 c13e 618c b5bd
00000300: 63a2 893e 4cee ffbc 3e8a 52be 800e 473e
00000310: 8475 613e 72f7 ba3d dedb f63e 5c9d 0a3f
00000320: d12f ac3b d663 06bd d324 b53c 0df6 023e
00000330: ed67 ba3d cafb 313e 2902 f83c 68aa efbd
00000340: 3998 66be 1ce4 6fbe 6587 353e 40c2 183f
00000350: 95dc 2dbe 73ad ce3d cc17 233d 9dc3 5dbe
00000360: ccc5 21be cd80 5d3d 5533 d23d 1f11 1a3d
00000370: ed5c cc3d f745 d23e df11 063f 00db acbe
00000380: 9ac5 5ebd 6669 17be a7f6 95bd a1b2 2cbe
00000390: f8b8 ffbd 3612 a33d 27a5 d7be 7f60 5f3f
000003a0: 19f9 073f 4300 c83e edb9 d6bc 6132 973e
000003b0: 68b7 243e 69e2 863e 34c1 f43e 5f43 f33d
000003c0: 8c76 7abe 57c7 3e3e 355a fb3e 8ae0 993d
000003d0: d71c 63bc 7520 623d ac90 623d be84 0abc
000003e0: cb97 d93e c3c4 bc3e 7313 b93e 7f22 e9be
000003f0: 4a16 24be 271a 17bf 0150 bfbd 78fe 2f3e
0.33435678 -0.2089501 -0.08599519 0.06804521 0.10524281 -0.022184249 0.3091898 0.14369197
0.13842578 0.081001565 0.49118736 0.16656359 0.1406474 0.22156817 -0.06964408 0.04500847
0.200607 0.13098064 0.3492381 0.17736232 0.13279128 -0.013597735 -0.08439988 -0.12449523
0.13393284 0.022585684 0.042360567 -0.05911067 0.15084283 0.204156 0.2327484 -0.053231284
-0.10051595 0.023564955 0.14062999 0.20753431 0.058173917 0.077967584 0.5092948 0.6229617
0.35468122 0.20929474 -0.033320025 0.24663429 -0.31236762 -0.5427185 -0.39540717 0.12570597
0.08597209 0.112241216 0.31985554 0.078909494 -0.03937363 -0.15197536 -0.15964015 0.13991253
0.23236702 -0.059830405 0.043054167 0.23188528 0.08758912 -0.0029536963 0.2022025 0.880458
0.43011525 -0.057955638 -0.24092014 -0.6922605 -0.1600017 0.08610741 0.15346502 -0.3545996
-0.56665397 -0.26134968 -0.037323743 0.13478678 0.30819294 0.11860701 -0.1316201 -0.031075312
0.3486269 -0.0041086804 -0.3452575 -0.1913691 -0.011441218 -0.017889407 0.13621208 0.06474911
-0.15692146 -0.02907662 0.28730154 -0.16941848 -0.37630102 0.3058342 0.18481657 -0.15992054
0.085906394 -0.083629385 0.13975425 0.34483704 0.2921196 -0.16032147 -0.14564665 -0.37267193
-0.23502369 0.21517935 0.108644955 0.13237089 0.065370336 0.25776556 0.33734336 -0.31152233
-0.064087585 -0.59190685 -0.29608127 0.09045257 0.3242273 0.19929817 0.46882212 0.3463094
0.22197877 -0.3250357 -0.011981441 0.4962271 0.16840146 0.35400996 0.23538537 0.25793934
0.31975383 0.5743484 0.17788737 -0.37981233 0.013578847 -0.14516623 -0.098867886 -0.09942219
0.12966584 0.3636434 0.43857104 0.9863403 0.2133131 0.23561814 0.32978755 0.43929866
-0.05280825 -0.17800307 0.12608589 0.14903393 0.10577154 0.08568245 0.13887449 0.09469633
0.056022696 -0.16383347 -0.12702514 -0.05293559 0.1687901 0.16350305 0.40392494 0.28802213
0.23432514 -0.25590426 -0.3046565 -0.01421948 0.010734688 0.11060703 0.17288117 0.22666553
0.14366539 0.13752677 0.22016336 -0.32870737 -0.31631666 0.06995738 0.030183578 -0.11373545
0.005664438 0.04822996 0.28322566 0.20064653 0.28077146 -0.26823145 -0.11988078 0.21957543
0.113919385 0.1476415 0.20361783 0.23654117 -0.03621301 0.14376009 0.37783307 -0.08864666
0.26881704 -0.031241558 -0.20560548 0.19439125 0.22017485 0.09129228 0.4821462 0.5414636
0.0052547236 -0.032810055 0.022112286 0.12789173 0.091018535 0.17381206 0.030274468 -0.11702424
-0.22519006 -0.2342686 0.1772743 0.596714 -0.16978677 0.100916766 0.039817616 -0.21656652
-0.1579811 0.054077912 0.10263697 0.037613984 0.09978662 0.41069004 0.5237102 -0.33760834
-0.054387666 -0.147863 -0.07322436 -0.16865017 -0.12486452 0.07962458 -0.4211819 0.87256616
0.5311447 0.390627 -0.026211703 0.29530624 0.16085589 0.26344612 0.47803652 0.118780844
-0.24459285 0.1863073 0.4909226 0.075135306 -0.013861856 0.055206735 0.05531375 -0.0084545
0.4249862 0.36868867 0.3614765 -0.4553413 -0.16024128 -0.5902428 -0.093414314 0.17186916

fc2.bias f4 [200]
00000000: 3556 553f 8220 06bb b762 dc3d 6295 6cbc
00000010: ccf7 1a3c d089 ae37 ad12 363f c889 a1bc
00000020: 5b8d 0dbd e800 9cbb 76ab 2abc 17d6 22be
00000030: b3a2 673f be20 06bd c91c 763e a56e abbc
00000040: 106d 843e d36c 7cbc 0044 a9bb 369c cdbb
00000050: a5cb 053c 5bfc 3abd 3349 e6bc 1b04 38bd
00000060: 9750 10bd 81b4 79bc 9c5c e03b f399 3fbe
00000070: 59e4 5b3f 7e4b 16bd 6d71 3d3f 9501 eebc
00000080: 62f9 273d ffec e2bc 7253 9bbc ae9b 28bc
00000090: c357 2fbd bca7 533d 4553 063f a69d fa3e
000000a0: ac2b 4abc 4546 febc 53ff 853e d524 e13e
000000b0: 3437 21bd e641 c73b 1af1 b33d 177d e03e
000000c0: e024 d5bc b934 2f3f e0bf 703f 4dc4 7b3e
000000d0: 7c41 503d 07e3 24bc 6956 ab3e 6588 aabc
000000e0: 2498 a33e fb19 ba3e 7f0f 06bd 84a3 29bd
000000f0: bdcd 9bbc e3f2 c93e dcf8 2bbd ae37 e73c
00000100: 5e14 dfbb 3ee7 a33d 7a97 413f db5f f0bb
00000110: d59a 143c 0dce 9ebb feac b3bc 7abe be3d
00000120: 6fac dfbc ac89 053f 2cc7 903e b392 81bc
00000130: 32dc 203c 9162 76bc 2367 efbc 0488 22bd
00000140: 383d cd3d 79c9 9d3c d444 11bd c4d4 333b
00000150: db5a 3ebd f18e e5bc 57e9 be3e 0dfa 3fbd
00000160: cbc6 fbbc 9ec4 373d 802c 39bd 4b22 26bd
00000170: d4eb e83d bc36 0dbd 69d0 3abd 601e cabc
00000180: 9b28 fa3e 0807 a7bd b523 c23b d26a c43e
00000190: 2e07 28be c0b5 8bbc 46c6 5a3e b529 b13b
000001a0: 5ec9 1c3d 5410 e9bd c668 a73e 007f 35bd
000001b0: 3302 0ebd f451 593f e752 a9bc 2eb4 bb3e
000001c0: ff98 febb 69e8 2b3c 703c 043f d480 a23b
000001d0: e4b0 883d a9e9 0e3f 1729 7d3e 1905 43bc
000001e0: 1e2c fd3d 06e1 40bd 14fe e0bd bbad 85bb
000001f0: 5571 cebc 6123 5d3e 7d71 083c f501 4ebc
00000200: 2c57 abbc 59f7 3cbd 3da9 9e3e 801b 2d3c
00000210: 9d77 2dbd df00 e2bc 2482 afbb a973 be3e
00000220: 37b7 1b3f f940 c9bd be6d 513f b1a7 1bbd
00000230: 2648 5cbb fee3 2ebc cc52 9dbb af3e b13d
00000240: 3399 e13d c1ac b2bc 59c7 0ebc 7753 da3a
00000250: c04d fe3e a892 783a 9443 30be 5f66 e73b
00000260: 7ce2 903e 3cd5 31bd 40d7 6c3e 4c17 593f
00000270: cd1b 05bc 601f 983d 9cf9 473f 38bb 3c3f
00000280: c9aa 64bb 1a2c 00ba 7bd8 113f 7c62 843e
00000290: ac07 9dbc 7b2a 95bc 6349 a2bc c2b9 18bc
000002a0: eed6 95bb 8606 dd3e c6da 523e df3f 133c
000002b0: be6d 1fbd bb72 05bd eceb b33e 6205 0bbd
000002c0: 7094 cfbc 5c72 ad3d 3327 633d 0aa7 143f
000002d0: 2277 093a 95fa eabb 25cb 233f 6ed8 903d
000002e0: 5e9e d0bc 4a22 cbbd e29d 2abd 5db6 4f3e
000002f0: 980d e7bc 4d19 6c3f f764 8d3b 657c bdbc
00000300: 2886 45bb 3349 27bd bba1 2cbc 8077 b4bc
00000310: 67c4 30bd 927f dabc c95b 203c c111 6f3e
0.83334666 -0.0020466154 0.10761016 -0.0144399125 0.009458493 2.080659e-05 0.71122247 -0.01971902
-0.034558635 -0.00476085 -0.010416856 -0.15901981 0.90482634 -0.03274607 0.24034418 -0.020926783
0.25864458 -0.015406805 -0.005165577 -0.0062747253 0.008166228 -0.04565082 -0.028111076 -0.04492579
-0.035233106 -0.015240789 0.0068469774 -0.1871107 0.85895306 -0.03669309 0.740012 -0.029053489
0.041009314 -0.0277009 -0.018960688 -0.010291023 -0.042808305 0.051673636 0.5247081 0.489484
-0.012339514 -0.031039366 0.2617136 0.43973413 -0.039359286 0.0060808538 0.08786221 0.43845436
-0.02601856 0.68439823 0.9404278 0.24586602 0.0508437 -0.010063893 0.33464363 -0.020816991
0.31952012 0.36347947 -0.032729622 -0.041415706 -0.019019002 0.3944312 -0.041985378 0.028224792
-0.006807848 0.0800309 0.7562176 -0.0073356456 0.009070118 -0.0048463405 -0.021933075 0.09313674
-0.027303902 0.52163196 0.28276956 -0.015817022 0.009818124 -0.0150381485 -0.029223984 -0.039680496
0.10021442 0.019261109 -0.03546603 0.002744005 -0.046473365 -0.028022261 0.372874 -0.046869326
-0.03073444 0.044865243 -0.045208454 -0.040560048 0.11373106 -0.034476027 -0.04560891 -0.024672687
0.48859105 -0.08155638 0.0059246668 0.38362747 -0.16408989 -0.017054439 0.21364698 0.005406583
0.038277976 -0.113800675 0.32697123 -0.04431057 -0.034670066 0.84890676 -0.020669414 0.36660904
-0.0077697034 0.010492423 0.5165472 0.004959205 0.06674364 0.5582529 0.24722706 -0.011903071
0.1236193 -0.0470896 -0.109859616 -0.004079548 -0.025200525 0.21595527 0.008327839 -0.012573709
-0.02091559 -0.046134327 0.30988494 0.010565639 -0.0423504 -0.027588306 -0.00535609 0.37197617
0.6082644 -0.09826846 0.8180808 -0.03800172 -0.003361234 -0.010674475 -0.00480113 0.08654534
0.110155486 -0.021810891 -0.00871452 0.0016656955 0.49668694 0.00094823027 -0.17213279 0.007061764
0.28297794 -0.043416247 0.23128986 0.84801173 -0.008124304 0.07427859 0.7811525 0.73723173
-0.0034891835 -0.0004889384 0.5697095 0.25856388 -0.019168697 -0.018208733 -0.019810384 -0.009321632
-0.0045727408 0.4316904 0.20591268 0.008987396 -0.038923018 -0.03258012 0.35140932 -0.03394068
-0.025339335 0.08469078 0.055457305 0.5806738 0.00052438874 -0.007170985 0.6398185 0.07072531
-0.02546614 -0.099186495 -0.041654475 0.2028441 -0.028204724 0.92226106 0.0043150145 -0.023130605
-0.0030139778 -0.040841293 -0.010536606 -0.022029638 -0.043156054 -0.026672158 0.009787508 0.23346616

state_value.weight f4 [1, 200]
00000000: 5384 69bd 2af3 2c3d 41da a0bd f1df b23b
00000010: 3339 8e3d b35c 483c 8101 b8bb f0b6 103c
00000020: dc83 3a3d e901 8539 a229 f23c 11e0 e13d
00000030: eee6 d1bd 2711 93bc 6d65 babd 436c 133d
00000040: 3fb1 2fbe 6efc bf39 9b5b 8d3a 43db 193d
00000050: e0da ae3c caab e3ba 3f9e 863c e35c 1ebc
00000060: 4ac7 2c3d 7446 0a3c 1210 5a3b e348 673e
00000070: 5a43 64bd d081 863b ee2c 01bc 5e75 58bc
00000080: 7d0b a83d 6c2a e7bb d325 b73b 8213 8ebc
00000090: acad 1e3e c095 0dbc 0ae0 e7bc 7c20 67be
000000a0: 198e 3e3d 9a6d 7f3c 111b 8fbd 9196 5cbd
000000b0: f420 2e3e eca2 21bc 93ea 313e b6e7 b03d
000000c0: 26e3 003c 3595 02be 48f7 c3bd 8ac0 053e
000000d0: 8f31 233e eeaa 5abc 7694 64be fe3b b33b
000000e0: a9a6 b53d 24f9 23bd a937 3a3d 2769 bb3c
000000f0: 0a5e 94bb 664f 4bbe e0f7 2a3d df73 963d
00000100: b986 303d e749 9e3d 9238 1abc 1af0 683c
00000110: 7f11 2f3d 1f5a 733c cacc 443d d64c f63d
00000120: fd70 41bc b5a7 5abe 1b9d 0dbe 3692 263d
00000130: a714 93bc 0990 653c 04b6 7c3c 9845 803e
00000140: fe4f e03d be8a f03d 812f 0f3d 04f5 163d
00000150: c792 d23d 8554 a63c 2f1e 973c e1ba 6e3c
00000160: adbf f43c 8d53 b13d f41f 293d 2b3d a73c
00000170: 6293 debe b566 693c 48d6 8cbc 6f6c 48bc
00000180: 5770 5abd a34f 8e3e 39e7 cb3c 7f01 bcbb
00000190: b983 fc3d f29f 673c 43c3 3dbe e7f1 093d
000001a0: 21c5 0b3e e6dc 513e 06bf f8bd 77b0 7a3c
000001b0: a080 6ebc da82 8bbd 1db9 ab3e 53eb 5bbd
000001c0: 272f 313d 7715 cc3d bb8d 9dbc 0f5d f2bb
000001d0: 3035 82bd 3857 0abd 0fa6 d8bd ae9a ad3c
000001e0: b9ac 04be f73b ab3d c074 3c3e 2a40 c23c
000001f0: 3864 283d c657 6ebd 078c 6cbc 6239 8b3c
00000200: 1e0b 613c 34ad 0cbc e86c 01be beb5 1b3c
00000210: 3494 303d af08 84bc 4712 533c e086 fc3d
00000220: ed62 e6bc 9c43 5d3e e16c 2fbd 4ade 283c
00000230: 99dc 41bc 2cc5 c43c d020 a73c 1bf1 6ebd
00000240: 2955 6f3d b270 393d db17 463d 1bec 4f3d
00000250: dd58 9fbe 748e e43e 4eba 253e dd36 293d
00000260: 56c8 8ebd 78cd 9e3c bbba 9c3e 15a1 8cbd
00000270: a2e6 3fbc 5c64 bf3d 52cf 08bd a345 27bc
00000280: bbd7 28bc e3d3 3d3d 0fcb 2ebd 6cbe c1bd
00000290: e43a 8d3c d7db 8abc b2ee 1b3d 7d8b 083d
000002a0: 940e cc3a f986 55be 1ecb bfbd 3525 7ebc
000002b0: 80ce 37bc c72f 8fbc 46dc a63e b6da 593c
000002c0: cc37 543d d7a4 213e fb1f ab3d 75d0 77bc
000002d0: 2d14 b4bb 43b4 1d3c 2de4 71be b240 dc3d
000002e0: 05ab 953e bc31 563e 53b9 923b 0fd4 e5be
000002f0: 0e59 c23c e72f d3bd 7848 99bb 0114 eb3c
00000300: 86ba 7e3c d934 c93c 332d 333d b4f7 14bc
00000310: 5aa6 023d 521f de3a c292 2bbc e131 b2bd
-0.05701096 0.042224087 -0.07854129 0.005458825 0.06944504 0.0122291325 -0.0056154137 0.008832678
0.045535907 0.0002536916 0.029560868 0.110290654 -0.102491245 -0.017952515 -0.09101377 0.03599192
-0.17157458 0.00036618434 0.0010784747 0.03756262 0.021344602 -0.0017369923 0.01643288 -0.009665701
0.042182244 0.008439649 0.0033273739 0.22586398 -0.055728294 0.0041048303 -0.007884247 -0.013211576
0.08205316 -0.0070546176 0.005589226 -0.017343286 0.15495938 -0.00864166 -0.028305072 -0.22570986
0.046522234 0.015590096 -0.069875844 -0.05385453 0.17004758 -0.009865504 0.17374639 0.08637945
0.007866656 -0.1275223 -0.095686495 0.13061729 0.15936874 -0.013346417 -0.22322258 0.005469798
0.088696785 -0.04003252 0.045463238 0.022877289 -0.004527812 -0.19854507 0.0417403 0.073463194
0.04309723 0.077289395 -0.0094129015 0.014217401 0.042741295 0.0148530295 0.048046865 0.12026374
-0.011806724 -0.21353038 -0.13829462 0.04066678 -0.017954184 0.014011391 0.015424255 0.25053096
0.10952757 0.11745213 0.034957413 0.03685476 0.10281902 0.020303974 0.01844701 0.014570923
0.029876554 0.08658514 0.04129024 0.02041491 -0.4347182 0.014245679 -0.017192021 -0.012232884
-0.053329792 0.27795133 0.024890529 -0.005737483 0.123298116 0.014137255 -0.18531518 0.03367796
0.13649417 0.20494422 -0.1214581 0.015300862 -0.014557034 -0.06812067 0.33539668 -0.05369122
0.04325786 0.099650316 -0.019232621 -0.0073963474 -0.06357801 -0.033774585 -0.10578548 0.021191921
-0.12956513 0.08361047 0.18403912 0.023712236 0.0411112 -0.058189176 -0.014437682 0.016995136
0.013735561 -0.008586217 -0.126392 0.00950378 0.043110088 -0.016117422 0.012882776 0.12330413
-0.028123343 0.21607822 -0.042828444 0.010306904 -0.01183238 0.0240198 0.020401388 -0.058335405
0.058430824 0.04527349 0.048362594 0.050762277 -0.31122485 0.44639933 0.16184351 0.041312087
-0.06971805 0.019385085 0.30611214 -0.068666615 -0.011712702 0.09345314 -0.03340084 -0.010209474
-0.01030534 0.04634465 -0.04267412 -0.09460148 0.017239995 -0.016950531 0.038069434 0.03333615
0.001556831 -0.20852269 -0.093649134 -0.015511801 -0.011218667 -0.017478837 0.3258993 0.013296774
0.051811025 0.15785538 0.08355709 -0.015125384 -0.005495569 0.009625497 -0.23622198 0.10754527
0.2923204 0.2091741 0.004477659 -0.4488835 0.023724105 -0.10311871 -0.0046778284 0.028696062
0.0155474 0.024561333 0.043744277 -0.00909226 0.031896926 0.001694659 -0.0104720015 -0.0870092
